checkpoint_critic_0.pth (torch_old, 185340 bytes, 5 tensors)

fcs1.weight f4 [256, 48]
0.74234754 0.85037214 0.023291897 0.32485086 0.24800491 0.03807014 0.0009834978 0.3248098
0.49539775 0.76386404 -0.11544003 -0.04163328 0.020367963 -0.15101853 -0.06829635 -0.09070173
0.37231988 0.80905205 -0.095934674 -0.08904185 -0.08328209 -0.3371598 0.0062155933 0.022498501
-0.09915879 0.19383012 0.04802551 0.0780674 -0.33477262 -0.015258864 0.061596315 0.13445425
0.0038579367 0.2170327 0.044409793 -0.13472734 -0.0180113 -0.15877655 0.041321166 -0.18469307
0.09577879 0.25765672 -0.049601052 0.25156567 0.093277775 -0.268199 -0.09434852 0.32566935
0.24367781 0.06912574 -0.082378946 -0.0028705338 0.14819188 -0.20381995 -0.05977976 -0.055300307
0.3016391 -0.0026807252 -0.02285945 -0.2122869 0.106752135 -0.119842485 -0.037321087 -0.146928
0.3283032 -0.049741343 -0.009044722 -0.14255303 0.12907492 0.058793254 -0.024056438 -0.074289285
0.5124541 -0.030993272 -0.011851485 -0.18825108 -0.19290079 -0.10812069 -0.039847016 -0.23481631
0.41619498 0.05288495 -0.09280535 -0.09592749 -0.18976218 -0.062387295 0.0055317553 -0.17710863
0.45080203 -0.14311916 -0.036266025 -0.5412068 -0.11324397 -0.018528707 -0.033166807 -0.4502101
0.002496483 -0.0979421 -0.0050646737 0.05669873 0.086534336 -0.12619716 -0.01785065 0.17079724
0.0049929162 -0.018342098 0.00353877 0.35521162 0.004349939 0.04960875 0.006863545 0.4139893
0.058558043 0.1381347 0.011199818 0.14228906 -0.056012895 0.21501312 -0.022820177 0.03161594
-0.2473632 0.49800697 0.017327815 -0.4882673 -0.07290636 -0.1649659 -0.058331955 -0.42106536
-0.07054134 0.2477904 0.009356305 -0.37102 -0.036585648 0.024722641 -0.07227879 -0.3233063
0.2523 0.1962802 -0.056972828 -0.53754354 0.020818483 0.29247352 -0.014560589 -0.5579301
0.39519313 0.5768444 -0.018207364 0.024106884 0.26676083 0.013595033 -0.018348537 0.028262598
0.4312435 0.60275614 0.04361085 -0.08427249 0.008650047 0.043357693 -0.064099126 -0.08242361
0.48237255 0.44881734 0.011281358 -0.34169567 -0.14273958 0.1828354 -0.035278466 -0.27775556
0.026439838 -0.20953646 0.006561542 0.12080566 -0.2754088 0.010066763 -0.026984239 0.13687158
0.28195855 -0.060526747 0.020767873 0.3008868 0.019117516 0.1181743 0.01243319 0.28806072
0.3983006 0.12559037 0.0024342116 0.5535314 0.18594672 0.22000396 0.010012928 0.59644186
-0.013878617 -0.007972477 0.04430298 -0.019022359 0.57800984 0.0982408 -0.045192365 -0.0021727032
-0.018092806 0.067659006 -0.018777749 -0.043264516 -0.047300007 0.10546025 0.018305628 -0.043365937
0.1520619 0.07818413 -0.020124137 0.0033803836 -0.7157971 0.123465136 0.019419197 -0.06567076
-0.16942374 0.13493632 0.00068730477 0.018001856 -0.6103568 0.14132895 -0.0050125048 -0.010745842
-0.024376854 0.2888049 0.0034609388 0.06181806 0.020942578 0.10351921 -0.02183578 0.008231798
0.35095957 0.3542022 0.010132356 0.07570877 0.71600705 0.13964443 -0.050839994 0.050240807
-0.02367814 -0.6777455 -0.003816473 -0.097685665 0.29947013 -0.21019317 -0.027028255 -0.056304924
-0.020813212 -0.59440225 0.061012905 -0.012433483 -0.033819616 -0.07182401 -0.04083832 0.028125549
00000000: 7d0a 3e3f fdb1 593f a6ce be3c da52 a63e
00000010: 00f5 7d3e 6fef 1b3d b6e8 803a 784d a63e
00000020: c6a4 fd3e 988c 433f d36b ecbd a987 2abd
00000030: b7da a63c 9aa4 1abe f5de 8bbd d4c1 b9bd
00000040: b6a0 be3e 091e 4f3f 6679 c4bd 935b b6bd
00000050: cd8f aabd 36a0 acbe 2dac cb3b c74e b83c
00000060: c413 cbbd 677b 463e 66b6 443d cde1 9f3d
00000070: 5167 abbe 5000 7abc 6b4c 7c3d 60ae 093e
00000080: 70d5 7c3b d23d 5e3e 0be7 353d f7f5 09be
00000090: 6f8c 93bc 5296 22be 6240 293d 2e20 3dbe
000000a0: ac27 c43d 95eb 833e 792a 4bbd 37cd 803e
000000b0: 6b08 bf3d 6151 89be cc39 c1bd 22be a63e
000000c0: ad86 793e cc91 8d3d 4bb6 a8bd 911f 3cbb
000000d0: 9dbf 173e 2db6 50be 9fdb 74bd 9382 62bd
000000e0: 7170 9a3e 1baf 2fbb be43 bbbc bd61 59be
000000f0: dda0 da3d fa6f f5bd ffdd 18bd 4b74 16be
00000100: 5b17 a83e 94bd 4bbd 5030 14bc 6cf9 11be
00000110: 372c 043e 32d1 703d 0212 c5bc fb24 98bd
00000120: 3130 033f 9ae5 fdbc bb2c 42bc e4c4 40be
00000130: c987 45be 616e ddbd a036 23bd b073 70be
00000140: 8217 d53e e49d 583d bb10 bebd a275 c4bd
00000150: 0451 42be d289 7fbd ba43 b53b f75b 35be
00000160: 86cf e63e d48d 12be af8b 14bd 878c 0abf
00000170: 74ec e7bd 84c9 97bc ebd9 07bd f081 e6be
00000180: 099c 233b de95 c8bd 90f5 a5bb ed3c 683d
00000190: ea38 b13d d439 01be 873b 92bc 79e5 2e3e
000001a0: 9e9b a33b 2b42 96bc b5ea 673b 4cde b53e
000001b0: ef89 8e3b 8b32 4b3d 97e7 e03b 68f6 d33e
000001c0: 8fda 6f3d 2f73 0d3e 717f 373c 39b4 113e
000001d0: c76d 65bd 662c 5c3e 61f1 babc b77f 013d
000001e0: c74c 7dbe c5fa fe3e 10f3 8d3c 2cfe f9be
000001f0: ee4f 95bd d2ec 28be 7ded 6ebd e195 d7be
00000200: fa77 90bd c4bc 7d3e 304b 193c 55f6 bdbe
00000210: d5da 15bd 2387 ca3c e706 94bd 6788 a5be
00000220: 772d 813e adfd 483e 575c 69bd 749c 09bf
00000230: 868b aa3c 17bf 953e 898f 6ebc 82d4 0ebf
00000240: c156 ca3e 13ac 133f 9c27 95bc cd7b c53c
00000250: e094 883e b4bd 5e3c ac4f 96bc f786 e73c
00000260: f3cb dc3e 3a4e 1a3f 4aa1 323d 0e97 acbd
00000270: edb8 0d3c d697 313d 6746 83bd b6cd a8bd
00000280: 89f9 f63e 63cb e53e 72d5 383c bcf2 aebe
00000290: 532a 12be 3439 3b3e 2780 10bd fa35 8ebe
000002a0: 5c98 d83c ba90 56be 3402 d73b f568 f73d
000002b0: 6202 8dbe 10ef 243c 0d0e ddbc 1028 0c3e
000002c0: df5c 903e e5ea 77bd 6321 aa3c d60d 9a3e
000002d0: 569c 9c3c 5e05 f23d 94b4 4b3c b27c 933e
000002e0: 0eee cb3e c39a 003e 4b87 1f3b 3cb4 0d3f
000002f0: d168 3e3e b848 613e 440d 243c 6ab0 183f
00000300: 2463 63bc fe9e 02bc 0b77 353d c7d4 9bbc
00000310: 74f8 133f 7932 c93d a11b 39bd e963 0ebb
00000320: 5d37 94bc ce90 8a3d cbd3 99bc 2236 31bd
00000330: a7bd 41bd 8bfb d73d aff5 953c 7ba0 31bd
00000340: 1db6 1b3e 001f a03d 60db a4bc 6d89 5d3b
00000350: 7b3e 37bf 4adb fc3d 0215 9f3c 647e 86bd
00000360: 6b7d 2dbe bf2c 0a3e 3e2c 343a a178 933c
00000370: 5840 1cbf 89b8 103e f03f a4bb 540f 30bc
00000380: f8b1 c7bc 3cde 933e ebd0 623b ef34 7d3d
00000390: c58f ab3c e101 d43d f3e0 b2bc aade 063c
000003a0: f9b0 b33e fe59 b53e 2e02 263c 330d 9b3d
000003b0: 3d4c 373f f3fe 0e3e 993d 50bd 4ec9 4d3d
000003c0: a9f8 c1bc bb80 2dbf cb1d 7abb 6c0f c8bd
000003d0: 2654 993e e13c 57be 5c6a ddbc fe9f 66bd
000003e0: 7880 aabc bf2a 18bf abe8 793d cfb5 4bbc
000003f0: 7086 0abd 7718 93bd 1546 27bd 8d67 e63c

fcs1.bias f4 [256]
-0.20261769 -0.42319542 -0.10619409 -0.18151025 -0.39335626 -0.2962416 -0.13107383 -0.31566325
-0.26107135 -0.103957124 -0.09058058 -0.12157028 -0.43769133 -0.24979398 0.13001393 0.016807415
-0.21315548 -0.1814383 -0.077212766 0.19589931 -0.17356266 -0.12379306 -0.4413357 0.012997605
-0.28368023 -0.3708268 -0.23053169 -0.31385925 -0.16949104 -0.07059903 -0.19074672 0.15797387
-0.42400876 -0.18191229 -0.1608476 -0.19905888 -0.33514565 -0.024218611 0.065348625 0.09204699
-0.36863428 -0.2523062 -0.22029997 -0.21278079 -0.11524219 -0.47468567 -0.3181709 -0.4492193
-0.14934935 -0.28821546 -0.2229463 -0.04622876 -0.14208224 0.051085636 -0.029522289 -0.14451137
-0.074853875 -0.18410906 -0.27872485 -0.2043446 -0.21379565 -0.20269212 -0.20641273 -0.40421137
-0.42221388 -0.33988842 -0.23925295 -0.12694512 -0.2543001 -0.09118312 -0.29462537 -0.10114776
-0.25011438 -0.110373214 -0.091784604 -0.2632239 -0.20763326 0.075571515 -0.33442688 -0.019237971
-0.20788886 -0.2083654 -0.40014687 -0.34558854 -0.1603471 -0.22000368 -0.08029154 -0.5374377
-0.121350095 -0.13900006 0.04056983 -0.41966814 -0.4711002 -0.107840136 0.21766733 -0.32482052
-0.20031585 -0.2158915 -0.3378813 -0.0923359 -0.4913223 -0.14512102 -0.387812 -0.19831088
-0.29650572 -0.24061649 -0.3961872 -0.40674376 -0.3474883 -0.1229947 -0.20833273 -0.1485548
-0.2397406 -0.39260408 -0.1422975 -0.3044083 -0.09292073 0.054022875 -0.12677144 -0.226601
-0.15216932 -0.33935523 -0.02003852 -0.022117967 -0.28366423 -0.15418936 -0.120002195 0.035359442
-0.20839126 -0.49323925 -0.29138762 -0.17360239 -0.50477743 0.05772032 -0.50679725 -0.0028243936
-0.06330469 -0.10212046 0.09291448 -0.1473911 -0.14560431 -0.31034324 -0.2991152 -0.06756496
-0.10978008 -0.22387856 -0.23655698 -0.19004022 0.011367043 -0.36638385 -0.06651282 -0.18276913
-0.06468651 0.009267315 -0.19805613 -0.36042294 -0.3390285 -0.19791238 -0.21558623 -0.12243007
-0.003910912 0.15746732 -0.2914879 -0.37412128 -0.040469497 -0.0038406698 0.09664412 -0.2138219
0.25837326 -0.23050241 -0.08800152 -0.2780648 -0.10833257 -0.18822512 -0.32473156 -0.22101459
-0.34391528 -0.03992467 -0.09450247 -0.009907571 -0.09164749 -0.10876046 -0.25463644 -0.3087221
-0.22248015 -0.08065541 0.10622767 0.09709344 -0.3097471 0.17161523 -0.19362934 -0.3542733
-0.20566079 -0.0060160444 -0.30166155 -0.053355116 -0.13800772 -0.37490186 -0.26589105 -0.33149195
-0.32824737 0.09201923 -0.32005718 0.120124854 -0.189603 0.30903232 -0.28254005 -0.36300355
-0.19729201 -0.049099077 -0.27794313 -0.17017917 -0.2280251 -0.30013084 -0.14239049 -0.15872087
0.053948224 -0.21309194 -0.33440003 -0.44533435 -0.21383357 -0.07966858 -0.03333404 -0.17471306
0.17466106 -0.30867407 -0.047355738 -0.29806247 -0.2913082 -0.111286215 -0.34867555 0.10572354
0.16689762 -0.085041344 -0.10127648 0.15666062 -0.10473808 -0.098460294 -0.003539599 -0.29653186
-0.16692324 0.020465037 0.10203823 -0.25475663 -0.059905946 -0.28139353 -0.10256796 -0.078540504
-0.42401466 -0.25122303 -0.15304543 -0.21939029 -0.19723605 -0.28360116 -0.28456783 -0.32445592
00000000: 037b 4fbe 12ad d8be 497c d9bd d3dd 39be
00000010: fe65 c9be fbac 97be 3838 06be 9d9e a1be
00000020: 25ab 85be 79e7 d4bd 5082 b9bd d7f9 f8bd
00000030: 1419 e0be fec9 7fbe 5f22 053e b4af 893c
00000040: 6e45 5abe f6ca 39be ba21 9ebd d499 483e
00000050: 69ba 31be 3787 fdbd c1f6 e1be e8f3 543c
00000060: 893e 91be 03dd bdbe 8010 6cbe 29b2 a0be
00000070: 0f8f 2dbe 3996 90bd 1c53 43be e7c3 213e
00000080: ad17 d9be 3747 3abe 3cb5 24be 17d6 4bbe
00000090: 3698 abbe 1c66 c6bc 80d5 853d 2283 bc3d
000000a0: a2bd bcbe 472e 81be 5196 61be 35e3 59be
000000b0: 1904 ecbd 000a f3be 4ce7 a2be 1200 e6be
000000c0: 09ef 18be fa90 93be 094c 64be 5e5a 3dbd
000000d0: 027e 11be 2c3f 513d bad8 f1bc cafa 13be
000000e0: fd4c 99bd 1687 3cbe 06b5 8ebe b63f 51be
000000f0: 3fed 5abe 868e 4fbe dc5d 53be cbf4 cebe
00000100: 6b2c d8be db05 aebe bafe 74be e7fd 01be
00000110: 9f33 82be 37be babd 23d9 96be 8f26 cfbd
00000120: fe0e 80be 5a0b e2bd 91f9 bbbd 48c5 86be
00000130: d09d 54be 3dc5 9a3d 003a abbe f398 9dbc
00000140: d1e0 54be bd5d 55be 0de0 ccbe fbf0 b0be
00000150: 0832 24be a548 61be e46f a4bd 8495 09bf
00000160: 6686 f8bd 0856 0ebe 8d2c 263d bede d6be
00000170: 0c34 f1be 4adb dcbd 2fe4 5e3e e04e a6be
00000180: 991f 4dbe a912 5dbe c7fe acbe 9b1a bdbd
00000190: 998e fbbe 9b9a 14be 4b8f c6be 0212 4bbe
000001a0: 99cf 97be 2b64 76be 0cd9 cabe b840 d0be
000001b0: fde9 b1be a5e4 fbbd 2d55 55be c01e 18be
000001c0: 8f7e 75be 6703 c9be 70b6 11be 68db 9bbe
000001d0: 394d bebd 1747 5d3d 5fd0 01be 180a 68be
000001e0: 46d2 1bbe f8bf adbe d327 a4bc bd30 b5bc
000001f0: 703c 91be d1e3 1dbe b6c3 f5bd 10d5 103d
00000200: 8564 55be db89 fcbe c230 95be d3c4 31be
00000210: 1839 01bf 246c 6c3d 77bd 01bf 7619 39bb
00000220: e4a5 81bd 8824 d1bd f249 be3d b1ed 16be
00000230: 4c19 15be 4fe5 9ebe a125 99be 7f5f 8abd
00000240: 61d4 e0bd 6c40 65be fe3b 72be e799 42be
00000250: d53c 3a3c aa96 bbbe e037 88bd d527 3bbe
00000260: 5c7a 84bd f0d5 173c 3acf 4abe 5b89 b8be
00000270: 2595 adbe 8ba9 4abe a3c2 5cbe 9ebc fabd
00000280: 1c27 80bb 1d3f 213e e73d 95be d38c bfbe
00000290: 58c3 25bd bfb3 7bbb 5aed c53d 21f4 5abe
000002a0: 8049 843e d308 6cbe 243a b4bd 825e 8ebe
000002b0: 77dd ddbd 16be 40be 3743 a6be a651 62be
000002c0: aa15 b0be 0d88 23bd 838a c1bd 5d53 22bc
000002d0: aeb1 bbbd cebd debd b55f 82be d310 9ebe
000002e0: d6d1 63be aa2e a5bd e58d d93d edd8 c63d
000002f0: 2c97 9ebe e7bb 2f3e c546 46be 4f63 b5be
00000300: be98 52be 3d22 c5bb 6273 9abe e58a 5abd
00000310: e551 0dbe 23f3 bfbe df22 88be 50b9 a9be
00000320: 0a10 a8be 9474 bc3d 89de a3be 0504 f63d
00000330: 4a27 42be 7c39 9e3e 17a9 90be 9adb b9be
00000340: eb06 4abe 1d1c 49bd 904e 8ebe 7343 2ebe
00000350: 697f 69be c0aa 99be d0ce 11be b987 22be
00000360: d0f8 5c3d c634 5abe 7b36 abbe dd02 e4be
00000370: 30f7 5abe 4829 a3bd 4689 08bd fbe7 32be
00000380: 59da 323e 870a 9ebe 17f8 41bd a59b 98be
00000390: 5926 95be 07ea e3bd 9a85 b2be 9585 d83d
000003a0: 36e7 2a3e 282a aebd 0b6a cfbd a46b 203e
000003b0: eb80 d6bd 8da5 c9bd 9ef8 67bb 06d3 97be
000003c0: eded 2abe 4ba6 a73c 6bf9 d03d 766f 82be
000003d0: f05f 75bd d012 90be 270f d2bd d8d9 a0bd
000003e0: 7318 d9be 4ea0 80be f1b7 1cbe d9a7 60be
000003f0: 3ff8 49be 2c34 91be e0b2 91be 161f a6be

fc2.weight f4 [128, 260]
-0.08239075 -0.09746543 -0.022522299 0.01748296 -0.066560715 -0.04724948 0.0047448203 0.013045815
-0.007931224 -0.08120846 -0.054309156 0.0031445688 -0.098919444 -0.051567763 -0.100620165 0.0051873378
-0.028806187 0.042384867 -0.021761838 -0.04136012 -0.096052215 -0.06386094 0.044113904 -0.014052869
-0.12378249 -0.066285335 -0.030420082 -0.08411949 0.0011930894 -0.058405265 -0.029835068 0.0014219092
-0.0085774595 -0.02417434 -0.024917282 -0.018298091 -0.09246277 -0.050322823 -0.03722449 0.03733627
-0.057819404 -0.06767389 0.0062168553 -0.070428334 0.044663675 -0.017918287 -0.11353438 -0.055360567
-0.10065313 -0.09689413 -0.015880827 0.02067539 -0.11959148 0.019399365 -0.03029254 -0.04835375
0.06484317 -0.019586643 -0.03524563 0.049486544 -0.027728101 -0.08120625 -0.013630281 0.011615796
-0.0728362 -0.0346837 0.017570153 0.06406544 0.01899255 -0.08837978 0.0009638765 -0.018297514
-0.085266925 0.036458932 -0.12917055 0.023217995 0.053883214 -0.09317646 -0.122360416 -0.11231762
0.06439039 -0.100588664 -0.039213683 -0.085837446 0.030832913 0.006983803 0.043269787 -0.034033507
-0.07110037 -0.05017609 -0.0032129125 -0.03029095 -0.010459807 -0.1420032 0.017655745 -0.02139492
-0.12668355 -0.085546635 -0.05946653 -0.016513295 -0.009704572 -0.012168963 0.008590444 -0.09790259
-0.0831383 -0.045983236 0.039249927 -0.03839157 -0.08251062 -0.08385044 -0.07381292 -0.0023526885
-0.08355056 0.07875863 -0.054146025 -0.0010688835 -0.00591862 -0.06775145 0.034772452 -0.0039120736
0.019548384 -0.032214805 -0.044284716 -0.06896665 0.06341864 -0.11687383 0.07195489 -0.16434518
0.002382176 0.06959597 -0.01823935 -0.056140337 0.0017506783 0.011134783 -0.011377359 -0.030069903
-0.030567016 -0.03279138 -0.03457374 0.071434766 0.0055447184 -0.035367575 -0.060088553 -0.010937181
-0.08015885 -0.0017812881 0.011328199 -0.063657135 0.020468106 -0.06187536 -0.029925423 0.034254648
-0.03898069 0.00275755 -0.021193247 0.0068799322 -0.013466742 -0.0859537 -0.07243087 0.059385978
-0.07609715 -0.14401166 0.033821907 0.06545867 0.030347332 -0.066763505 0.064636424 -0.07883746
0.014812165 0.02123041 -0.049707122 0.03758517 -0.0027813942 -0.008576462 0.0070918975 -0.05030995
-0.07753138 -0.06600799 -0.046523836 0.03622777 -0.16080256 0.004318333 0.014817426 0.0136720445
-0.026863756 0.00860846 -0.11010259 0.04260771 -0.010953343 -0.034230262 0.045470368 -0.020395396
0.014326547 -0.03298285 -0.06623164 -0.112666786 0.01555819 -0.050783753 0.07987243 -0.124232516
-0.093969695 -0.09141448 -0.04977927 -0.0014826966 -0.027024733 -0.11534378 -0.07078387 -0.017978273
0.0396548 -0.075156726 0.07033864 0.026893916 -0.1309128 -0.05967719 -0.04907413 0.041193806
-0.07374201 0.010531269 -0.060759995 -0.03589967 -0.030114809 0.01657362 -0.063995145 -0.053664543
0.012718074 -0.09612936 0.03965721 -0.09698589 -0.07894448 -0.005284711 0.072503254 -0.017294202
-0.06938422 -0.087124705 -0.09643267 0.006339255 -0.09651355 -0.097680345 0.053687237 0.018445875
-0.015573969 0.05172583 -0.016580299 0.0064424854 -0.09014781 0.012759436 -0.046326302 0.014952568
0.0169687 0.016432151 0.029217565 0.06935122 0.01498215 -0.020901717 -0.10024949 0.002167482
00000000: 7bbc a8bd f59b c7bd af80 b8bc 6d38 8f3c
00000010: fc50 88bd ac88 41bd 707a 9b3b 1dbe 553c
00000020: f7f1 01bc 9f50 a6bd 4773 5ebd 1c15 4e3b
00000030: 4796 cabd b838 53bd f211 cebd 8bfa a93b
00000040: f4fa ebbc c19b 2d3d e245 b2bc 3b69 29bd
00000050: 06b7 c4bd 86c9 82bd c8b0 343d 013e 66bc
00000060: ad81 fdbd 9bc0 87bd 8933 f9bc d746 acbd
00000070: 7061 9c3a 5c3a 6fbd ac68 f4bc 5b5f ba3a
00000080: 7988 0cbc 4409 c6bc 541f ccbc e1e5 95bc
00000090: 1f5d bdbd 4e1f 4ebd b578 18bd ebed 183d
000000a0: 0ad4 6cbd 9c98 8abd c3b6 cb3b bb3c 90bd
000000b0: 42f1 363d 5fc9 92bc b784 e8bd c3c1 62bd
000000c0: 3a23 cebd 6e70 c6bd 8218 82bc 6f5f a93c
000000d0: 61ec f4bd 6beb 9e3c 1028 f8bc 950e 46bd
000000e0: 7fcc 843d 2b74 a0bc b95d 10bd 67b2 4a3d
000000f0: 0b26 e3bc 764f a6bd 8b51 5fbc 2e50 3e3c
00000100: 252b 95bd 7f10 0ebd 48ef 8f3c be34 833d
00000110: 4496 9b3c 7500 b5bd a8ac 7c3a abe4 95bc
00000120: 6da0 aebd f655 153d 4945 04be aa33 be3c
00000130: a5b4 5c3d 4dd3 bebd 1998 fabd c806 e6bd
00000140: 1cdf 833d 6e01 cebd 879e 20bd 8bcb afbd
00000150: 4e95 fc3c 63d8 e43b a93b 313d b866 0bbd
00000160: 129d 91bd 7285 4dbd ba8f 52bb ba24 f8bc
00000170: 9c5f 2bbc 4969 11be c8a2 903c 6644 afbc
00000180: 55b9 01be 1333 afbd 2d93 73bd e446 87bc
00000190: edff 1ebc 5560 47bc efbe 0c3c 2781 c8bd
000001a0: 6a44 aabd eb58 3cbd 88c4 203d 7b40 1dbd
000001b0: 54fb a8bd c8b9 abbd 3a2b 97bd 902f 1abb
000001c0: 8e1c abbd 344c a13d 39c8 5dbd c719 8cba
000001d0: fcf0 c1bb 46c1 8abd 8f6d 0e3d da30 80bb
000001e0: ef23 a03c acf3 03bd e463 35bd 633e 8dbd
000001f0: a2e1 813d 8c5b efbd 165d 933d 1a4a 28be
00000200: 481e 1c3b 5588 8e3d b06a 95bc 69f3 65bd
00000210: 0477 e53a aa6e 363c 1a68 3abc 2855 f6bc
00000220: ae67 fabc 4150 06bd 329d 0dbd 644c 923d
00000230: 78b0 b53b 97dd 10bd 6a1f 76bd dd31 33bc
00000240: 532a a4bd 1c7a e9ba e999 393c ac5e 82bd
00000250: bbac a73c 0471 7dbd 2926 f5bc 9a4e 0c3d
00000260: 37aa 1fbd 03b8 343b 769d adbc 0e71 e13b
00000270: 9ca3 5cbc 7e08 b0bd a356 94bd b63e 733d
00000280: d3d8 9bbd cb77 13be d788 0a3d 320f 863d
00000290: f89a f83c 4ebb 88bd 1a60 843d 8975 a1bd
000002a0: b9ae 723c 66eb ad3c b299 4bbd e8f2 193d
000002b0: 0d48 36bb 4a84 0cbc 2663 e83b ce11 4ebd
000002c0: c6c8 9ebd 322f 87bd c78f 3ebd 9263 143d
000002d0: 6da9 24be ce80 8d3b cac4 723c b600 603c
000002e0: 6111 dcbc 800a 0d3c 777d e1bd 6c85 2e3d
000002f0: a675 33bc 0835 0cbd 233f 3a3d 3f14 a7bc
00000300: e5b9 6a3c 0619 07bd 74a4 87bd d8bd e6bd
00000310: c7e7 7e3c a002 50bd 2894 a33d 9e6d febd
00000320: 2f73 c0bd 8437 bbbd 59e5 4bbd 0b57 c2ba
00000330: f962 ddbc 5c39 ecbd 22f7 90bd 2c47 93bc
00000340: 126d 223d c5eb 99bd b40d 903d a150 dc3c
00000350: 010e 06be 1270 74bd f401 49bd d6ba 283d
00000360: 0d06 97bd 588b 2c3c 79df 78bd 880b 13bd
00000370: 55b3 f6bc 66c5 873c e30f 83bd 5acf 5bbd
00000380: 785f 503c 78df c4bd 996f 223d 8aa0 c6bd
00000390: a5ad a1bd 5e2b adbb 967c 943d 92ac 8dbc
000003a0: 5019 8ebd 706e b2bd 7e7e c5bd 86b9 cf3b
000003b0: e5a8 c5bd a20c c8bd 26e7 5b3d ce1b 973c
000003c0: f629 7fbc 77de 533d 68d3 87bc 7c1b d33b
000003d0: 6a9f b8bd f40c 513c a6c0 3dbd 9efb 743c
000003e0: f101 8b3c b89c 863c ad59 ef3c 0308 8e3d
000003f0: b177 753c 143a abbc 9b4f cdbd 500c 0e3b

fc2.bias f4 [128]
-0.08930468 -0.11710104 -0.06612543 -0.08503649 -0.027425634 -0.057850447 -0.10524527 -0.076483004
0.31727603 -0.04792318 -0.046630673 -0.1501353 -0.1157506 -0.15927115 -0.13141447 -0.15275782
-0.109302156 -0.0528169 -0.115080394 -0.11757769 -0.11740517 -0.062095366 -0.06721493 0.05751937
-0.055533484 -0.07578311 -0.01128781 -0.17231677 -0.062015187 -0.0946383 0.09539165 -0.10853388
-0.12027699 -0.090285026 -0.13854723 -0.053598925 -0.06548088 -0.0025712692 -0.08778651 0.050500013
-0.16961889 -0.12302979 -0.027046738 -0.07061296 -0.19370499 -0.105543345 0.020862373 -0.050458837
-0.11560085 0.053425647 -0.10925776 -0.14455886 -0.14133891 0.15024589 -0.13397871 -0.16758572
-0.16109934 -0.04810633 -0.023935271 -0.10300945 -0.025144361 -0.035121813 -0.22283061 0.17892589
-0.10247371 -0.15504515 -0.19292611 -0.1470228 -0.10947227 0.35759875 -0.09874107 -0.19819707
-0.057399113 -0.022468336 -0.048170835 -0.016356463 -0.0482587 -0.14770822 -0.061306655 -0.108129546
-0.19899023 -0.06258282 -0.20728217 -0.09570795 0.07167252 -0.03462712 -0.18074211 -0.07432057
-0.11656902 -0.09403254 -0.008008317 -0.14494924 -0.14469765 -0.22814691 -0.11876437 -0.18485104
-0.08894663 -0.13389024 -0.10268229 -0.19791318 -0.12205164 0.6289072 -0.1268313 -0.09018266
-0.18416946 -0.104379065 -0.11751436 -0.1533327 -0.116782054 -0.045767404 -0.08265688 -0.36057258
-0.0034747664 -0.17657325 -0.124250874 -0.10216638 -0.13084722 -0.116069406 -0.03198309 -0.092686094
-0.027109154 -0.2150615 -0.093958884 -0.08974764 -0.09173825 -0.104480654 -0.12678127 -0.03716439
00000000: 5fe5 b6bd acd2 efbd c56c 87bd 9c27 aebd
00000010: b9ab e0bc 97f4 6cbd d58a d7bd 1fa3 9cbd
00000020: 0172 a23e 194b 44bd ceff 3ebd 11bd 19be
00000030: a70e edbd fa17 23be 8491 06be 8c6c 1cbe
00000040: cfd9 dfbd 8956 58bd 45af ebbd 92cc f0bd
00000050: 1f72 f0bd b657 7ebd fba7 89bd 6e99 6b3d
00000060: 1477 63bd 2d34 9bbd 82f0 38bc cf73 30be
00000070: a303 7ebd bad1 c1bd b35c c33d 0347 debd
00000080: c853 f6bd 5be7 b8bd 53df 0dbe 8c8a 5bbd
00000090: d71a 86bd bd82 28bb 6ac9 b3bd 1ad9 4e3d
000000a0: 93b0 2dbe 0bf7 fbbd 1f91 ddbc 879d 90bd
000000b0: 9a5a 46be 1c27 d8bd 91e7 aa3c edad 4ebd
000000c0: 23c0 ecbd dad4 5a3d 88c2 dfbd 3d07 14be
000000d0: 26bb 10be 0fda 193e b731 09be 979b 2bbe
000000e0: 3af7 24be 250b 45bd e713 c4bc 9ef6 d2bd
000000f0: 8cfb cdbc e4db 0fbd b52d 64be 5938 373e
00000100: bddd d1bd 28c4 1ebe 6c8e 45be 258d 16be
00000110: ff32 e0bd 2f17 b73e c238 cabd 2cf4 4abe
00000120: 551b 6bbd 840f b8bc c84e 45bd fdfd 85bc
00000130: eaaa 45bd d340 17be b01c 7bbd 0673 ddbd
00000140: 18c4 4bbe 6c2b 80bd c741 54be 8802 c4bd
00000150: 0bc9 923d 2bd5 0dbd 7614 39be 6235 98bd
00000160: bdbb eebd 2294 c0bd 5135 03bc 936d 14be
00000170: 9f2b 14be 589f 69be bc3a f3bd 9749 3dbe
00000180: a729 b6bd 861a 09be 184b d2bd c1a9 4abe
00000190: 36f6 f9bd 1000 213f 10e0 01be b0b1 b8bd
000001a0: eb96 3cbe b1c4 d5bd 5eab f0bd 3f03 1dbe
000001b0: 6e2b efbd 9a76 3bbd 0348 a9bd f89c b8be
000001c0: e8b8 63bb 9ecf 34be 3e77 febd 9b3c d1bd
000001d0: d0fc 05be ccb5 edbd b300 03bd 35d2 bdbd
000001e0: 0414 debc 1539 5cbe 846d c0bd 9ccd b7bd
000001f0: 43e1 bbbd f4f9 d5bd f3d2 01be b039 18bd

fc3.weight f4 [1, 128]
0.008513938 0.026819978 -0.012544478 -0.028048879 0.010245045 0.019953119 -0.049610324 0.012044332
0.00871267 -0.001589059 0.018065877 -0.011200185 -0.00061855785 -0.02121366 -0.0073108 0.011026379
0.006307917 -0.008497048 -0.03109415 0.026639955 0.011005234 0.01389852 -0.039266665 0.01878629
-0.016140798 0.002247088 -0.019875197 0.004662283 0.011922863 -0.002965412 0.007973933 -0.039347164
-0.026402611 -0.006295255 -0.0009538815 -0.02179988 -0.03018768 0.018387347 -0.004390822 0.021110281
-0.0061996058 0.013522634 -0.038032033 -0.020301556 -0.012092359 -0.0044113244 0.018438313 0.029444158
0.02697996 -0.00961515 -0.015462614 -0.04469103 -0.003542271 -0.012106516 0.010013898 -0.010014031
-0.0035366775 0.0011859552 -0.0076776533 -0.0018422892 0.0041223564 0.011284921 0.014721255 0.01046291
0.0039760554 0.028387679 -0.003959027 0.016632138 0.013335053 0.014822425 -0.0297733 -0.014296957
0.0010207986 0.00017905804 0.0039983406 0.026667293 -0.008545134 -0.01251042 -0.0006216331 -0.022432605
-0.0014090785 0.037744388 -0.009045276 0.01921488 -0.010892374 -0.020297254 -0.02581787 -0.0045146714
0.005842277 0.0028800475 0.013183945 0.010476782 -0.0005543027 0.0024631158 0.011542317 0.015468544
-0.004356495 -0.013584807 -0.016204786 -0.016370587 0.027669434 0.010203078 -0.007857801 0.0025017608
-0.0055827503 -0.019177571 -0.013544072 -0.026918158 0.010598096 0.020769073 -0.0062623913 -0.006950829
0.034366343 -0.0029683234 -0.013647749 -0.046993904 0.010794085 -0.025736181 0.0194032 0.018903386
0.030165276 -0.024574876 0.00610722 0.024181727 0.0036480573 0.006611455 0.021178754 -0.011402403
00000000: 0b7e 0b3c 92b5 db3c 5b87 4dbc c3c6 e5bc
00000010: d5da 273c b974 a33c 3234 4bbd 9755 453c
00000020: 96bf 0e3c f947 d0ba e4fe 933c fb80 37bc
00000030: b726 22ba 45c8 adbc 6f8f efbb fca7 343c
00000040: a5b2 ce3b 3437 0bbc 29b9 febc 093c da3c
00000050: 4c4f 343c 9eb6 633c 15d6 20bd b5e5 993c
00000060: b539 84bc e143 133b 4fd1 a2bc 11c6 983b
00000070: 1d58 433c 5c57 42bb 19a5 023c 7e2a 21bd
00000080: 4a4a d8bc 6d48 cebb e70d 7aba a995 b2bc
00000090: 274c f7bc 10a1 963c e2e0 8fbb 78ef ac3c
000000a0: 1026 cbbb 0a8e 5d3c 7ac7 1bbd 734f a6bc
000000b0: 081f 46bc df8c 90bb f20b 973c e034 f13c
000000c0: 1405 dd3c dd88 1dbc e756 7dbc f10d 37bd
000000d0: 7225 68bb 695a 46bc 5511 243c e411 24bc
000000e0: 9ac7 67bb 0e72 9b3a d394 fbbb f878 f1ba
000000f0: d514 873b 64e4 383c 6b31 713c a06c 2b3c
00000100: 9249 823b 478d e83c baba 81bb 1f40 883c
00000110: 447b 5a3c c2d9 723c 23e7 f3bc c93d 6abc
00000120: 51cc 853a 87c1 3b39 8304 833b 5e75 da3c
00000130: e400 0cbc 81f8 4cbc 17f5 22ba 95c4 b7bc
00000140: d4b0 b8ba dc99 1a3d a332 14bc 8668 9d3c
00000150: ee75 32bc 6d46 a6bc ff7f d3bc cfef 93bb
00000160: 9270 bf3b 2ebf 3c3b 7901 583c cfa6 2b3c
00000170: a04e 11ba 3a6c 213b fd1b 3d3c c76f 7d3c
00000180: eec0 8ebb cf92 5ebc e6bf 84bc 9c1b 86bc
00000190: 02ab e23c d02a 273c 02be 00bc 95f4 233b
000001a0: 81ef b6bb 481a 9dbc f5e7 5dbc 7883 dcbc
000001b0: a3a3 2d3c e723 aa3c bf34 cdbb c8c3 e3bb
000001c0: b9c3 0c3d 3488 42bb cf9a 5fbc ae7c 40bd
000001d0: add9 303c afd4 d2bc 76f3 9e3c 46db 9a3c
000001e0: 2b1d f73c 4051 c9bc 131f c83b c218 c63c
000001f0: 3f14 6f3b e8a4 d83b 117f ad3c 25d1 3abc
