checkpoint_actor_1.pth (torch_old, 183806 bytes, 6 tensors)

fc1.weight f4 [256, 48]
00000000: db86 0d3d 19a2 f23d dfc2 ab3b d837 0f3d
00000010: 4c25 e53e ee54 c6be 5cb6 283c 0bdc b43d
00000020: 8f85 9bbd ef99 f83d ee58 d9bd a5c0 8dbe
00000030: df62 d5bd 714b c43d 0977 35bd 9b98 3ebe
00000040: f1b3 79bc b618 9b3d 4787 1ebb 02c4 9ebe
00000050: 6a54 07bf 1176 2d3f a304 143d 10bf 75be
00000060: 56b8 a33e b775 b5be a39c 233e 1c1a afbd
00000070: 2455 e6be 586a e1be ad57 823e a0d0 a3bd
00000080: 1c9b 8f3e 3f0d d2be b024 bc3d bfd7 1fbe
00000090: 858c ac3d a7d7 c73d 26ba 713d 8459 dfbd
000000a0: b247 263e 4753 e2be aa53 adbd 53ac 87be
000000b0: 2dad 093f f7bd 2e3f a491 1bbd 254e 6ebe
000000c0: a0ff 77be c7bd 9c3f 98d4 dabc 1d9e b33e
000000d0: dfac 15be 9174 c63d 4cf9 cc3b d7d9 bf3e
000000e0: ea68 3ebe b3f1 9f3f 1d69 c7bb 851f 063c
000000f0: 160c 52be b587 1a3d 9432 aa3d 28d5 403d
00000100: dbb3 9bbe 4fc5 943f 5c3a 99be d7d5 f4bd
00000110: e9d0 57be 2be1 20be aa98 a0be e352 28be
00000120: b452 70be 3813 2d3f b4fd 6e3c 5789 ab3d
00000130: 922c ca3d 0976 bb3d 5885 2f3c db52 0c3d
00000140: 897f 31be d369 183f 8198 31bd 69d0 983d
00000150: 66d5 4c3e b343 90bd 50d6 8fbd c85b 143c
00000160: 2faa 2dbe fd98 1b3f 244e e33d 6e7c 1ebd
00000170: 6328 dc3d f585 07be e19c 243d 565c 8d3a
00000180: f8ff 3a3c d053 ddbd 7872 963d 1c85 0fbd
00000190: b758 d3bf dbb7 bb3e 4d08 3b3d 2ba8 6c3d
000001a0: 922d f33c ecc2 81bc 01ec c83c e539 9f3d
000001b0: e512 98bf 43ca ab3e b7f5 cabb 9e7d 8dbb
000001c0: a734 103d bae0 463d 7182 053d e8dc 5cbe
000001d0: 199e 0cbf 10dc ae3e ea67 8a3c d8b0 4dbe
000001e0: 7d0f 77bc 2821 d9be c44b 17bd 5179 97bd
000001f0: fdca ce3f 6361 bb3e 45bd ff3c 7772 c7bd
00000200: 7fa3 81bd a2dd 9dbe b403 1ebd 8517 91bd
00000210: 013e 923f 9b69 b43e b001 be3c 7350 2dbe
00000220: 4eec 04bd 9d7b 95be 8c3d 2abe 20db 283e
00000230: 939b 083f 5274 9d3e c660 74bd f958 083e
00000240: 8697 0f3e 88b4 5bbd e744 03bd 9b39 ac3e
00000250: f196 26be 010f a7be 689d 803c 039b 8a3e
00000260: 325e 063d bd47 6bbd 0607 acbc 41b4 793e
00000270: 1f7f 59be 8e0a 98be d6e7 31bd d378 883e
00000280: 9771 9d3d 4eb2 f8bc cfb1 533d 1b6e 87bc
00000290: 9f18 acbe cd1f aebe 7eb9 2dbd 87bb 913b
000002a0: 71fd a03d 3fc8 1c3e 65ca 50be 6f5f c8be
000002b0: cfaf 833d 0b6c babe 61a6 34be bdc1 c9be
000002c0: 8520 703c eeff c03d 1862 4ebe ed9a 3d3d
000002d0: 01b4 783e f4d6 aebe 9a37 2bbe 33a0 9bbc
000002e0: 68c1 b33c 150a 293e 13e2 d0bd 2888 853d
000002f0: dd72 ca3e 3fb8 6abe 8c7f 3ebe e454 573d
00000300: e0c6 493e fac1 da3b d93c a5bd 5ae3 3dbe
00000310: 93c5 e5bb defe e6bd bc7e 64bc 0e91 58be
00000320: 02b0 913e b2f5 91bd 6b6f 0c3c b93a 5a3d
00000330: 0ef1 663e fa04 813c b51a 70bd a100 c03d
00000340: f163 623e 82ea cebd eb76 bd3c 3a44 0a3d
00000350: 9ffc e33e 34be 3a3e 583b 863d c2dd 04bd
00000360: 02fc c93e 57ef ccbe 0153 01be a19f e73e
00000370: e742 82bd c93c 9bbd 81c9 88bd ad9b 123f
00000380: f9d3 a73e 65c6 ccbe cd63 4dbd 4b9e 033f
00000390: cfc3 6dbe 1180 6fbd 1e9c 813b bd79 e73e
000003a0: a66f 893e f831 e2be 6284 c73a 1af8 8d3e
000003b0: d746 c6be f89e 203e 5a9e 823d 42ff 643e
000003c0: f0c6 383e a97b 933e 4466 4fbe 9b89 413d
000003d0: b2f9 94be ea37 10be b6d1 3dbe 9486 3b3d
000003e0: 4ec7 433e b349 c83e 35bf 10be c78a 423e
000003f0: ea78 48be e9a4 30be 25a8 25be 035a 3e3e
0.034552436 0.11847324 0.0052417363 0.034965366 0.44755018 -0.3873667 0.010297384 0.08831032
-0.07593834 0.121387355 -0.10612665 -0.2768604 -0.10419249 0.09584702 -0.044302974 -0.18612902
-0.015240655 0.075730726 -0.0024189518 -0.31008917 -0.5286318 0.6775828 0.036137234 -0.23998666
0.31976575 -0.35441372 0.15977721 -0.08549902 -0.44986832 -0.44026446 0.25457516 -0.079987764
0.28048027 -0.4102573 0.09186685 -0.15609644 0.084252395 0.09757929 0.059015416 -0.109057456
0.16238287 -0.4420416 -0.08463223 -0.2649866 0.5377987 0.68258613 -0.03798069 -0.23271997
-0.24218607 1.2245415 -0.0267127 0.35081568 -0.14616726 0.09690202 0.0062553044 0.37470886
-0.18594709 1.2495636 -0.0060855285 0.008186226 -0.20512423 0.037727077 0.08310428 0.04707828
-0.30410656 1.1622714 -0.29927337 -0.11954849 -0.21075787 -0.15710895 -0.31366473 -0.16437869
-0.23469049 0.6760745 0.014586855 0.08375805 0.09871782 0.09153373 0.010712944 0.034258705
-0.17333807 0.59536475 -0.04335833 0.07461626 0.2000328 -0.070441626 -0.07023299 0.0090550855
-0.16959451 0.60780317 0.110988885 -0.038692884 0.10749891 -0.13234694 0.040188674 0.0010784965
0.011413567 -0.108070016 0.07346052 -0.035039052 -1.6511449 0.36663708 0.045662213 0.057777565
0.029684816 -0.015840016 0.024526598 0.077747144 -1.1880766 0.3355275 -0.0061938423 -0.0043179533
0.035206463 0.04855416 0.0325951 -0.21568644 -0.5492874 0.3415227 0.016895253 -0.20086992
-0.015079376 -0.4240811 -0.03693749 -0.07396186 1.6155697 0.36597738 0.03121818 -0.09738629
-0.063300125 -0.30833155 -0.03857775 -0.07084564 1.1425172 0.3523682 0.023194164 -0.1692522
-0.03245192 -0.29195872 -0.16625041 0.1648984 0.5336239 0.30752808 -0.059662603 0.1331519
0.14022645 -0.053638965 -0.032048132 0.336377 -0.16268517 -0.32628635 0.015700057 0.2707139
0.032804675 -0.05744146 -0.020999443 0.24385168 -0.21239899 -0.29695553 -0.043433987 0.26654682
0.07687681 -0.03035846 0.051683243 -0.016531995 -0.33612534 -0.34008637 -0.042413227 0.004447404
0.0786084 0.15310763 -0.20389707 -0.3913531 0.06430017 -0.36410555 -0.17641594 -0.39405623
0.014656191 0.09423815 -0.20154607 0.046290327 0.24287416 -0.3414837 -0.16720429 -0.018997287
0.02194281 0.16507752 -0.1019937 0.0652011 0.3954076 -0.22921847 -0.18603343 0.052571192
0.19704771 0.006675956 -0.080682464 -0.18543759 -0.007012078 -0.11279081 -0.013946231 -0.21149084
0.28454596 -0.07126941 0.008571486 0.05327866 0.22552893 0.015749443 -0.05861922 0.0937512
0.22108437 -0.101033226 0.023127994 0.033756472 0.44528672 0.18236619 0.06554288 -0.032438047
0.3945008 -0.40026352 -0.1262932 0.45238975 -0.06360417 -0.07579953 -0.06679059 0.5726879
0.3277891 -0.39995113 -0.050144006 0.5141341 -0.23219226 -0.058471743 0.003955378 0.45210066
0.26842993 -0.44178748 0.0015221948 0.2772835 -0.38725922 0.15685642 0.063778594 0.22362998
0.18044639 0.28805283 -0.20253855 0.04725037 -0.29096752 -0.1408383 -0.1853703 0.04578264
0.19118997 0.39118728 -0.1413544 0.18998252 -0.19577375 -0.17250408 -0.16177423 0.18589024

fc1.bias f4 [256]
00000000: c868 80bd 862b 9e3d 5ae4 2e3d 9f30 26be
00000010: 78ca 7dbe 55cb 41be b565 3ebe db99 abbd
00000020: a210 45be 007a 87bc 76bb 96be dbef 213d
00000030: d718 5f3d 806d b43c eb1c 3abe 248a a3bd
00000040: ab1d 9ebe 185a 53be e710 f9be 71f3 363e
00000050: 31a2 ab3d 94ce c4be 17fd e5bd fe6a 12be
00000060: f005 52bd a0fb 84be a41d 30bd 3827 fcbc
00000070: 9d9b 58be a1fe 6fbd 9cb4 1dbe 4b2a 26be
00000080: 110e 423d 080d b53d 29f8 a9bd 7864 eabe
00000090: 3ad7 81be b77a 513e dbe5 d1be f70c bebe
000000a0: 621e 0bbe f972 be3d 17cc 6bbe 7967 bc3d
000000b0: 2090 88be d2ea 04be 7ca0 8abe 379a b8be
000000c0: f33a 9dbd 0a08 743c dae9 96be 2f1c b8bc
000000d0: 60b4 3cbe a7ec e5bd f4d4 d1be bf3a 1fbe
000000e0: 782f 8dbe 8223 923d 6b8d 003e a6fc a7bd
000000f0: 533d 60be c4cc 683e 2a4a 2f3a c858 97bc
00000100: e23a b7bd 5a96 373e 4782 5fbe 753f 98bd
00000110: f92f 3fbe ad79 4fbd 52af 563d 86e0 93be
00000120: e43b 44be df08 ab3d e8b0 a0bd aaf5 00be
00000130: 5d79 a4be 94a0 80bd d1e2 5fbe 6c6b b5be
00000140: e961 13be 9172 21be 223b 9bbe 1ff0 28be
00000150: aa11 09be 13cb 56be 5ac7 8abe f22f 58bd
00000160: 66dc 2a3e b5eb b43b 44fe 8fbe af01 4ebe
00000170: 82a7 d4bd 7446 4cbe d16e 47be b3d5 34be
00000180: c0dc 2dbe 1e27 0abe 6a57 4dbe 8c27 333c
00000190: c0a7 95be 2d13 90be 9c00 dfbd ba3b 99be
000001a0: 18c7 24be 49c7 11be dd2e 9ebe 412d 26be
000001b0: e811 143e e3ed 13be 52cc 98be 467a 37be
000001c0: d462 11be 4c20 9cbe e763 71be d96d abbe
000001d0: 9cb5 c3be a1f2 a8bd 974a c9be d5d1 7dbe
000001e0: 0485 4abe b60f 83be 6386 8cbe e7a5 ccbe
000001f0: 7dea 80be 568b 9fbd 6318 a7be 3d86 a2bd
00000200: 0d38 a3ba f232 23be aa48 6bbe 4703 bebe
00000210: f766 593d d387 c5be ccfc a53d 39d0 523e
00000220: ba49 5dbe e987 84be bf7d 023e 64d9 c0bd
00000230: 3727 41be 0b93 c0be ea83 a0be 8e15 80be
00000240: de5c b83e 5a59 613e dc6f febd 1bf2 163e
00000250: 5d21 d33d 2661 83be ea66 0a3d af16 87be
00000260: 7d39 a2bd f419 e9bc 6bae 68be 8ceb c7be
00000270: 7cf5 043e bf28 f0bd e695 81bb 2025 0ebe
00000280: 2d53 6cbe 8e5e 00be 7213 8bbd 8637 aa3d
00000290: 98ed aabe fa04 4ebd 0a11 e9bd ae21 bc3c
000002a0: e288 b6bd 6d5b b0bd 4090 9f3d 6297 ffbd
000002b0: 9317 a7be da3b 45bd 3dea da3d 650d 103d
000002c0: 8412 18be 9e3d a4be 770a ed3d 1898 50be
000002d0: 8daa 6dbe d049 3fbe 99bf 72be 2bbf 36be
000002e0: 9c08 013e 81aa 14be 2d9a 25be 44fb c4bd
000002f0: 737e 903d fd9e 433e fdca 4ebd 1682 b03e
00000300: cdbc 35be df5b a93c 165f cdbd 67fb 2ebe
00000310: 9cc1 df3d 78ba c6be e33b a4bd d0cb dabe
00000320: 0d87 9dbd 4055 9bbd 6e87 42be 451b 9bbe
00000330: 1a8c 74be bcf9 7dbd 0300 bfba 4fd2 aebe
00000340: b82c 76be 0542 3ebd 189c 69be 5a2e 8abe
00000350: 5e01 7dbd 77e3 34bd 514f 57be 8d37 c43d
00000360: 10cb 9dbe e1ca 863d d41d e03d a676 7ebe
00000370: 04c0 33bd 2154 9bbe cdc6 81be cb7c 4a3e
00000380: 0f60 b9bd 2991 a4be f08b b2be daed 6bbe
00000390: 0348 1ebe 29ce fabd 9cb0 6cbe 423b 8c3c
000003a0: e442 38bc 3e77 9cbe dc74 54be 9357 6bbe
000003b0: c547 0c3e 734a 5bbc 637c 01be 10c7 07be
000003c0: c898 e8bd 2924 94be b52d a03c 7e7d b1bd
000003d0: bb71 88be 5bdd 94be 329e 48be 4f2f 3abe
000003e0: 9768 323e 8b79 923e 35b9 82bd 3e8a 6b3b
000003f0: 818f cc3c e1c3 273d 6397 46be 9f67 cfbe
-0.062699854 0.07723145 0.04269824 -0.16229485 -0.24784267 -0.18925221 -0.18593486 -0.08378955
-0.19244626 -0.016537666 -0.29439896 0.039535385 0.05446705 0.02202487 -0.18175094 -0.079853326
-0.3088201 -0.20639837 -0.48645708 0.17866303 0.08380545 -0.38438857 -0.11229914 -0.14298627
-0.051275194 -0.25973225 -0.042997018 -0.03078042 -0.21153112 -0.058592442 -0.15400928 -0.16227071
0.047376696 0.08840376 -0.08299286 -0.45779777 -0.25359517 0.20456968 -0.40995678 -0.37119266
-0.13585809 0.09299273 -0.23027073 0.09199423 -0.2667246 -0.12980202 -0.27075565 -0.36055157
-0.07677259 0.014894495 -0.2947529 -0.022474376 -0.18428183 -0.112267785 -0.40982783 -0.15549754
-0.27575278 0.07135679 0.12553947 -0.08202486 -0.21898393 0.22734362 0.00066867715 -0.018474951
-0.08946778 0.17928448 -0.2182704 -0.074339785 -0.18670644 -0.05065315 0.052413292 -0.28882235
-0.19163471 0.083513014 -0.07846242 -0.12593713 -0.32123843 -0.06280628 -0.21863867 -0.3543352
-0.14392819 -0.1576636 -0.30318552 -0.16497849 -0.13385645 -0.20975904 -0.27105218 -0.0527801
0.16685638 0.0055212625 -0.28123677 -0.2011783 -0.10383512 -0.1994875 -0.19475867 -0.17659645
-0.1697874 -0.13491485 -0.20052877 0.010934722 -0.29229546 -0.2813963 -0.10888788 -0.2992838
-0.16091573 -0.14236178 -0.3089513 -0.162282 0.14459956 -0.14446215 -0.29843384 -0.17917737
-0.14197856 -0.3049339 -0.23573266 -0.33482245 -0.38224494 -0.08249403 -0.3931472 -0.24787076
-0.19777304 -0.25597924 -0.2744628 -0.39970323 -0.251789 -0.07790248 -0.32635793 -0.0793576
-0.0012452618 -0.15937403 -0.22976938 -0.37111875 0.05307671 -0.38580188 0.08104858 0.20587243
-0.21610156 -0.2588494 0.12743281 -0.09416464 -0.18862616 -0.37612185 -0.31350642 -0.25016445
0.36008352 0.22006741 -0.12423679 0.14740793 0.10309098 -0.25660056 0.033789553 -0.26384494
-0.07921121 -0.028454758 -0.22722785 -0.39046896 0.1298427 -0.11726522 -0.003954637 -0.1388135
-0.23078604 -0.1253607 -0.06790818 0.083113715 -0.33384395 -0.050297715 -0.11380203 0.022965278
-0.08912827 -0.08611188 0.077911854 -0.12480046 -0.32635173 -0.048152782 0.10689209 0.035169024
-0.14850813 -0.3207826 0.11574262 -0.20370519 -0.23209591 -0.18680501 -0.23705901 -0.17846362
0.1260094 -0.14518167 -0.16172095 -0.096182376 0.07055368 0.19103618 -0.050486553 0.34474248
-0.17747803 0.02067369 -0.10027902 -0.1708809 0.109256 -0.3881414 -0.08019235 -0.42733622
-0.076917745 -0.075846195 -0.18996975 -0.30294243 -0.2388157 -0.062005743 -0.0014572147 -0.34144828
-0.24040496 -0.04644968 -0.22813451 -0.26988488 -0.061768882 -0.04416224 -0.2102635 0.09580908
-0.30818987 0.06581665 0.10943189 -0.24849948 -0.043884292 -0.30337623 -0.25346985 0.19774167
-0.09051525 -0.32141998 -0.3487239 -0.23039952 -0.15457158 -0.12246353 -0.23114246 0.0171181
-0.011246417 -0.30559725 -0.20747703 -0.22982626 0.13699253 -0.013384449 -0.12645106 -0.1325953
-0.11357266 -0.28933838 0.019553045 -0.08666514 -0.2664927 -0.2907513 -0.19591597 -0.1818211
0.1742271 0.28608355 -0.06382982 0.0035940553 0.024970772 0.04095829 -0.19393687 -0.40508744

fc2.weight f4 [128, 256]
00000000: 1856 ad3d ba44 973d 4123 8dbe 5f31 fbbc
00000010: 595a 34bb 7057 0c3e d6e3 463d e24b f7bd
00000020: 1d18 d7bd 41af a33e fad8 873d 7971 2a3d
00000030: e620 c4be 15cc 8d3c 211a f83d 7c84 933d
00000040: a9e8 0abe ce83 72bd c07e 90bd 16de b5bd
00000050: a7c1 a1be 6f23 9abe 72f5 1abe 89cb 36be
00000060: 3f39 2bbe 94e6 0abe b6af abbe 086c 94be
00000070: 7f56 713d d1bd 71bd b75a a7be 9c3e 053d
00000080: 6f55 6f3c 7088 1b3e 9057 2a3e f4b5 163e
00000090: d0fc c23b 6a8a 80be 3d81 9ebe 5990 4b3e
000000a0: 7d84 8d3d d52e aebd 5b6b 6d3d 7af6 8c3e
000000b0: 50d0 8bbe 6caf 0abe 7a37 e23d dc03 83bc
000000c0: 4180 91bd 78f1 bd3d d7ed db3e 6737 50bd
000000d0: dd4b 5bbe 52ec 803e c86d 2d3e d164 28bd
000000e0: fe16 11be ac9d cebe 131d c23d 6326 26bd
000000f0: 1b26 9c3e 95c0 5dbd 8ae8 673e 8cda 8fbe
00000100: a371 bfbd d416 dbbc f2e3 f1bd b4d2 aebe
00000110: d2a3 d4be 9aa6 65be 26a6 803d e14c 13be
00000120: 1d35 8f3d d175 02bd cf79 633c 9a3a 1d3e
00000130: 3fc7 673d bf82 07be 7dd0 d8bd 057f 34be
00000140: 478f c2be 4912 a63d fe4c 4abd bb1b 083e
00000150: 9bce fc3d b15e e83d fac0 13bd d60a eb3d
00000160: ee30 0e3e 08e0 403e d16d 53be 5862 02be
00000170: 3d9f f0bd a4a7 c33d 25f3 b6be cfa3 973e
00000180: dad1 83bd 4bca fa3d ddd4 b23c c3d5 373e
00000190: 9f8a be3d b794 dbbb b721 333e e0e7 92bd
000001a0: 996f 42be 7c4a 163e 6b70 3dbe 50ee 553c
000001b0: 3c1e 0cbd f863 91be b024 163e b33e 80be
000001c0: 3d4d cd3d 7ac2 a7be eb1a 243e 9a6e dabd
000001d0: 7c3e 32be f795 5fbd 2d7c 0abf daa0 dabc
000001e0: 66f6 dd3c fb50 1cbe 12a3 91be 7133 56be
000001f0: bbf6 10be b7a3 a93e c9ad 2c3e 5c6f 903b
00000200: 103e debe 9307 99bd 9fb1 a2bd 023d 943d
00000210: 4b1c c43d 0935 563d 9a5e bdbe ea09 603c
00000220: 2348 8bbe 2206 003e fb9e 333d 04a4 ef3d
00000230: e886 433d ed8c 09be a1dc 673e dff5 24bd
00000240: e8a2 febd edc7 90bd 1ea9 92bd 5913 713e
00000250: 24cd 083e fdff 96bd 8274 103e 9a36 62be
00000260: de2b 20bd 0853 7b3e 61a2 3ebd 8422 a4be
00000270: acce debd ab9a 50be 2ee5 613e 659f b4be
00000280: cae6 063e 4db6 17be 652c 833e 194b bdbd
00000290: 352c 8a3e 5aca 43bc 46f9 263e f127 9d3c
000002a0: e407 abbd 8f67 b93e 1dae b13d 8fa4 18be
000002b0: 3143 79bc afff a5bd e786 873e 1cbe c2bd
000002c0: a77f 9b3d d556 833d 1b6e 303e bcc6 8d3c
000002d0: 62f2 13be 075d a9be f774 88be 39c0 d8ba
000002e0: d292 123e ba39 8dbc b90e 2c3c 2344 21bd
000002f0: e714 42be 9459 8e3e 53cc 473e 4ffd 93bd
00000300: 1834 dcbd a311 673e 75c0 27be de7f 4d3d
00000310: d753 5bbd 3937 843e 2cd4 093e 68be 81be
00000320: d9ed e3be e1c3 1e3e db29 4b3e eee1 5e3e
00000330: 43d6 fc3d f440 11bc 42c6 2bbd 2b9f 5d3d
00000340: 08d5 603c b065 873e e724 99bd e7e3 23be
00000350: b8a5 40be bb4d 9a3d 2c77 973c 4b31 abbe
00000360: 7d31 213e 6313 413e 11a3 d0bd a5d8 acbd
00000370: 208c 173e 85af c3be 27f1 973c 7137 013e
00000380: 9b8c 70be 007d ec3d cffc 093e f29e 58be
00000390: 4352 b7be e7b4 6cbe 3773 16be e12c 0c3e
000003a0: 419b 83be 4dfa 003c dfc3 a73c 3e45 83bd
000003b0: 4e19 e9bd 33a7 f0bd 8efa 8e3d 181d 363e
000003c0: e4c0 acbe df54 a6be 79e7 313e e8f9 913d
000003d0: 0635 b0bd 622e 52be 5265 023f db2d b33d
000003e0: 9d0b 773e 7504 01bf 1ba2 abbe fac9 2a3e
000003f0: c240 c7be 38fe e6bd f6be babe 0d79 283e
0.08463687 0.073861554 -0.2756596 -0.03066319 -0.0027519672 0.1370523 0.048557125 -0.120750204
-0.10502646 0.31969646 0.06633182 0.041612122 -0.3830635 0.017309228 0.12114359 0.07203004
-0.13565315 -0.05920773 -0.07055426 -0.0888025 -0.31593058 -0.3010516 -0.15132692 -0.1785108
-0.16721056 -0.13564521 -0.33532494 -0.2898867 0.05892038 -0.059018914 -0.32686397 0.032530412
0.014607771 0.15188766 0.16634965 0.14717847 0.0059505478 -0.25105602 -0.30957976 0.19879283
0.06910036 -0.08505026 0.05796371 0.27531797 -0.27307367 -0.1354348 0.110457376 -0.015993051
-0.071045406 0.09274572 0.42954895 -0.050834086 -0.21415658 0.25180298 0.1693641 -0.04111177
-0.14168927 -0.4035467 0.09478202 -0.040563952 0.30497822 -0.05413874 0.226473 -0.28096426
-0.09347846 -0.026744284 -0.11811055 -0.3414513 -0.41531235 -0.22426835 0.0628169 -0.14384796
0.069925524 -0.03185064 0.013884022 0.15354386 0.0565865 -0.1323347 -0.10586641 -0.17626579
-0.37999937 0.08108956 -0.04938983 0.13291828 0.12344094 0.11346186 -0.03607271 0.11476676
0.13885853 0.18835461 -0.2064736 -0.12732828 -0.11749122 0.09553459 -0.3573238 0.29617164
-0.064365104 0.122456156 0.021830017 0.17952637 0.093037836 -0.006701078 0.1749333 -0.07173133
-0.18987884 0.14676851 -0.18499915 0.013057306 -0.03420852 -0.28396583 0.14662433 -0.25047836
0.10024498 -0.3276556 0.16025893 -0.10665627 -0.17406648 -0.054586377 -0.5409573 -0.026688028
0.027095031 -0.15265267 -0.28444725 -0.20918061 -0.1415662 0.33132717 0.16863169 0.0044078063
-0.43406725 -0.07472148 -0.07944035 0.07238199 0.09575709 0.052296672 -0.36986238 0.013674239
-0.27203473 0.1250234 0.043852787 0.117012054 0.04773608 -0.13432665 0.22642757 -0.040273543
-0.12433416 -0.07069383 -0.07161163 0.23542537 0.13359505 -0.07373045 0.14106944 -0.22091141
-0.039104335 0.24543393 -0.046541575 -0.32057583 -0.10879263 -0.20371501 0.22060081 -0.35277858
0.13173977 -0.14815636 0.25619808 -0.09242839 0.26986852 -0.0119501 0.16306028 0.019184085
-0.083511144 0.3621182 0.086757876 -0.14906524 -0.015213774 -0.081054084 0.2647011 -0.09508917
0.07592707 0.06413046 0.17229502 0.017306678 -0.1444793 -0.33078787 -0.26651737 -0.0016536779
0.1431382 -0.01723944 0.010501557 -0.03937162 -0.18953286 0.27802718 0.19511537 -0.07226049
-0.107521236 0.22565322 -0.1638201 0.05017077 -0.053546753 0.25823382 0.13459843 -0.2534058
-0.445174 0.1550441 0.19840185 0.21765873 0.12345555 -0.008865584 -0.04193712 0.054106873
0.013722666 0.2644477 -0.07477742 -0.16004907 -0.18813217 0.07534357 0.018489443 -0.33436045
0.15741535 0.18855052 -0.101873524 -0.08439759 0.14799547 -0.38219848 0.018547608 0.12618805
-0.23491137 0.11547279 0.13475345 -0.21154383 -0.35804948 -0.23115884 -0.14692388 0.13688995
-0.25704387 0.007872176 0.02047914 -0.06409691 -0.113817796 -0.11750641 0.06981383 0.17784536
-0.33740914 -0.32486627 0.17373456 0.07127744 -0.086038634 -0.20525506 0.5093585 0.087489806
0.24125524 -0.50397426 -0.33522114 0.1667861 -0.38916594 -0.11278957 -0.36473817 0.16452427

fc2.bias f4 [128]
00000000: 9410 383d ed80 b4bd 916a a3be a865 b23d
00000010: fba1 18bc f90b 4bbe 0bf9 2abe ad34 d8bc
00000020: fc1e aabe 72a1 1bbe d74e 42be b316 2dbe
00000030: 320c b5be 985f 4fbd ae55 5ebd eea0 77be
00000040: edcb 08bd 6933 9abc 4bf9 02be 3127 cdbd
00000050: 290a 8fbe 1097 a1be 2b75 813e 4b06 45be
00000060: 0871 bd3d 890c 01bd 1d1e 0fbe 1591 22be
00000070: c666 8bbe 7249 90bd 62df 54be b4e5 afbe
00000080: af51 b0bd f8c0 a1bb a082 64bd 8d13 eabd
00000090: 2254 8cbd cc45 c2bd dbb1 bdbd 6968 83be
000000a0: b2cd 92bd 9167 8ebe 8797 f6bd a569 c8be
000000b0: bfa2 0a3e aab9 07be ba0b abbe c8c0 93be
000000c0: 6b1b 33be c37b 8dbd cea6 11bb 899d 21be
000000d0: b289 85bd 5ed5 abbe 218c acbe 7402 36be
000000e0: 60b2 80bd cfa0 16be fbe5 05be 1c33 eebd
000000f0: 7945 6ebe b1f1 823c de7a 67be 466f 94bd
00000100: 2c8e 67be 9a63 a8bc 9b31 00be cdeb d4bd
00000110: c4ff ddbd 29bb 713d b245 683c 0689 0fbd
00000120: abfb 22be 3a52 b0bd 3649 8bbe 63e6 aebd
00000130: 4206 05be 84df 803d 730d cbbc f83b cf3c
00000140: ff7d b4be e3eb d73b 7e91 82bd 8eee 813d
00000150: 1d46 0cbe d27a d23b 4ea0 b8bd 47d2 103d
00000160: b345 d5bd 70d4 93bc b7d1 75be 3a22 1bbe
00000170: 9996 13be c0c9 e5bd 25a5 fcbd 3212 27bd
00000180: 2e94 8bbe b00d d6bc c925 8c3d 3b6c 59be
00000190: abae cdbd e75e 4abd b8c0 ffbc 83fa 6cbd
000001a0: 39a1 bc3c 032d e9bc b45d bcbd d554 cebd
000001b0: 31af 50be cd28 9abd 648c 48bd 8797 263d
000001c0: ae43 39be 740c 02bc 437d 893d 38c1 553d
000001d0: 57eb 58bd aaef b1bd b76c 8fbd 635c 71be
000001e0: 3619 913d bc6f c0be 265e 88be 09c8 2abe
000001f0: 5d04 cdbd e3c7 8f3c 2e3c 8abd 9958 82be
0.044937685 -0.08813653 -0.3191724 0.08710796 -0.009315963 -0.19828786 -0.16696565 -0.026392305
-0.33226764 -0.15198305 -0.18975388 -0.1690319 -0.35360867 -0.050628275 -0.05428093 -0.24182484
-0.033397604 -0.018823342 -0.1279041 -0.10017241 -0.2793744 -0.31560564 0.25284705 -0.19240682
0.092500746 -0.031506095 -0.13976331 -0.15875657 -0.27226847 -0.070452586 -0.20788339 -0.34354937
-0.0860933 -0.0049363337 -0.055788636 -0.1142951 -0.068519846 -0.09485969 -0.09262439 -0.25665596
-0.071681395 -0.2781339 -0.1204062 -0.391431 0.13538645 -0.13254419 -0.33407384 -0.28858018
-0.17490928 -0.06908371 -0.0022224667 -0.15782751 -0.06520404 -0.33561224 -0.3370066 -0.17774373
-0.06284022 -0.14709781 -0.13076012 -0.11630842 -0.23268689 0.015984388 -0.22605464 -0.07247786
-0.22612828 -0.020555306 -0.12518923 -0.10396538 -0.10839799 0.05901638 0.014176773 -0.035042785
-0.15916316 -0.086094335 -0.27204293 -0.085400365 -0.12990668 0.06292632 -0.024786687 0.02529715
-0.35252377 0.006589399 -0.06375407 0.06344329 -0.13698621 0.0064233327 -0.09014951 0.035356786
-0.10413685 -0.018045634 -0.24005781 -0.15149775 -0.14412917 -0.112201214 -0.12336186 -0.040788837
-0.2726149 -0.026129574 0.068431444 -0.21232693 -0.10043081 -0.049406912 -0.031219825 -0.057856094
0.023026096 -0.028463846 -0.0919756 -0.10074774 -0.2037933 -0.075273134 -0.048962012 0.04067185
-0.18092224 -0.007937539 0.06713345 0.05218622 -0.052958813 -0.086882904 -0.070031576 -0.23570399
0.07084887 -0.37585247 -0.2663433 -0.1667787 -0.10010598 0.017551368 -0.067497596 -0.2545822

fc3.weight f4 [2, 128]
00000000: b04a e53d 81c4 1cbc b10e a7be 381c 6a3e
00000010: c6f2 4d3d e3e1 b93e 385f 4d3e 0c77 f13c
00000020: ea8b bdbd 3c51 26be e1f8 6f3d 15d9 c1bd
00000030: a86e 863d 110a 603e 298d 4ebb db62 cf3d
00000040: da64 0bba d923 1cbd 3e6d 683d d733 013d
00000050: 4f84 38be 1ede dcbe 1e1c 063d 142e 013e
00000060: 1162 193d b6f0 3f3b 94cb ecbe 1b14 1d3e
00000070: 03ea bcbd 8c0a f1bb b844 62be 9469 083e
00000080: 8d6a bbbe 8c21 1b3d 3a36 213c b604 043d
00000090: 1491 043e b93a 37be c654 34bb 663a 17be
000000a0: 02ed 44bc 9a86 983d b284 afbd d9a4 163e
000000b0: eddd 97bd 9026 ffbd 74bb aebe b48f e13d
000000c0: dde9 e83b e559 a03e 53bf ca3b f32d fabd
000000d0: acab 09bc aafe b5bd 0485 9cbd eae0 103c
000000e0: 8fc4 693e 2451 e73d 950c 633d aeca 8b3d
000000f0: 30a7 203e a899 8fbc d46a b2bd eaf3 c13e
00000100: 8388 79be 8843 623c 53d0 2f3e b763 e8bd
00000110: 90b0 30bb 2407 243e d442 c63b 40fc eabd
00000120: 79b9 b23e 7fe9 19bb 11c2 02bf f08c 333c
00000130: 1b6b 4cbd 2cc5 e43d 7b30 d33d 030b 133e
00000140: ea81 be3d c7c1 21be cfe3 2c3e 21ab 9c3c
00000150: 889a 3dbe 1bfc 243e 2c9d cf3c 8082 3d3e
00000160: f97a 35bc 2b98 8b3c 4ebf 90be dc1a c93d
00000170: 7ea4 883e 2e73 203e 78a5 0b3e 6a35 09ba
00000180: 0ddb 283e f27c 4dbe 3746 21be 8979 113d
00000190: 5cdd 863c a59d 14bd a25e 173e 6237 1cbc
000001a0: 7a7f 313e f1d7 643e 1036 a13d a6d4 593e
000001b0: a885 803d 7dbf 853b bdc9 96be 431e 493e
000001c0: 5d95 af3d b0b4 263d 6810 91be c5db 173e
000001d0: 2e13 87bb e36b 403e abf0 c43d d527 e0bd
000001e0: c14b 79bc 5e6a abbe 6285 76be 4245 49be
000001f0: 6144 90bc b53f 24bd 4824 883e 05c3 7bbe
00000200: 52f5 bfbc 46f1 e9bb bdb6 243e 9d53 0c3e
00000210: 7a52 063f f300 b53c bfe5 d63e f830 893c
00000220: 0aa8 00be a6e3 f23c a4e7 ac3e 47a4 68be
00000230: b5d2 8f3e 2967 5ebe b741 813c 69cb 983e
00000240: 854c 2ebc 81ba 413c ced8 263e f72b 3d3e
00000250: 8c96 3c3e 1464 5fbd a95f 90be a14b ac3e
00000260: 4e5e 0e3e 2705 3c3c 192c 993e 4bd6 13bc
00000270: 80ea 52bb 31be 1fbc 5737 383d 01ea d53e
00000280: 5fb8 69be ecb1 a4be 9bcf 2dbc de1a 073e
00000290: 012e 4fbd 4cfa 09be b2d6 80bc 96ee c03d
000002a0: 45ea 26bc 2d23 753e 1e70 953c 6667 8b3e
000002b0: ef01 033f 528e 8dbe 3373 693e 68ac 5b3e
000002c0: 4327 ccbd 6f70 503d 65a5 03bc 0be3 95be
000002d0: 322f f639 52bf 113d 2a1b b43d 752b 0f3a
000002e0: 776e c23e 98a9 f73a 0403 333c fe74 6ebd
000002f0: 89fe 103e 44c1 923c 4f66 0d3e df96 43be
00000300: da4b 1e3e 6a00 6d3c 932c c7bb a153 ddbe
00000310: 0f50 daba a208 073f 4170 1abc b9b9 2cbe
00000320: 15ee bd3d 8ded 3abc ae61 9d3e 580b 09bd
00000330: 10d7 4bbe 8655 8a3e 7d0c a7bd b434 ab3c
00000340: 5f69 2abe 02dd 81be 7149 a0bd 9649 bcbe
00000350: 39e0 cfbd 6e9b 0cbe 1394 bfbd e79a b9be
00000360: 2eae bd3d cf2f 18bc 9c20 7ebe 102a 443e
00000370: 7399 a33d cf27 a6be 8ec5 61be 77be a5ba
00000380: c2de 713e 24d9 ebbd a602 a9be d956 8d3d
00000390: 9585 a6ba 1254 02bf 77ce acbe afe3 d4bb
000003a0: b780 103e 0749 b2be 8952 c9bc 5c7d 403d
000003b0: 34b9 55be f8ae 72bc b224 d03d ac6c 303d
000003c0: 02e3 0fbe d57e d7be acee 6a3e 7592 2bbd
000003d0: b24f 8d3d fc45 4dbe 686c 4cbd 9abd 35be
000003e0: 5451 e53e 73b7 703c 13b8 6b3e 5984 85be
000003f0: e6c8 4c3c 4ab2 0f3f 3ba8 75be e576 91bd
0.11195886 -0.009568335 -0.32628396 0.22862327 0.050280355 0.3630515 0.20055854 0.029475711
-0.09255202 -0.16241926 0.05858696 -0.09465233 0.06564075 0.2187884 -0.0031517243 0.10126277
-0.0005317457 -0.038120124 0.056744806 0.03154358 -0.18019222 -0.43138212 0.03274166 0.12615234
0.03744704 0.0029287762 -0.46249068 0.15339701 -0.09224322 -0.0073559936 -0.22096527 0.13321525
-0.3660473 0.03787379 0.009839589 0.032231055 0.12945968 -0.17893495 -0.002751635 -0.14768371
-0.012019398 0.07447548 -0.085702315 0.14711322 -0.07415376 -0.12458527 -0.3412739 0.11013737
0.007107957 0.31318584 0.0061873584 -0.12215795 -0.008402746 -0.08886464 -0.07642558 0.008842686
0.22828887 0.11294773 0.05543192 0.068257675 0.15688777 -0.017529324 -0.08711782 0.37881404
-0.24368481 0.013810046 0.17169313 -0.11347144 -0.0026960708 0.16018349 0.006050447 -0.11473894
0.3490713 -0.0023485122 -0.5107737 0.010958895 -0.04990683 0.1117042 0.10311981 0.1435967
0.09302123 -0.15796576 0.16883777 0.01912457 -0.1851598 0.16111796 0.0253435 0.18506813
-0.011076682 0.017040333 -0.28270954 0.09819576 0.26687998 0.15668938 0.1363734 -0.00052340946
0.16489811 -0.20067194 -0.15749441 0.035516296 0.016462974 -0.036283154 0.14782193 -0.009534689
0.17333785 0.22348 0.0787164 0.21272525 0.06275493 0.004081665 -0.2945079 0.1964045
0.08573411 0.04069966 -0.2833283 0.14829929 -0.0041221594 0.18791156 0.09616216 -0.10945097
-0.015215815 -0.3347959 -0.24074319 -0.19655326 -0.01761073 -0.04009982 0.2659018 -0.24586113
-0.023432408 -0.0071393577 0.16085334 0.13703771 0.524696 0.02209518 0.41972157 0.016746983
-0.12564102 0.029649567 0.33770478 -0.22718917 0.28090444 -0.2171904 0.015778406 0.2984269
-0.010638361 0.011824251 0.16293642 0.18473803 0.18416804 -0.0545388 -0.28197983 0.3365145
0.13903162 0.011475838 0.29916456 -0.009023259 -0.003218323 -0.009749935 0.04497465 0.41780093
-0.22824238 -0.32166994 -0.010608579 0.13193843 -0.050580982 -0.13474387 -0.015727375 0.09420507
-0.01018769 0.239392 0.018241938 0.27227324 0.51174825 -0.27647644 0.22797851 0.21452487
-0.09968426 0.050888475 -0.008035039 -0.29274783 0.0004695594 0.035582848 0.08794244 0.00054614927
0.37974903 0.0018895147 0.010926012 -0.05821704 0.14159597 0.017914422 0.13808559 -0.19100522
0.15458623 0.014465431 -0.0060783117 -0.43227866 -0.0016655939 0.5274755 -0.0094261775 -0.16867723
0.09273926 -0.011409176 0.30738586 -0.033458084 -0.19906259 0.27018374 -0.08156679 0.020899154
-0.16641758 -0.25363928 -0.07826508 -0.36774892 -0.10150189 -0.13731167 -0.09354415 -0.36250994
0.09261738 -0.009288742 -0.24817127 0.1915667 0.079882525 -0.32452247 -0.22048017 -0.0012645264
0.23620132 -0.11516026 -0.33009833 0.069013305 -0.0012704605 -0.5090953 -0.3375127 -0.0064968686
0.14111601 -0.3482134 -0.024575489 0.046994552 -0.2087143 -0.014812224 0.10163249 0.043072388
-0.1405144 -0.42088953 0.22942609 -0.04188772 0.06899966 -0.20046228 -0.04990807 -0.17748109
0.4478861 0.014692175 0.23019437 -0.26077536 0.01249907 0.5613142 -0.23989956 -0.071027555

fc3.bias f4 [2]
00000000: 8a31 c33d c906 f83c
0.09530933 0.030276673
