checkpoint_critic_1.pth (torch_old, 185340 bytes, 5 tensors)

fcs1.weight f4 [256, 48]
00000000: fbef b23e b3ee a43d 28e7 b1bd 0a06 0bbc
00000010: 7638 a7be 44b6 15be 5497 dfbd 49b2 0bbc
00000020: fa73 b23e fae7 133c ddf1 023d b6d3 1dbc
00000030: 7211 adbe cd9a 93be da05 a23d b571 70bd
00000040: dd90 903e 29b6 c23d dd1d abbd 3bf7 a43e
00000050: f4dd 37be 593c 9bbe b958 983c 4713 de3e
00000060: c767 c13d e9c4 373f c2e1 423c e57f 263e
00000070: cb97 753e 5852 4cbe 449d d03c 633d 603e
00000080: 35e8 9c3d 8794 3e3f ebac 113b a573 1c3e
00000090: 5446 ae3e bd93 97be 8bf4 62ba c292 d23d
000000a0: 8f1f 073e 9a3c 263f d1d1 323c e314 26be
000000b0: 3e1a 423e ebda 6fbe 4494 0abd da67 b4bd
000000c0: b9e4 5a3e 374f afbd 163a 96bd 2d36 aa3e
000000d0: e3b2 7ebe 2d1f b6be 1fe3 4fbd 475e 8f3e
000000e0: cc7b 753e 010f 74bd 0d1b 553d da66 9bbd
000000f0: 2f24 a7be c5fb c2be dede 193d a55c 2cbc
00000100: 924d 263e 29fd 9d3c 4473 2bbd b149 2bbc
00000110: 997a 61be 144a afbe a1f0 68bd 5eca 6c3d
00000120: 10c2 e33d 03ee 23bc 7e63 56bb eac0 35bb
00000130: f5ea 503e ee1f 85be b411 00bd 7c16 4abd
00000140: f29e c13d 97da 463e 8147 64bd 8e97 353e
00000150: e747 793e 4b91 a5be 8d82 2e3d 12ed c43d
00000160: aa94 173e 08c2 813e 2427 7bbd 3f88 10be
00000170: abb0 713e c8e0 d6be 6a75 6ebd e965 4dbd
00000180: 7bfc 18be e521 033f 881f 4d3c c244 d03d
00000190: 9375 ce3d 0242 51bf 0c90 8bb9 96f8 5c3e
000001a0: 26fd 14be 77a6 203f 97bc 73bb fdb7 b83c
000001b0: 2c32 09be 27c7 57bf 28b8 ceb9 428e a63d
000001c0: 215f 8cbe ad2c 093f c4ec 8b3d 1f8b a33d
000001d0: 5149 a5be d502 8cbe 2381 0c3d f974 fcbc
000001e0: f657 a2be 7dcd b9bd e45c 293d 4fbc 4c3d
000001f0: 698c b2bd bc2e 5bbf d589 0cbd 8bff ef3d
00000200: 97c9 44be 527c 3fbe 462a b13c f3a6 c5bd
00000210: 635f d03d 1926 5ebf 28cb 75bd 1ade 47bd
00000220: dce1 37be 2d5b 1fbe 31f4 87bd 9399 263e
00000230: 6a44 933e cab3 48be 025f c4bc 5bb9 113e
00000240: de61 9f3e 6570 b13c 15ae 253c bcaf 3f3e
00000250: 169c 5cbd 9234 9fbe e95d 233c 26f1 433e
00000260: 5f24 633e 09cc 133b 1d80 07bd cd23 353e
00000270: 6269 56be cae5 c3be b02b 10be 8108 373e
00000280: fc88 8b3e e4b4 7bbb 1147 cd3d af4b 2a3d
00000290: 70a9 42be 9017 e2be 4cd8 5b3d e218 d83d
000002a0: 957a 843a 470c 3bbe 589c 7f3d e09a 3ebd
000002b0: c430 393d 0e03 a1be 106b ec3c d798 f9bc
000002c0: 641d 13bc acd7 75be af13 713c 47b6 9b3e
000002d0: 52d8 723e 5e97 9dbe de09 d13b 0925 953e
000002e0: 2a73 ecbc 4caa 9fbe 070a 3e3d f8f2 d13e
000002f0: e6e7 6e3e e80f cfbe 0e15 5d3d 56eb e73e
00000300: 84fc 3a3e 7f25 cdbc 203b f73c 0fd8 6bbe
00000310: ff02 88be e17f 6abe 16f5 72bd 2f97 5abe
00000320: fcde cd3d 61e0 fdbd 120d ddbc 0f90 bdbe
00000330: 42cb adbe da74 8fbe e279 253c 599d bdbe
00000340: 7ad7 543e 748a c3bd c980 fa3c 59d1 5abe
00000350: 4f46 9bbe 7717 babe 4f9c 8f3d 2ec3 90be
00000360: ebfb 5d3d 31bd 7f3d fca6 5e3d 5adc c9bd
00000370: c8e5 6e3e 9360 3ebe 024e 473d 515e 02be
00000380: 3eec cb3c 5354 913d 91d8 cebd 66cd 123e
00000390: 8a4c a03e 4873 90be 8453 01be 54dc b73d
000003a0: 117f 283e 826b 033e 70b6 a43d a530 703e
000003b0: d561 9b3e cfce b1be c55c 9f3c 651c 563e
000003c0: 1dc0 0b3e 84c7 943e 7551 4dbd be42 88bd
000003d0: e5c8 90be 0ebb abbd 4b32 96bd 040d cebc
000003e0: a7c8 483e 60be 883e db5a 433d 28bc 1ebe
000003f0: 508a 3ebe 71eb b33c a5d3 5dbd 3768 eabd
0.34948716 0.08053341 -0.08686668 -0.008485327 -0.32660264 -0.1462031 -0.109175354 -0.008526393
0.34854108 0.0090274755 0.03196894 -0.009632995 -0.33802372 -0.2882904 0.07911272 -0.05870219
0.28235522 0.095074005 -0.08355305 0.32219872 -0.17955762 -0.3031948 0.018596994 0.43374082
0.09443622 0.71784836 0.011894645 0.16259725 0.23983686 -0.19953287 0.025465615 0.21898417
0.076614775 0.74445385 0.0022228311 0.1527849 0.3403803 -0.29604903 -0.00086576556 0.10281898
0.13195632 0.6493622 0.010914282 -0.16218905 0.18955323 -0.23423354 -0.033832803 -0.088088706
0.21376313 -0.08560031 -0.07335298 0.33244458 -0.24872927 -0.3557066 -0.05075371 0.28001615
0.23973006 -0.05958462 0.05202775 -0.07587977 -0.32644793 -0.3808271 0.03756606 -0.010520135
0.16240528 0.019285755 -0.041857973 -0.010454581 -0.22019424 -0.34236205 -0.056870107 0.05781018
0.11120999 -0.010005477 -0.003271311 -0.0027733394 0.20402129 -0.26000923 -0.031266883 -0.04933785
0.094541445 0.19419323 -0.055732254 0.17733595 0.24343835 -0.32337412 0.04260497 0.0961553
0.14802805 0.25343347 -0.061316624 -0.14114474 0.2360255 -0.4196837 -0.058217444 -0.050146017
-0.14940064 0.51223594 0.012519725 0.101693645 0.10081019 -0.81741345 -0.0002661947 0.21579203
-0.14549693 0.62754005 -0.0037191266 0.02254867 -0.13398045 -0.8428826 -0.0003942859 0.08132602
-0.27416328 0.53583795 0.06832269 0.079855196 -0.32282498 -0.2734591 0.034302842 -0.030817496
-0.31707734 -0.09072397 0.041348353 0.049984273 -0.08718187 -0.85618186 -0.034311134 0.11718663
-0.19217525 -0.18699768 0.021626603 -0.09650984 0.101744436 -0.8677688 -0.060008198 -0.048795797
-0.17957252 -0.15562125 -0.06638373 0.16269521 0.28763133 -0.19599834 -0.023971085 0.14230864
0.31129354 0.02166004 0.010112305 0.18719381 -0.053859793 -0.31094795 0.00997112 0.1913496
0.22181843 0.0022552034 -0.033081163 0.17689438 -0.20938638 -0.38261253 -0.14079165 0.17874338
0.27252948 -0.003840738 0.100233205 0.041576084 -0.19009948 -0.44158602 0.053673074 0.10551621
0.0010107333 -0.18266402 0.06240496 -0.04653442 0.045212522 -0.31447643 0.028859645 -0.030468388
-0.008979175 -0.24008054 0.014714166 0.30412504 0.23715332 -0.30779546 0.00637935 0.29129818
-0.028863508 -0.31184614 0.04639628 0.41005683 0.2333065 -0.40441823 0.053975157 0.45296735
0.1826039 -0.025042294 0.03017956 -0.23031639 -0.26564786 -0.22900344 -0.059315763 -0.21346734
0.100522965 -0.123963125 -0.026983771 -0.3702397 -0.33944136 -0.28018838 0.01009986 -0.3703411
0.20785323 -0.09547892 0.030578988 -0.21368922 -0.3032708 -0.36346027 0.070122354 -0.2827391
0.054195326 0.062436286 0.054358467 -0.09856482 0.23329842 -0.18591528 0.04865838 -0.12731291
0.024892922 0.07096162 -0.100999005 0.14336166 0.31308395 -0.28212953 -0.12629515 0.08977571
0.16454722 0.1283398 0.0804261 0.23456056 0.30348077 -0.34728095 0.019453416 0.20909269
0.13647504 0.29058468 -0.05012651 -0.06653355 -0.2827827 -0.08385287 -0.07333811 -0.02515269
0.19607793 0.26707745 0.04769407 -0.15501463 -0.1860745 0.021962853 -0.054156918 -0.11445659

fcs1.bias f4 [256]
00000000: cb40 2fbe 9233 8cbe c4c2 e63d 0125 dc3c
00000010: cfa6 b7bd d5ba 82be baab e5bd 126f 10be
00000020: 9de7 adbe dba4 5abd 71fe aabd d278 c8bd
00000030: 4a85 a8be 7750 89be 3d6b ecbd a7ae e53c
00000040: 0fff 333d a373 cbbd e7df 40bd dc10 093e
00000050: 070c 02be 158c 4dbe 46d3 2dbe 54ae 80be
00000060: 21db 97be 43db 95be a739 acbe d25f 2fbd
00000070: 914a a7be fbc9 6dbe 2bfc 88be 541a 73be
00000080: 01ff 72be b0d2 7ebe 63e0 78be bcf5 8ebe
00000090: f98a 3abe 074b d1be dbab a6bd 63a0 9abe
000000a0: ab4d a6be 325c 9bbe 1b67 b8bd b4ab db3c
000000b0: 4cb1 02be 7f7f 91be 3431 e8be d1b0 bbbe
000000c0: c15d 51bc ef18 abbe c59a 5ebe d0f9 2fbd
000000d0: b852 31be e582 aebd 2482 963d f9fb 8bbe
000000e0: 2071 8a3c 6ca5 b7be 471a 40be 6328 3bbe
000000f0: 5aa9 7bbd 3a3d d5be 5277 81bd 2f7b a3be
00000100: b15d 6abe 7150 84be 77cd f4be 9882 6dbe
00000110: e5a0 84be deb7 7fbe d6bc 90be 1b25 7bbe
00000120: f0fe 9dbe 9cf5 2cbe e427 88be 7044 69bd
00000130: 9746 1c3e 4c9e c6be 50de 3bbe 1ccf d2bd
00000140: 62e3 85bd c448 403e e2c7 24be 8322 90be
00000150: 86c9 8bbe 57dc 82be eeee 67be 105b dfbe
00000160: 0e21 1bbe 5699 6ebe 1126 613d bde0 97be
00000170: 2f8b acbe 9696 f8bd b637 30be 0115 0abe
00000180: 0935 b3be 5184 77be 7f42 a1be 4d07 5fbe
00000190: 6cff 04be 8c10 e0bd 709c c0be 63d0 64be
000001a0: 0152 18be 5977 86be c2d9 02be 17e8 b7be
000001b0: 391a 9cbe 60e4 a3be 94c3 5abe ce5c 75bd
000001c0: 30bc 4cbe ec29 8cbe 8d01 ebbd 0f68 81be
000001d0: d4ad 99bd 0368 81be 570e d03d b2a4 e8bd
000001e0: a03a 553c a3a2 d1be 0cda cfbd 387c 29be
000001f0: 72ba 39be 053d a1bd f2bd 4ebe 56e6 97be
00000200: 30a9 38be b7b6 09bd 008d 06bc ab39 a7bc
00000210: 851d 2cbe e904 45be b5b7 56be 9fd9 48be
00000220: 1244 2bbe 7d4d 47be c636 1bbe 0389 23be
00000230: b558 0d3c 6622 adbe bea8 b6be be3c 98be
00000240: d345 53bb 62e7 71be 58d8 2fbd 63f3 7fbe
00000250: ddd7 95be 03d3 9abe 32d4 62be e2eb 91be
00000260: 1b68 0d3c 574c 4abe b8a9 40be ad32 91be
00000270: 8743 aebe cce3 40be 9e2d afbe 3b63 bdbe
00000280: f0d9 23be b003 37be 5e82 b4bd e1a5 f53c
00000290: 055b 84be ab6a c43d 0f80 62be dd9f 93be
000002a0: 18be 03be 8e8d 8bbd 11e6 52bd da17 a7be
000002b0: 1fe0 ee3d 2599 7fbc 75b3 83be d62a bbbe
000002c0: fc55 d4be bbca ddbc 1bf1 e53d 459b e3be
000002d0: 1d4a ac3d d9ec 87be a6b5 26be fd3b f83c
000002e0: 19b3 95bd 9613 1c3e 3606 233e 93b9 aebe
000002f0: b8d8 7abe 985b 73bd d516 21bd 3f15 9cbe
00000300: 841f b1be 5865 79be f87c 65be 45ea 7bbe
00000310: 5201 0abe 5eb3 afbe 0b7a a8be 8929 0bbe
00000320: ba0e c3be dad4 cb3d e29a b3be fd03 67bd
00000330: f388 61be d663 4dbe 93af d23c 1519 9abe
00000340: 513f 8f3d ad3a 9fbe fdd8 e3be daea 16be
00000350: 5159 52be f384 9fbe 7849 863e 5cb0 90be
00000360: 48a3 9fbe 9736 1cbe e502 253d 2237 babe
00000370: 3b17 973d f9c7 a33d 2bce 9e3c d9ed 83bd
00000380: d924 bdbe 9725 dcbd e1a0 49be 43bd cebe
00000390: f8d9 83bc ed21 28be 8c1d fbbd 48cb 103e
000003a0: 626b c2bd 61d1 dbbe 998f 86be 07dc 23be
000003b0: b3cd 32be e6f5 9bbe a1da 77be 2843 f7bd
000003c0: 3513 303e f2ba acbd f906 4abe ef65 97be
000003d0: efdf 45bd bef5 c4bd 14ba 1abe 2324 92be
000003e0: 4e17 48be 7318 83bd f0ff cabd 88ce b2be
000003f0: 2c6c 97be 6c58 193e 755b 18be 4880 c4be
-0.1711456 -0.27383095 0.11267617 0.026873114 -0.08967363 -0.25533167 -0.11214395 -0.1410487
-0.3396577 -0.053379875 -0.08349312 -0.0978867 -0.3291419 -0.26819202 -0.115438916 0.028037382
0.043944415 -0.09934165 -0.04708853 0.13385338 -0.126999 -0.20072968 -0.16975126 -0.25133002
-0.2965937 -0.29268846 -0.33637735 -0.04281599 -0.32674077 -0.2322158 -0.2675489 -0.23740512
-0.23730089 -0.24885058 -0.24304347 -0.27921855 -0.18217076 -0.40877554 -0.081382476 -0.3020049
-0.3248113 -0.30343777 -0.09004041 0.026815273 -0.12762946 -0.28417584 -0.4535004 -0.36658338
-0.0127787 -0.3341746 -0.21738727 -0.04296285 -0.17316711 -0.0852106 0.07349041 -0.27340677
0.016899645 -0.35868394 -0.18760024 -0.18277125 -0.061440803 -0.41648275 -0.06321587 -0.3192992
-0.22887303 -0.25842622 -0.47813007 -0.23194349 -0.25904003 -0.24972484 -0.2826907 -0.24525873
-0.30858564 -0.16890568 -0.26592934 -0.056950033 0.15261303 -0.38792646 -0.18346524 -0.10293409
-0.065375105 0.18777758 -0.16091874 -0.2815133 -0.27302188 -0.2555873 -0.22649738 -0.43624163
-0.15149328 -0.2330068 0.054967944 -0.2966365 -0.3369994 -0.12138097 -0.17208752 -0.13484575
-0.350014 -0.24171568 -0.31496045 -0.21780129 -0.1298806 -0.10940656 -0.37619352 -0.22345118
-0.14875032 -0.2626293 -0.1277838 -0.35919258 -0.30488756 -0.32010174 -0.2136367 -0.05990296
-0.19993663 -0.27375734 -0.11474905 -0.25274703 -0.07503858 -0.25274667 0.10158985 -0.11359538
0.013014466 -0.40944394 -0.10149011 -0.16551292 -0.1813753 -0.07872967 -0.20189646 -0.2966792
-0.1803329 -0.033621516 -0.008212328 -0.02041324 -0.16808136 -0.19240154 -0.20968516 -0.19614266
-0.16725186 -0.19463153 -0.15157613 -0.15970235 0.008627106 -0.33815306 -0.35675615 -0.29733843
-0.0032237663 -0.23623422 -0.04293093 -0.24995188 -0.29266253 -0.30239114 -0.22151259 -0.28500277
0.008630778 -0.19755684 -0.18814743 -0.28358975 -0.34035894 -0.18836898 -0.3421449 -0.3698977
-0.16001105 -0.178725 -0.08813928 0.029986324 -0.25850692 0.09590658 -0.22119163 -0.28832904
-0.12865484 -0.06814109 -0.05148894 -0.32635385 0.116638415 -0.015600477 -0.25722852 -0.3655612
-0.4147185 -0.027074208 0.11227628 -0.444544 0.084125735 -0.26547888 -0.16280231 0.030302042
-0.07309551 0.15241846 0.15920338 -0.34125957 -0.24496734 -0.059413522 -0.039328415 -0.3048496
-0.34594357 -0.24355066 -0.22410953 -0.24601085 -0.13477066 -0.34316534 -0.3290561 -0.13590063
-0.38097173 0.099527076 -0.35079104 -0.056400288 -0.22024898 -0.20057616 0.025718486 -0.3009726
0.069944985 -0.31099454 -0.44501486 -0.14738026 -0.20541884 -0.3115612 0.26227927 -0.28259552
-0.3117926 -0.152552 0.040285964 -0.36370188 0.07377478 0.07997126 0.019385418 -0.0644185
-0.36942175 -0.10749357 -0.19690277 -0.4037877 -0.016095147 -0.16419192 -0.12261495 0.14140046
-0.09493138 -0.4293318 -0.2628143 -0.16001903 -0.1746128 -0.30461043 -0.24204494 -0.12073356
0.17194827 -0.084340945 -0.19729222 -0.29569957 -0.048309263 -0.09617184 -0.15110046 -0.28543195
-0.1954014 -0.06401148 -0.099120975 -0.34923196 -0.29574716 0.14975137 -0.14878638 -0.3837912

fc2.weight f4 [128, 260]
00000000: 2c43 07be f36a 11be f2d0 5b3c 4882 783c
00000010: 5787 cf3b 7090 44bd 14de 373c da6b a1bd
00000020: 5687 39bc 5e36 aabd 6e7e d0bc eb65 b23c
00000030: 5af9 a2bc 0c52 8cbd 165a 99bd cc72 d93c
00000040: 231d ffbd fb4d 083d cb3d 9cbc e743 8ebd
00000050: 21e0 fcbd 278e a4bd 41fb 7ebc 67c3 683d
00000060: bc64 c8bd 206a 3dbd 3329 1abd e402 69be
00000070: ab02 d93b 35e2 aabd a710 a8bd be11 88bc
00000080: cb50 11bd ef59 83bd cda1 9ebc 3cac 753c
00000090: ea42 9abd 2740 bbbd d1b1 f1bd 0d5f 053d
000000a0: b328 d3bd 202e bdbd 70dc e1bd 4653 9bbd
000000b0: 8c45 b8bc 83c3 20bd d9e3 1ebe 12e1 e7bd
000000c0: 6d02 bebd 93e2 c2bd 6120 d7bc 27eb 473b
000000d0: 3298 abbd dcab a8bb 46fe 95bc 812f f2bc
000000e0: ba40 713d 6731 133c 4b79 ee3b bbc2 32bc
000000f0: 7376 98bd a1bd 01be e8e0 3abd 8ea2 a73b
00000100: f6ce a8bd 8fc6 52bd b1af 5a3b d53e 033c
00000110: dd2b c1bb b16c f9bd da62 f8bc 90ab 01bd
00000120: 51a8 10be c24a 553d 249c fcbd 0b50 0a3c
00000130: 983b c83c 9e90 c9bd 10f9 10be 9494 bcbd
00000140: bf76 48bd bcf2 a2bd 223d 42bd 61e3 e5bd
00000150: bb68 febc 8005 043d d6cc 4a3c 4b12 e5bd
00000160: 4ae1 bbbd 88d5 92bd 2420 94bc 25fc 16bd
00000170: cc35 c9bc 365c fabd 774b 033c c248 a6bd
00000180: 00ad ecbd 1445 c0bd d598 98bd b913 2bbd
00000190: 4119 58bd a2ca b2bc e6d5 5ebc 895a ccbd
000001a0: 814f c1bd 1fb4 f4bc 74c9 fa3c 42e3 92bd
000001b0: ce51 e5bd 05b0 67bd 99de b3bd dce2 4b3c
000001c0: 7407 dabc 165b 6b3d da34 5abd e66b 233c
000001d0: 0bed 1ebd 2819 dbbc 153d 943c bbcc 23bd
000001e0: e5bb b1ba ee94 13bd e7db 3bbd 91fc bebd
000001f0: 2880 903c 2d8f 04be dd17 d23c 72a1 b4bd
00000200: a70b 793b 425d 383d 1878 c6bc 7541 82bd
00000210: f21e 0fbd 4572 d73c 07bc bd3c 055a 4cbd
00000220: 5722 56bc 8a97 853b d044 c8bc bb31 0f3d
00000230: 38f0 35bc 902e 4bbd 264c a6bd a768 f0bc
00000240: 391a a8bd 6667 38bc df3c 3ebd 1633 92bd
00000250: d707 933c 55bf 22bd 4e11 f6bb 9487 453d
00000260: 8eb2 15bc b858 123d cac7 c0bb b062 973c
00000270: 7308 86bc 594a f0bd 6b79 8cbd 4529 2d3d
00000280: ee0a 6fbd 76c2 a4bd 63a5 d03b f0de 3d3d
00000290: 3712 633c 2b14 18bd 62bb 803c 933a 74bd
000002a0: 39b4 b83c 46ac 19bd cb41 6ebd 501f 7c3d
000002b0: 9428 a5bc 0f15 9a3c fa10 73bc 1160 c7bd
000002c0: ab99 8bbd c411 59bd 8991 83bd ad42 563d
000002d0: aafd ccbd 4ce0 2f3b 2d00 b3bb f2c8 86bd
000002e0: a92b a5bd e05a 0abd e0c2 aebd 9aab 843c
000002f0: 20e7 c83b cfc9 2ebd 9af0 1e3d 78e2 a2bd
00000300: 3f5c f13b 3b25 90bd 5f51 d1bd 173d 09be
00000310: 980a 923c 9c00 01be 722c 903d b0a2 07be
00000320: 5f77 a5bd 73ae c2bd 589c 6cbd c541 983c
00000330: 36c4 99bc 8547 87bb 7618 63bd de7f e6bc
00000340: 192d d13c df89 f0bd c7cc 3d3d 4c35 8bbb
00000350: 183a a4bd 3db8 05bd 08e2 01be 0ab4 0a3c
00000360: 8db7 96bd 2d13 093d a25b 9fbc b59a e83c
00000370: 7438 82bd d0a7 21bc 95f2 04be e3c5 a5bd
00000380: 38cd 05bc 9a79 b9bd 8102 e63c 231c 89bd
00000390: bdde 11be 6b9f 80bb 1ef4 7d3d 791d bebc
000003a0: ec50 f7bd a78c b0bd a8cf 20be 62fe e2bc
000003b0: 2cc6 cabd 0969 e9bd 26ee a83c 7634 83bd
000003c0: 2b5c 8fbd 9fc4 2c3c 9e0a 49bd d8ad efbc
000003d0: 3b5a fabd f7fc afbc 1495 f4bd 0da1 533c
000003e0: 527a fa3c b919 ce3a f235 233d 3768 473d
000003f0: 1ad5 fa3b 7bc5 8bbd f1f0 8ebd ecbe 103d
-0.13209218 -0.14200954 0.013416516 0.01516778 0.0063332724 -0.04798931 0.011222381 -0.07881899
-0.0113237705 -0.08311151 -0.025450911 0.021777114 -0.01989429 -0.06851587 -0.07487886 0.026543997
-0.12456729 0.033277493 -0.019072434 -0.06946545 -0.12347437 -0.08034926 -0.015562833 0.056826975
-0.097848386 -0.046243787 -0.037636947 -0.22755009 0.0066226325 -0.08343927 -0.08206301 -0.016610023
-0.03547744 -0.06413638 -0.019364262 0.014994677 -0.07532294 -0.091430955 -0.11801494 0.03256135
-0.10310497 -0.09237313 -0.11028373 -0.075842425 -0.0224941 -0.039248955 -0.15516604 -0.11322226
-0.092778064 -0.09515872 -0.026260557 0.0030505152 -0.08378638 -0.0051474404 -0.018309724 -0.029563667
0.05889962 0.008983946 0.007277643 -0.010910685 -0.074444674 -0.12669994 -0.045624644 0.0051158136
-0.082426 -0.05145889 0.003336888 0.008010586 -0.0058951215 -0.12178934 -0.030320574 -0.031657755
-0.14126708 0.052073248 -0.12334469 0.008441935 0.024442479 -0.09842037 -0.1415751 -0.092080265
-0.04894137 -0.07956454 -0.047421582 -0.1122501 -0.031055799 0.032231808 0.012377938 -0.1118513
-0.0917383 -0.07169634 -0.018081732 -0.036861558 -0.024561785 -0.12224619 0.008013598 -0.08119346
-0.11556435 -0.093881756 -0.074510254 -0.041766856 -0.05275846 -0.021825138 -0.013600802 -0.09978206
-0.09438992 -0.029871045 0.030613638 -0.07172252 -0.11197244 -0.05656435 -0.087826915 0.012444224
-0.026614882 0.057459913 -0.05327306 0.009974455 -0.03880028 -0.026745394 0.018095532 -0.039990168
-0.0013560025 -0.036030702 -0.045864012 -0.09325517 0.017639235 -0.12945242 0.025646145 -0.08819856
0.003800133 0.045010813 -0.024227187 -0.06360141 -0.03494162 0.026299605 0.023160947 -0.049890537
-0.013069711 0.0040769028 -0.024446875 0.034959536 -0.011104636 -0.049604952 -0.08119993 -0.029346777
-0.082081266 -0.011255121 -0.04644477 -0.0713865 0.017948074 -0.03973325 -0.007509387 0.048225
-0.009136809 0.03572914 -0.0058831917 0.018479675 -0.01636145 -0.11732931 -0.06859096 0.042275686
-0.058360033 -0.08044903 0.006367372 0.046355188 0.013859323 -0.03712861 0.015714351 -0.059626173
0.022546874 -0.03751781 -0.058168214 0.0615533 -0.02016095 0.01880887 -0.0148355905 -0.0973512
-0.06816419 -0.05299546 -0.06424243 0.05230968 -0.1000932 0.0026836572 -0.0054626674 -0.06581296
-0.08064968 -0.03377807 -0.08533263 0.016195107 0.006131068 -0.04267293 0.038803674 -0.07953352
0.007365733 -0.07038351 -0.102205984 -0.1340221 0.017827317 -0.12597889 0.07039727 -0.13245654
-0.08079409 -0.0950593 -0.05776629 0.018586049 -0.018770318 -0.004128399 -0.05544325 -0.028137144
0.0255342 -0.11745047 0.04633787 -0.004248297 -0.08018893 -0.032646406 -0.1268388 0.008465776
-0.07359228 0.033465553 -0.019452874 0.028394083 -0.06358424 -0.00986667 -0.12983163 -0.080943845
-0.008166604 -0.09056397 0.028077366 -0.0669482 -0.14245124 -0.003925254 0.062000386 -0.023207413
-0.120759815 -0.08620577 -0.15704215 -0.02770919 -0.099010795 -0.11396987 0.02062137 -0.064064905
-0.070000015 0.010544925 -0.04908239 -0.0292577 -0.12224241 -0.021482928 -0.11942497 0.0129168155
0.030575905 0.0015724219 0.039846368 0.04868337 0.007654798 -0.06824776 -0.0697955 0.035338327

fc2.bias f4 [128]
00000000: 0337 f4bd 2764 2cbe e03e 8abe 4004 12be
00000010: 6e05 b3bd ddf2 493e 2e5a 8abd 8507 5ebe
00000020: 0d9b f43c 5af2 71bd d95c 4fbd 59df 38be
00000030: c707 dabd 94a3 61be 124f a73e 79ba 94be
00000040: 8be1 f6bd 0b27 c0bd becb 9dbd e4af dabd
00000050: 4638 22be 9ee1 29bd 7260 08be 8dd8 1ebe
00000060: aa31 e6bd c133 9b3c 680f 7dbd d2ae 20be
00000070: 51ff 463e 2fff 32bd 5618 523e 9786 debd
00000080: fbbb febd de3d 4cbe bdd1 28be 8e8b 16bd
00000090: e3a0 6bbd 63c3 c7bd c938 c8bd dea7 0a3d
000000a0: bbc0 f63e 4fb3 f2bd af95 b3bd 884e e1bd
000000b0: cbb7 6fbc b27c eb3e 622f 0abe 4fa5 56bd
000000c0: 0343 16be 6d5b 6abd ed64 1fbe ffda 41be
000000d0: 6323 8abd 141b 37be b48e 81bd 42f8 17be
000000e0: 8505 debd 3573 4bbd 2c7c b8bd 773d 5abe
000000f0: 4813 16bd 1efd b9bc 7de5 25be 6d5b 67bd
00000100: a371 63bd b129 09be 7d98 f6bd 8589 07be
00000110: acf1 06be 77f1 033f 0a96 a1bd 368f 0cbe
00000120: 337f eebd 0103 bc3c 7c86 ccbd c52a b3bc
00000130: f131 9bbd 47fc cbbd 3299 2dbd 5b41 0ebe
00000140: f2c2 75be d636 f5bd 6608 06be b885 d8bd
00000150: fc3c af3d 78d4 9cbd 12ea 84bd 6201 9abd
00000160: b74d a4bd ec36 b73e 1805 07be 031d 503d
00000170: ac80 79bd f229 c9bd 19e6 d5bd 86c0 d8bd
00000180: 6832 d6bc 74c6 10be 4b9e d6bd 5e5d ddbd
00000190: 9778 8c3d 0637 9fbd a755 2abe 5ff8 03be
000001a0: 926e 2e3f 53a0 27be 2194 cdbd a529 d0bd
000001b0: 1e4a e23e 59cb 32be 8c17 ddbd 29f8 803e
000001c0: 7eab 133e f11a 04be 622a eabd 4578 f1bd
000001d0: 7d00 a9bd c3a0 cebd 212f f8ba 02f0 a1bd
000001e0: de08 43bd 67c4 f8bd 71ac 8abe dd01 67bd
000001f0: 2b85 d2bd 8cf2 81bd d0bc cabd 47e6 33bd
-0.11924555 -0.1683508 -0.27001095 -0.14259434 -0.0874127 0.19721551 -0.06755482 -0.21682556
0.02985909 -0.059069015 -0.050625656 -0.1805395 -0.10646015 -0.22035056 0.32677513 -0.29048517
-0.12054738 -0.09382447 -0.07704876 -0.1067808 -0.15841779 -0.04147493 -0.13318041 -0.15512295
-0.112399414 0.018945577 -0.06178227 -0.15691689 0.19433333 -0.043700393 0.20517096 -0.10865515
-0.12438198 -0.19945475 -0.16486259 -0.036754183 -0.05752648 -0.09754064 -0.09776456 0.033851497
0.48193917 -0.11850607 -0.08768784 -0.11001307 -0.014631222 0.45993572 -0.13494638 -0.052403744
-0.14674 -0.057216097 -0.15565844 -0.18931197 -0.06745031 -0.17881423 -0.063260466 -0.14840797
-0.108408965 -0.049670417 -0.09008059 -0.2131251 -0.03663948 -0.022703703 -0.16200824 -0.056483675
-0.055528294 -0.1339481 -0.120408036 -0.13236053 -0.13178128 0.5154032 -0.07889946 -0.13726506
-0.11645355 0.022950651 -0.09986588 -0.02187098 -0.07577885 -0.099602275 -0.042382427 -0.13892119
-0.24000147 -0.1197335 -0.13089141 -0.1057238 0.08556554 -0.07657713 -0.06489958 -0.07519795
-0.080226354 0.3578409 -0.13185537 0.050808918 -0.060913727 -0.098224536 -0.10444278 -0.10583596
-0.026147082 -0.14138204 -0.10479411 -0.10808824 0.06858938 -0.07774167 -0.16634236 -0.12887715
0.68137467 -0.16369753 -0.10038019 -0.10164193 0.44197172 -0.17460383 -0.10795507 0.2518933
0.14420888 -0.12900902 -0.11433865 -0.11790518 -0.08252046 -0.100892566 -0.0018934944 -0.07907106
-0.04761588 -0.12146836 -0.27084687 -0.05639826 -0.10279306 -0.0634509 -0.098992944 -0.04392078

fc3.weight f4 [1, 128]
00000000: ded5 f73a d3cf 7c3c c23d 2bbc 98f2 a63c
00000010: eeaf a13b 8089 c23c 75ed 4a3c 5d0b 96bc
00000020: 9cc9 e93b 2efa 16bc 676f ddbb 194a 8ebc
00000030: 4034 50ba 87c0 02bd 321e 293c a699 bd3c
00000040: 3f8f 55ba 2210 003c 674c 85bc d61b 703c
00000050: b51c 95bc d06e 9cbc 14e2 24bc 2dd3 20bb
00000060: c752 643c 08b3 0f3c ccc7 14bc e8fe c2bc
00000070: 3a7f 8a3b 665f 8fbc cd0f f23c 23f1 cabb
00000080: 29e9 09bc 251a 69bc 69ee 23bc 3717 6e3c
00000090: 44c3 cdbc 0bfe 583c d8a0 cbbb 95ab a63c
000000a0: 66c6 2f3c fd1f b63c 2323 283b 1f1c 79bc
000000b0: 1648 05bd 8a92 d33c acc0 70bb 9b68 7ebc
000000c0: ba14 68bc 5250 ab3c a3d5 8d3b 21f0 8b3c
000000d0: 7d5e b83c 7425 01bd 0dc3 353c 68a5 243b
000000e0: a5a6 473b e9d5 aabc 8750 e039 aa55 41bd
000000f0: babf 8ebc b038 873c 4439 96bc e280 36ba
00000100: 4a76 643b 15d3 30bc 32f6 59bc 2bbc deba
00000110: b671 333c 14f0 443c 82ff 183d b0e7 9dbb
00000120: 3a7c 73bc 1301 13bc 0261 aa3c 96f1 d43c
00000130: ba17 28bc db5e b53c 88ca d7bc 8f5f b0ba
00000140: c221 fcbc a4c2 bd3b fe1b c9ba 8b83 833c
00000150: 3486 293d 5095 92bc 9487 4ebc fe3f 133b
00000160: 540c 2f3c 9002 30bc 6766 123b 0843 943b
00000170: 8d03 cc3c 710a 8cbc cfa6 9ebc 6ac5 9dbc
00000180: c00f 013c b40f 17bd ca95 66bc 3c71 223c
00000190: a0cd 5a3c 3f05 63bb 3486 0cbd 6631 7ebc
000001a0: 49d1 503c f7be aa3c 8245 8fbc 6b8b e0bc
000001b0: 68f5 943c 6fc3 8ebc 0cbb c1bc 8518 af3c
000001c0: f86b 7a3c d044 5f39 2005 52bc 73f5 433b
000001d0: 00b1 c7bc 63ad 0fbd 7b01 3bbb f33a 983c
000001e0: 27d9 dcbb a771 b13c 5931 c1bc 8959 9a39
000001f0: c8bd 14bd 230b 153c d0ab 02ba abbb 6abc
0.0018908342 0.0154304085 -0.010451736 0.02037935 0.0049343025 0.023747206 0.012385716 -0.018315965
0.0071346294 -0.009214921 -0.006757665 -0.017369317 -0.0007942356 -0.03192189 0.0103221405 0.023144554
-0.00081466505 0.007816346 -0.016271783 0.014655074 -0.018202165 -0.019095808 -0.010063667 -0.0024539933
0.013935751 0.008770712 -0.009080838 -0.02380319 0.0042265924 -0.017501544 0.02954855 -0.0061932965
-0.008417406 -0.014227425 -0.010005572 0.014531902 -0.025117524 0.013244162 -0.0062142424 0.020345489
0.010728454 0.02223205 0.0025655709 -0.0152044585 -0.03253945 0.025826711 -0.0036735935 -0.01552787
-0.014165098 0.020912323 0.004328446 0.017082276 0.022505993 -0.03152986 0.011093867 0.0025123004
0.0030464318 -0.020853953 0.00042784607 -0.047200836 -0.017425407 0.016506523 -0.018337853 -0.0006961954
0.0034860545 -0.010792513 -0.013303326 -0.0016993334 0.010952404 0.01202013 0.037353046 -0.004818879
-0.014861161 -0.008972424 0.02079821 0.025994103 -0.010259563 0.022139957 -0.026341692 -0.0013456213
-0.030777816 0.0057910252 -0.0015343425 0.016053936 0.04138775 -0.017893463 -0.0126055665 0.0022468562
0.010684092 -0.010742798 0.0022338869 0.0045245923 0.024904037 -0.017094823 -0.01936665 -0.019259173
0.00787729 -0.03688021 -0.014073798 0.0099146925 0.013354689 -0.0034640578 -0.034307674 -0.015514707
0.01274521 0.020843012 -0.017489199 -0.02741023 0.018183425 -0.017427174 -0.023648761 0.021373997
0.015284531 0.00021292572 -0.012818605 0.0029900938 -0.024376392 -0.035077464 -0.0028534818 0.018582797
-0.0067397538 0.021660639 -0.023583101 0.00029439878 -0.036313802 0.0090968935 -0.00049847085 -0.01432697
