checkpoint_actor_1.pth (torch_old, 183806 bytes, 6 tensors)

fc1.weight f4 [256, 48]
00000000: f404 643d 0603 9d3e a818 ae3d ad2f 493e
00000010: fa80 8a3d 60d3 a53e aed8 023c db23 4f3e
00000020: 74d7 c53d 684d b53e 844f 103d 274c 353d
00000030: 0c3e 733d a21a ec3e d382 353c 1fdc d13d
00000040: 7cc4 073e a4fb d73e 0dcc 36bd 9f96 a23e
00000050: a952 333e 2f2a 2b3f 5e84 dfbc d5a6 a33e
00000060: ca83 593e 85f7 85be 81df 0ebd e4f8 343e
00000070: 7f05 5aba 4ef9 b93e 8188 883d b43a 353e
00000080: 3fe9 9d3e fcb3 5ebe 1113 073e c806 6a3e
00000090: 06e2 e8bd ae7f 0a3f d9d2 0b3e 04b4 593e
000000a0: 9aea 7a3e 9144 c7bd 4cc4 383d 9a2b 443f
000000b0: 8a1e 8cbd 87b5 463f 7f17 9d3d 88e6 423f
000000c0: 7969 61be 9f38 453e 6195 68bd 621d a5be
000000d0: 8c8e 4abe 7e34 ebbd 79ff 17be 324a b8be
000000e0: 9799 abbd cf39 eb3d 00d8 9ebd 2329 95be
000000f0: e9b9 7dbe 6c45 c2bd ecbe e2bd c1bd a4be
00000100: efe6 dbbd c84e 8dbc 20c2 d03b 7e83 fcbe
00000110: 9d64 23be bdf2 3ebe efa4 8cbd 4137 02bf
00000120: 8924 143e 81a8 073f adac a6be 8312 ab3d
00000130: efb7 f73d 97dc 34be b806 67be 3e82 093e
00000140: e773 c93d eb87 083f 7e94 e73c 884d 8e3e
00000150: 8e6b 403e dcbb a9bd fb9d 353b b5a9 503e
00000160: a3db 0e3e 2689 123f bae1 5bbd dd55 3b3d
00000170: 83b6 4c3e 7393 1abe ba2a 7f3d a44c 99bc
00000180: 0479 a23d 8ee5 91bf 88d6 883d f052 e6bd
00000190: 993a c0bd f148 80be fdbd ea3b bd26 23bd
000001a0: 0920 d3bb 852b 8cbf 4ce6 dbbc 2d5d bb3e
000001b0: bcee 1cbd 94a4 c0be 6646 8dbd 335e aa3e
000001c0: 0b82 a7bd 5ebd 7abf efd3 2c3d 9c1b 043f
000001d0: 3ab1 a3bd 320b d2be 8908 12bc 4b9c 083f
000001e0: c34d dcbd ac41 e3be d671 e3bd d433 713e
000001f0: 1541 443d 6b9a 64be 0c36 b5bd 7264 2a3e
00000200: e1fc d4bd a06a 81be 1492 5dbc 8201 d03e
00000210: 2d8e 16bc ee97 a7be e058 4dbc 6830 d83e
00000220: 6383 73bd 1c9c 07be 7fa5 c73d 5ed7 903e
00000230: 753b 5a3b b0c4 efbe 47eb 583d ee2d b93e
00000240: 0f50 503d ed0e 73bf f730 423c 7e47 ef3e
00000250: bf3a 56be ab55 12be f55a aa3d 60db e23e
00000260: 948a 263e cc11 6bbf 36bc 83bc aeea 403f
00000270: c3ec c7bd 3f15 14be 35cd b6bd 68ff 413f
00000280: fecf 1b3d 5534 38bf 980c f53c edc7 5c3f
00000290: 6cae 19bd 8204 5bbd 1a05 3ebd c994 473f
000002a0: 56e6 273c ba2d acbe bc05 0c3d 84ad f03b
000002b0: f9b3 183e cdeb ecbd 2192 cd3c a4b6 4b3d
000002c0: 6bb1 9abc d516 8bbe 059b 3cbe 2de8 083e
000002d0: 94ae 0e3e d152 4bbe 21fc 44be c663 273e
000002e0: 95ab 43bd a045 adbe 2ed9 743e 6c2a b7bd
000002f0: 9583 a13c 46ac 85bd ec35 553e dbdb 02be
00000300: e6fd 2ebe 0e4f 313f 588b 183d df30 843e
00000310: eb03 d03d e2c1 86be 8b3b e03d 0f0f a93e
00000320: 6130 ecbd fb32 3e3f 4904 49bd b3f5 883d
00000330: b69d 413e 243a cdbe 9681 0fbe c744 ac3d
00000340: 0f69 cebd eb82 3c3f de8f 113d d671 b6bd
00000350: 3a7b f13d 20a8 11bf 9440 213d ed63 00be
00000360: 0939 3bbd db9d 553e 308d c0bd c91b 2a3d
00000370: 8f57 c7bd 5a3c 90be 14c2 e0bd e7e6 43bd
00000380: 8441 85bd 14d1 f53d 9e33 8a3d d513 88be
00000390: 5c9e 0cbe 3ac9 c1be 838c 143d ee27 a2be
000003a0: c38d 81bd 80f0 e93d ccb2 debd b0e4 01bf
000003b0: ca6d 7ebd d60a 11bf 11d2 56bd 2bb2 10bf
000003c0: f9fa 593a 6305 c2bd 3038 093e 3075 143e
000003d0: c3a0 6e3c e69c 48be f5a5 3f3e 3858 cd3d
000003e0: ea18 22be 5c47 98bd 2d95 dfbd 815d 6cbb
000003f0: 186a 31bd 0354 9dbe 1ede e1bd fe65 b2bd
0.055668786 0.3066637 0.085007966 0.19647093 0.067628816 0.3238783 0.007986231 0.20228522
0.09660235 0.3541062 0.035232082 0.044262078 0.059385344 0.4611407 0.011078554 0.10247063
0.13258547 0.42184174 -0.04462819 0.3175554 0.17512001 0.6686124 -0.027284797 0.3196322
0.2124168 -0.26165405 -0.03488112 0.17673069 -0.0008316859 0.36323017 0.06666661 0.17698175
0.30842015 -0.21748346 0.13190867 0.2285415 -0.113712355 0.54101074 0.13654651 0.21260077
0.24503556 -0.09729875 0.04510908 0.7662903 -0.06841762 0.7762074 0.07670497 0.7613301
-0.22012891 0.1925988 -0.056783084 -0.3224898 -0.1978094 -0.114846215 -0.14843549 -0.35994107
-0.08378904 0.114856355 -0.077560425 -0.29132947 -0.2477795 -0.094858974 -0.11071572 -0.3217602
-0.107374065 -0.01724948 0.0063707978 -0.4931907 -0.1595635 -0.18647285 -0.06867396 -0.5086556
0.14467062 0.5299149 -0.32553616 0.0835314 0.120956294 -0.17662273 -0.22561157 0.1342859
0.0983656 0.53332394 0.028269049 0.27793527 0.18791029 -0.082877845 0.0027712572 0.20377238
0.13950972 0.5724052 -0.053682067 0.045736182 0.19991498 -0.1509531 0.062296607 -0.018713303
0.07933238 -1.139818 0.066815436 -0.11246288 -0.093861766 -0.2505565 0.0071637616 -0.039831866
-0.006443028 -1.0950781 -0.026843213 0.36594525 -0.038313612 -0.37625563 -0.06898193 0.33274993
-0.081791006 -0.979452 0.042194303 0.5160463 -0.07992788 -0.41024166 -0.008913168 0.53363484
-0.10757019 -0.4438604 -0.11105697 0.23554927 0.04791363 -0.22324531 -0.08848199 0.1663988
-0.10399795 -0.2527666 -0.013523597 0.4062615 -0.009189171 -0.327331 -0.0125333965 0.4222443
-0.059451472 -0.13243145 0.09748363 0.28289312 0.00332996 -0.46829748 0.052958753 0.36167854
0.0508576 -0.9494465 0.011852494 0.46734232 -0.20920847 -0.14290492 0.0831813 0.44307995
0.16263801 -0.9182403 -0.016080957 0.7535809 -0.097619556 -0.1446123 -0.08925859 0.75780344
0.038040154 -0.7195485 0.029913232 0.8624256 -0.037519857 -0.053471096 -0.046391584 0.77961403
0.010247787 -0.33628637 0.034185156 0.0073449034 0.14912404 -0.11568413 0.025094094 0.049734727
-0.018883428 -0.27165857 -0.1841851 0.13369818 0.13933784 -0.1985581 -0.19236805 0.16346654
-0.047771055 -0.33842182 0.23910972 -0.08943638 0.019716064 -0.06526999 0.20821351 -0.1277918
-0.17089042 0.6926125 0.037242264 0.25818536 0.10156997 -0.26319796 0.10948857 0.330193
-0.11532665 0.7429654 -0.049076352 0.066874884 0.18907818 -0.4008342 -0.14014277 0.08411556
-0.10078632 0.73637265 0.035537593 -0.08908431 0.11791082 -0.56897163 0.039368227 -0.12538119
-0.04570869 0.20860998 -0.094019294 0.041530404 -0.09733497 -0.28171045 -0.109745175 -0.047827628
-0.06506637 0.12002769 0.067481264 -0.2657763 -0.13732284 -0.37848836 0.036266815 -0.3167109
-0.06325867 0.11422825 -0.108739465 -0.50739574 -0.06211642 -0.5665716 -0.05244643 -0.5652186
0.0008315291 -0.09473684 0.1340034 0.14497828 0.014564696 -0.19591102 0.18715651 0.10026592
-0.15829816 -0.07435486 -0.10917125 -0.0036066475 -0.04331407 -0.30728158 -0.110286936 -0.0871086

fc1.bias f4 [256]
00000000: 320f bebd 5ddc c8bd 32b1 a73c cd22 643d
00000010: 6277 683c c1ff 3f3d c589 e13c 46a8 20be
00000020: 7356 f5bd 5f92 4d3d 14ab 053a 34d9 b53d
00000030: 8556 6bbc 1011 39be 81b5 e6bb 106d 063e
00000040: aa64 c4bd dd3d bd3c e468 973d 8033 ebbd
00000050: cc03 7abd 0937 803e f9a2 03be a5c6 1abe
00000060: 88d9 1a3d abde 95be d87c 52be b894 6cbc
00000070: b1e5 76bd 5725 65bd a4d9 733e 9c59 19be
00000080: d387 18be 9466 c7bd 1cbc 93bd ab0e fa3c
00000090: ebaa 113d 0652 b6bd f4c8 bdbc d8b3 c53c
000000a0: 3e87 4bbe c4d6 a63d c1e7 9f3c 3c60 2c3c
000000b0: d320 51bd 2cd8 7ebe e4c1 e2bd 5aab d2bd
000000c0: 64b4 f53c 895f 393e 9be5 6fbd b926 1bbd
000000d0: f717 b0bd 4b1f 373e 4146 533e c4bf 573d
000000e0: e3dc c13d edf6 4abe f394 a1bd 33be 97bd
000000f0: 6529 a23d c0e9 85be 3b67 2b3e 1a22 d5bd
00000100: c3eb 943c 8c0e 79be 46a7 49be f092 3bbe
00000110: 2577 2c3d 32f0 01be b1b8 64be 78ef d5bd
00000120: ec26 a3be 92cc 32bc 72d8 a13c e5a1 19be
00000130: f860 2e3e e508 e63b 8ca9 5bbc e632 993d
00000140: 35ba b4bd 42ef a8bd 4de7 0cbd 0df0 cfbd
00000150: c1af 623e 3048 ba3b 5a7d 533e da8b 9cbd
00000160: 3c6d d03d cb74 dd3c 2aff 1ebe dfe3 3ebe
00000170: b0b2 43be edfd debd 2a23 ea3d ea86 29be
00000180: 0e2f 27be 18f2 14be 0322 853d 10d0 3dbd
00000190: ed4d 38bc 2e3f 4dbd 6935 adbe 6aca 73be
000001a0: ca13 57be cca4 45be b8e1 15be 27df e4bd
000001b0: 8dcc 04be 4353 083d 2da2 c13d 11d7 173c
000001c0: d197 aebd bad9 153e ff2b 28bc 5aae 4f3d
000001d0: 7a3f 70bc 9cb2 45be 265b e7bc b81b aaba
000001e0: 6935 d3bd 559b 2fbe 5e5c 023e 9783 a8bd
000001f0: 5bb0 50be 22cc cfbd e978 adbd ce1e aebc
00000200: ec1a 2ebe 9a9f 2dbe 090e d5bd d168 343c
00000210: cb5b 49bd 2b0a 9dbb a44e d7be 03fe 053e
00000220: 54a0 aebe 651b 17be 357f 493d 8380 583e
00000230: 95a4 fb3b 4cfc 62be 96de 0cbe b952 83bd
00000240: 6c60 843d 2ced 3cbe 2b51 81bd 5d28 603e
00000250: 1925 723c 76cd 1fbe 8d86 babe 1a09 d8bd
00000260: 6c4f 44bd 10da f1bc ef04 9f3d 9592 3fbe
00000270: c9f5 98be 813b 1a3e 2d39 d2bd e3ea 19be
00000280: 1e70 8e3d e798 253e c706 b6bd eaac e63d
00000290: 5b59 babc 85aa c93d 1a2f 0abd fa7d 42be
000002a0: f857 a33d 3125 103e 5d06 a53d 6349 bbbd
000002b0: 4393 db3c 2d36 75be 197f a93d df30 f8bd
000002c0: 4470 78be 897e 833d 8b5e 3ebd a8be 91be
000002d0: 380b 063e 38a9 78be 1b61 ea3c 4c00 9e3c
000002e0: c9c4 acbd 2d49 15bd 8943 a23e c433 a03c
000002f0: 8cc2 a3bd e39f 90bc d02d f63d 5d37 7ebe
00000300: 617d 35be dd6b 3e3b 1809 483e c535 48be
00000310: 7ffd b93d adc8 56be e649 4fbe a3b8 27be
00000320: d8a1 a0be 20de 993d 34a5 49be 9f84 c83d
00000330: cdb3 16be 21fd 513e ca69 82be 79ee 9bbe
00000340: f387 543e 517f 303c 9140 23be e546 78be
00000350: 3e78 2abd 5986 22be 5477 143e 1192 5f3e
00000360: 4e15 d3bd 7303 9ebe 1b66 8cbd 9227 9ebe
00000370: 88f6 93bb 9ab2 80bd e710 b83d c7fc b43d
00000380: 1079 74be 4e6e 68bd c9be 83be ab32 7bbe
00000390: 2516 c43c 13a5 3cbe a57e b6bc 2239 313e
000003a0: f889 d03d 9159 8cbe bf5b 2bbe 0250 77bc
000003b0: 0f3f c2bd 04fa e5bd 8c3e 93bd 38c1 74be
000003c0: cce1 5d3e 8812 dcbd 8c97 be3d eef6 b6bc
000003d0: 8940 023e 5f0a 3c3e 1f03 c33d 84fd 04be
000003e0: 50bc 773d deef cf3c a3b5 91bd d794 dc3d
000003f0: fc78 96bd 9cbd f63d d03c 233d f9ee 35be
-0.09280242 -0.09807656 0.020470235 0.05569725 0.014188619 0.046874765 0.027531514 -0.15689191
-0.119793795 0.05018842 0.000509904 0.08879319 -0.01436389 -0.18072915 -0.00704068 0.13127542
-0.09589513 0.023100788 0.07393053 -0.11484432 -0.061038777 0.25041988 -0.12855138 -0.1511484
0.03780511 -0.29271445 -0.20555437 -0.014439754 -0.060277645 -0.055943813 0.23813492 -0.1497559
-0.14895563 -0.09736362 -0.072136134 0.030524572 0.03556339 -0.089023635 -0.023167111 0.024133608
-0.1987581 0.08146432 0.019519689 0.010520991 -0.051056694 -0.2488715 -0.11072138 -0.10286589
0.029993244 0.1810285 -0.05856858 -0.037878726 -0.08598321 0.17883031 0.20632268 0.052673116
0.09465959 -0.19820757 -0.07889738 -0.074093245 0.07918052 -0.261549 0.16738598 -0.10406895
0.018178826 -0.24321955 -0.19692716 -0.18317771 0.042105813 -0.12689283 -0.22336079 -0.10446066
-0.31865633 -0.010913031 0.01975653 -0.15003164 0.17029178 0.0070201033 -0.013407122 0.07480411
-0.08824579 -0.0824876 -0.034400273 -0.10153208 0.22137357 0.005684875 0.20653287 -0.07643862
0.10177085 0.02703323 -0.15527025 -0.18641613 -0.19111133 -0.10888276 0.11432488 -0.16555372
-0.16326544 -0.14545476 0.06500628 -0.046341002 -0.011249048 -0.05010908 -0.3382981 -0.23807684
-0.21003643 -0.19301146 -0.14636886 -0.111753754 -0.12968655 0.03328253 0.09454761 0.009267584
-0.085250504 0.14633837 -0.010264396 0.050703384 -0.0146635715 -0.19306415 -0.028241705 -0.0012978232
-0.103129216 -0.17149098 0.12730548 -0.08228224 -0.20379774 -0.10146357 -0.084703274 -0.021254923
-0.17002457 -0.16955414 -0.104030676 0.011011318 -0.049159806 -0.004792472 -0.42052186 0.13085179
-0.34106696 -0.14756544 0.04919358 0.21142773 0.007679532 -0.22166556 -0.13756785 -0.064122625
0.064637035 -0.18449849 -0.0631431 0.21890397 0.014779353 -0.15605721 -0.3643078 -0.10548611
-0.047927305 -0.029522926 0.07764613 -0.1870826 -0.2987502 0.15061761 -0.10264812 -0.15031008
0.069549784 0.16171609 -0.088880114 0.112634495 -0.022747686 0.09846977 -0.033736326 -0.18993369
0.07975763 0.14076687 0.08057854 -0.09144857 0.026803618 -0.23946448 0.08276195 -0.121186964
-0.24261576 0.06420619 -0.046476882 -0.28465772 0.13090217 -0.24283302 0.028610757 0.019287251
-0.08435971 -0.03644674 0.3169215 0.019555934 -0.07996091 -0.017654365 0.12020457 -0.24825807
-0.1772361 0.002905599 0.19534719 -0.19551761 0.09081554 -0.20974989 -0.20243034 -0.16379027
-0.31373477 0.0751307 -0.19691926 0.097909205 -0.14717026 0.20506717 -0.25471336 -0.30455378
0.20754986 0.010772542 -0.15942599 -0.24245794 -0.041618578 -0.15871562 0.14498645 0.21833064
-0.10306798 -0.30862007 -0.068554126 -0.30889565 -0.004515473 -0.062840655 0.08987599 0.08837276
-0.23874307 -0.05674582 -0.25731495 -0.24531047 0.02393634 -0.18422346 -0.022277186 0.1730695
0.101825655 -0.27412084 -0.16734217 -0.015094759 -0.09484684 -0.11229327 -0.07189664 -0.23901832
0.21668166 -0.10745722 0.09306249 -0.022334542 0.1271993 0.18363331 0.0952208 -0.12987334
0.060482323 0.025382932 -0.071147226 0.107705764 -0.07347295 0.12047884 0.039852917 -0.17766942

fc2.weight f4 [128, 256]
00000000: 9db4 2bbd 533c 71be f402 cabd cc19 21bd
00000010: 27e8 443e 53f4 483e e630 1e3e 2ddf ddbd
00000020: a020 b2be 14f4 fb3c 3a95 a53d 3af2 663e
00000030: 7203 543d 1b6b 7cbd d736 653e df26 7a3c
00000040: 2a68 00be 6ef4 57bb 894a 163e baab 0dbd
00000050: 948b dc3c 7fea b63e d166 23be 45cc af3c
00000060: 88ac 8fbd d25e cc3d 398c 70be a353 afbc
00000070: 2d2a aa3e 016e e6bd 3fd9 983e 6cb9 54be
00000080: 35e0 69bd fd95 113e 3140 be3d 122e 043f
00000090: f266 5d3d 10c3 85bd 8a56 c0be 2a4c 09bd
000000a0: cd6d bcbe 4c98 fc3e 4d7c 43be e7d1 b5be
000000b0: a691 5dbe 2705 96bd efb3 04bf 78d2 eabd
000000c0: 8d76 c3be e288 f63e 1b1c 4abd 97f2 98be
000000d0: 974d f5bc 4e70 d9bd bcb0 933e fac2 e4be
000000e0: 923a 28be e336 a0be 6652 78be 379a 9dbd
000000f0: 8ca3 62be 85d1 db3c 8766 cabd 4061 24be
00000100: 23de 183e 7fbf b9bd 851f 13bf d562 32be
00000110: 8610 e43d e2b5 81be 7f72 0cbd 10bf 50be
00000120: 5af4 0dbf 3d14 1cbf 68bb bebe 63e4 a53b
00000130: 6e9d 9a3e 71d5 1b3e fbfc 723e fefa babe
00000140: 58e3 cbbd cb97 663e 4033 28bd e076 603d
00000150: 2583 1dbe dc71 a83d 83b1 cf3e 3d0b 23be
00000160: 0318 b1be f2f4 8bbe 0d22 9a3d 923f 8fbd
00000170: 3e1d 2d3e ff38 1d3c a595 fe3e b2ab 8ebe
00000180: 685f 033e cb1e 66be c0e7 993e a858 023e
00000190: 589f 543e 7446 e7bd 75bc 0ebe 9227 2d3d
000001a0: 6d9a a83e 78ce d3be 0c69 9abe e05f 79be
000001b0: 90f4 be3d ddf5 c63e 6c64 f63e 89e6 fabd
000001c0: eefa a3be 506e 543e 4e31 2a3e a1ad 393d
000001d0: 78ba d73c 2d11 063e b077 293e b938 19be
000001e0: 1600 d3bd 2c39 dfbc aaa6 553e 1c86 b33d
000001f0: ecd6 81bd 8746 01bf 76f9 35be bf82 8ebe
00000200: 25e9 903d 6fe7 14be 3361 3ebe 970b 01bf
00000210: d26b 68be e3b5 3ebd 4005 4fbe 6353 853d
00000220: fe3d e2bd 38e1 d03d 1673 23be e232 9a3e
00000230: afab c4bd 47e5 bcbe 9bef c2bd 94e7 0fbf
00000240: c34c 65be 2a0c 37be 4317 79be 2027 a53e
00000250: 8cd3 83be 5e7e 2bbf d38f d9bd d1b5 f93d
00000260: 44a8 9abd 4621 88be 8eb0 f23e 57d4 51be
00000270: fd1e 933e 5c30 6cbe 205b e63d 4aae 6abe
00000280: 632c b53d d214 dbbb c35a 463e f10e 733e
00000290: 9e22 993e b091 213e ca4f 28be 3fc9 40be
000002a0: 22dd 3fbc 44e3 9d3e c32f ecbe e5a4 653e
000002b0: c4ec 4a3e e2cf 563e 8933 2a3e 1f0e f33d
000002c0: 3385 c93d 52ed 3d3d e4ba 77be cb63 0fbe
000002d0: d498 453e 07d3 acbb bb9a e03d 57e5 68be
000002e0: 2394 93be d30b 14bf a492 af3e 7528 21be
000002f0: cc2e dfbd dfbd 99bd 20ff e23d 84da 0fbe
00000300: cb5f a6bd ab12 8d3d 1e5b 173e f190 eabe
00000310: 99d5 3c3e bed5 dcbd 258b 20be 2dcc 54be
00000320: 7108 e0bb b94f 203c 6dad 47be 9143 063e
00000330: 0e99 6dbe a545 923e 3e9c 64be 02d7 603d
00000340: 841b af3e 28bf e53d bf71 98be 9733 e63c
00000350: 7388 87be a185 343e e17b 92be 6811 2c3f
00000360: d0b6 343e a930 84be 0c7a 3abd bc44 6dbe
00000370: 8da5 623e 2f9d dbbd 01a7 033e 3db8 1f3e
00000380: b596 39be a260 453d 977a 88be 8270 6fbe
00000390: feaf 073e e0ee 47be c0e2 a73e 5cf7 573e
000003a0: 9deb 71be 3b8d 673c e54e 2fbe 3709 82be
000003b0: 0061 5cbe b409 93bd 6fcf 13be f1d5 91be
000003c0: 3990 3a3e 7abb debe ad3e 30bf 4214 0f3e
000003d0: 5737 1cbe 8497 a53e 7742 333e 99ab 213e
000003e0: 23a2 ccbd 395c 3b3e fa2d eebd 6c2a 153e
000003f0: c955 49be 6a6b c83e bf12 1b3c 1e22 233e
-0.041920293 -0.23558168 -0.098638445 -0.039331242 0.19229184 0.19624452 0.15448341 -0.10833583
-0.34790516 0.030756034 0.08085103 0.2255334 0.0517611 -0.06162558 0.22384201 0.015268057
-0.12539735 -0.0032952088 0.1467687 -0.0345876 0.026922025 0.3572578 -0.1595719 0.021459708
-0.070153296 0.09979023 -0.2349099 -0.021402186 0.33235303 -0.1125145 0.29853246 -0.20773858
-0.057098586 0.14217372 0.09289587 0.516328 0.054053254 -0.06531346 -0.37566024 -0.0335199
-0.3680252 0.49334943 -0.19090386 -0.35511705 -0.21637592 -0.073252015 -0.51837057 -0.11465925
-0.38176385 0.48151308 -0.04934321 -0.2987258 -0.029944224 -0.106171235 0.28845775 -0.44680005
-0.16428593 -0.31291875 -0.24250183 -0.0769543 -0.221327 0.026833305 -0.09882837 -0.16052723
0.14928488 -0.09069728 -0.5746997 -0.17420514 0.11135964 -0.25334078 -0.03428888 -0.20385385
-0.55450976 -0.6096838 -0.37252355 0.005062626 0.30198234 0.1521814 0.23729317 -0.36519617
-0.09955472 0.22518842 -0.0410645 0.054800868 -0.15382059 0.08224842 0.40565118 -0.15922256
-0.34588632 -0.27335316 0.07526026 -0.06994547 0.16905686 0.009596108 0.49723545 -0.27865368
0.12829363 -0.22472684 0.30059624 0.12729132 0.2076391 -0.11292735 -0.13939078 0.042274065
0.32930318 -0.4136846 -0.3015827 -0.2435298 0.0932399 0.38859454 0.4812349 -0.12251002
-0.32027382 0.20745206 0.16620371 0.0453316 0.026334032 0.1309249 0.16549563 -0.14963044
-0.10302751 -0.027248941 0.20864359 0.08765814 -0.06339821 -0.5049824 -0.17770943 -0.27834126
0.07075719 -0.1454141 -0.18591766 -0.5040831 -0.2269738 -0.04656018 -0.20216846 0.065100454
-0.1104698 0.10199207 -0.1596187 0.30116946 -0.096030585 -0.36893675 -0.09518357 -0.56212735
-0.22392564 -0.17875734 -0.2432528 0.32256413 -0.25747335 -0.66989696 -0.106231354 0.12192882
-0.07551625 -0.26587886 0.47400326 -0.20491157 0.2873458 -0.23065323 0.112478495 -0.22918049
0.08846357 -0.0066858316 0.1937056 0.23736168 0.29909223 0.15778232 -0.16436687 -0.1882677
-0.011710437 0.30837452 -0.4613019 0.22426184 0.19816881 0.20977738 0.16621222 0.11867928
0.09839859 0.046368904 -0.24192387 -0.14002912 0.1929658 -0.00527418 0.109670125 -0.22743736
-0.28823957 -0.5783054 0.34291565 -0.1573809 -0.10897598 -0.07506918 0.110838175 -0.14048201
-0.0812374 0.06888326 0.14780852 -0.45813707 0.18440856 -0.107829556 -0.1567808 -0.20781012
-0.006836944 0.009784632 -0.1949975 0.13111712 -0.23202917 0.2856876 -0.22325227 0.054892547
0.3420068 0.11218101 -0.2977428 0.028100772 -0.2647129 0.176291 -0.28610137 0.6721406
0.17647862 -0.25818375 -0.04552655 -0.23170751 0.22133465 -0.1072334 0.12856676 0.15597625
-0.18123896 0.04818786 -0.2665603 -0.23382762 0.1325073 -0.19524717 0.32790184 0.21090454
-0.23625036 0.014132793 -0.1711994 -0.25397655 -0.21521378 -0.07179585 -0.14434598 -0.28483537
0.18219079 -0.43502408 -0.68845636 0.13972571 -0.15255485 0.3234216 0.17505823 0.15788116
-0.099918626 0.18296899 -0.11629863 0.14566964 -0.1966163 0.3914445 0.009464919 0.15930983

fc2.bias f4 [128]
00000000: d9f9 dc3d 206a 2bbd 54cd 53be 1283 21be
00000010: 3919 e4bd 8fb4 eabd 9dfa 8abe 0030 283e
00000020: f0ef ebbd 62c1 193e f9e7 9ebd 4e56 00be
00000030: c150 95bd 5a7b 36bc 4806 edbd 0625 6bbd
00000040: c607 03be 6025 84be ea47 8f3c e6d3 9dbd
00000050: 4ced fbbd 9560 cebd 4f07 183c d730 4bbc
00000060: 537e e3bd a845 30bd 0f02 4ebe 8c52 e4bd
00000070: 8c94 bebd 4338 9bbe 1060 67bd d6c2 70be
00000080: c722 f2bd 223c e4bd bf75 53be 8e28 0cbe
00000090: f551 473b 7d8c 343d 42d7 debd e041 793c
000000a0: 5f65 6cbe 89d2 bcbd 45ab 38bd 2c4b cd3d
000000b0: 67df ddbd cd24 06be cbc9 a9bd 4219 d3bd
000000c0: 62c3 7fbd a1d2 bdbd 7e2c 25bd b139 e63d
000000d0: e199 d9bc cba5 9fbe 8499 70bd b9be e83c
000000e0: 19bb 54be ee21 81bd d8c9 ef3d d590 8cbd
000000f0: 8679 8abd ecf0 6fbd 3c2b 7a3c b2f8 e1bc
00000100: 93c5 1fbe 70e8 e8bd 2134 c23d ad90 743e
00000110: 7f59 8dbd 3caa fd3d 2474 d3bc 2e56 0fbe
00000120: 2a7c fabd aa2e cabd bdb3 efbd 9377 a7bd
00000130: 19cc 6c3d ddd5 b4bc d6ff b03d 72c3 fb3d
00000140: afb6 88bd 645c 79bd 3631 4cbd f4ae aabd
00000150: c397 85be d84a 46be 467f fe3c 8b61 c5bd
00000160: e200 28be 5172 48bd 7597 c93d c3ba 203c
00000170: 189c 28be 1f51 13bc 088f 36be 6dda fcbd
00000180: 6686 0fbe c2a1 b2bd 6fba 23be 6213 613b
00000190: fa9a dabd 94ac 03be 32c2 f8bc 077d c9bd
000001a0: 4538 38be d3ab bebb 9b8e 25be 02b4 ccbd
000001b0: 8aa5 6abe d127 2cbd fc60 1a3e 5268 70bd
000001c0: 9df9 e6bd e841 02be 390e 2dbe 2f06 aabd
000001d0: 5dd5 07be cb86 a73d 57b0 01be a4fa 23bd
000001e0: 7bf1 7a3c 1b28 84be 00b6 4bbe 7745 813b
000001f0: c862 5bbe d0c9 40bd 2abc a6bd c165 423e
0.10789842 -0.041849256 -0.20683795 -0.15772656 -0.11137623 -0.1146022 -0.27144328 0.1642456
-0.11520374 0.15015176 -0.07759089 -0.12532923 -0.07290793 -0.011137808 -0.11573464 -0.057408355
-0.12795934 -0.25809765 0.017490346 -0.07706432 -0.1230112 -0.10077015 0.009279086 -0.012401781
-0.11108079 -0.04303518 -0.20117973 -0.11148557 -0.09305677 -0.30316362 -0.056488097 -0.23511824
-0.118230395 -0.11144282 -0.20650385 -0.13687345 0.003041384 0.044079293 -0.10880901 0.01521346
-0.23085545 -0.09219844 -0.04508521 0.100241035 -0.10833626 -0.13099976 -0.08290442 -0.10307552
-0.06244219 -0.0926869 -0.040325634 0.112414725 -0.026562633 -0.31181177 -0.058740154 0.028411256
-0.20774497 -0.063053 0.117084205 -0.06863562 -0.0676146 -0.05857937 0.015269097 -0.027584407
-0.15602712 -0.11372459 0.09482599 0.23883314 -0.06901836 0.12385985 -0.025812216 -0.13997719
-0.12230714 -0.09872182 -0.11704204 -0.08177104 0.05781183 -0.022074634 0.08642547 0.122931376
-0.06675469 -0.060879126 -0.04985162 -0.08334151 -0.26092348 -0.19364488 0.031066548 -0.096377455
-0.16406587 -0.048937146 0.09843341 0.009810152 -0.16465795 -0.008991509 -0.17828 -0.12346349
-0.14016113 -0.08722259 -0.15989088 0.0034343828 -0.10674091 -0.12858802 -0.030366037 -0.098383
-0.17990215 -0.005818823 -0.16167681 -0.09995271 -0.2291471 -0.04203016 0.15076059 -0.058693238
-0.11278079 -0.12720454 -0.16899957 -0.08301961 -0.13264985 0.081800066 -0.12664925 -0.04003395
0.0153163625 -0.25811848 -0.19893646 0.0039450484 -0.21424401 -0.047067463 -0.08141358 0.18984129

fc3.weight f4 [2, 128]
00000000: d538 033f 4567 abbc 3f54 123d 6c83 533c
00000010: 3e12 cdbd 7921 413e 7d2c 0cbd 0903 883e
00000020: 42bc 333e e027 39be c508 2c3b 073b 42bb
00000030: 1a68 bfbc 789a a7bc a0e0 2c3d 60e3 123e
00000040: 6c28 363c b81e cfbd bf00 37be 2536 abbd
00000050: f10d acbc da31 6f3d e09d b13e 0318 80bc
00000060: 0aa7 e23c 6af4 143b 3e45 b4be 0f3d 383d
00000070: c94a 33bc 6eb3 87bd ff7a 91bc f944 5abd
00000080: 2b0f b6bb 35bc a6bc 1d0d 4cbb d900 993e
00000090: 4410 c53c 88b8 bbbd 22dc b1bc f3e4 7fbd
000000a0: 1c72 80bd a2dd be3b 9f9d e53b 655f d83e
000000b0: 8ab2 1cbc 25e6 9b3c a47e ab3b 8ade 63bc
000000c0: abb9 68be 0c08 cb3a d1fa 95bb 85fa ef3d
000000d0: 29ad 2b3e 06b1 cabd fd2d 023d 0949 793e
000000e0: 8cfd 11be b292 2fbb 1010 143f fe2d 7e3b
000000f0: 1ba9 c23e 5b5a 9b3d fd9e c13d 9cd4 f53b
00000100: 6866 8bbe 930e a73d 6c74 9c3e 4ce8 c6be
00000110: 9e17 ad3b 199b d4be a958 3d3d 5ee6 7d3d
00000120: 175f ac3c 064d e53b 6419 2d3c 7c06 a83e
00000130: 193a 7c3e 749e ce3c 8bb2 da3e f934 a53e
00000140: b6a8 5ebb 575b dcbc 9419 cdbc 8ed0 29bc
00000150: 18b5 b13e 9e52 84bd 24c8 8d3e d219 ecbd
00000160: 2be3 0fbe 3f4e 6a3c beec 453d fbf5 35be
00000170: 5afa 85bc f3ea 64be 0bca 1ebd 7934 ab3d
00000180: 3a0d 6fbc bc9d 463b 352b 08be 4494 243e
00000190: 7f88 d23e b65b ee3d aede 2ebe 25a2 ed3d
000001a0: cb81 00bd a3eb d43c a345 4cbd bf6a 173d
000001b0: d208 19bd 9e51 82bc 126b 1c3f 439e d0bc
000001c0: 0ec8 70bc fcc7 c2bc e4a7 273c 27f6 a4ba
000001d0: 9472 3e3d bc4c 1a3e 3c64 9f3b 1297 773d
000001e0: 6aaa 07bd 3c84 51be 5989 49bc d627 0c3b
000001f0: c612 8bbd edeb 4e3c f834 55bd 3d2c b1be
00000200: 3979 dc3c f315 e9bc 7f1f 79be ea8b a13c
00000210: 9029 a5be aaff cabd 8b35 ccbe 2e4e 7a3e
00000220: b509 5abc 8c17 0fb9 fcb5 d7be a95c 1a3d
00000230: d478 803e 57fe 15bc 31d1 6cbd be7b a0be
00000240: c818 d73b 4faf 9fbe e843 73bc cff2 18be
00000250: c225 cd3e 2958 b23e 2e7e 1c3d 8db1 4bbc
00000260: 042e bbbc 3bdc 883c 2f05 0bbe 182e 8dbd
00000270: 4bd6 a3be 0cc1 cdbd 06d5 0b3c 2a27 3fbe
00000280: f28e 80bc f4ca 3fbe fe85 05bc 3b3d 0bbd
00000290: 6bdc d23c a142 42be f147 e13b 2e45 a63e
000002a0: 1db0 42bd c41d 4eba c27c af3c 53ec 8a3d
000002b0: b99f 0cbb 76d6 b3be 4636 83bb b0b5 19bc
000002c0: f826 913d 535c df3c c2d9 bbbb e933 9e3e
000002d0: 60c4 223e 044b 4a3e bf19 4f3e 14e7 b83d
000002e0: f3ad c93e c3cf 983c b074 923d 72eb 0fbc
000002f0: 5358 cabc 0f1c 46be 3cac f23d 2f61 abbb
00000300: e3db 25be c522 ddbd 0381 c33d c9a9 033e
00000310: ecfa b6bb 81e7 5c3c 8fa2 5c3e 8d47 87bc
00000320: fa25 a33d c697 2b3d 1dfd 463c 0a80 7dbd
00000330: 5f55 673e 6013 923c a838 823d ba33 fc3d
00000340: e12c 233c c4ac 8cbb 1c74 6fbb fabd 9e3c
00000350: afa2 72be b852 97be d9e0 413d 6673 143e
00000360: 873c 51be 2dfd 363a e2da 8e3e 9227 9ebd
00000370: 5cad e33b 7591 033e fa5a bebe 848b 9ebc
00000380: b6b8 12bd b8ea b63a e2cf 803e 73e9 a7be
00000390: e8bb 15bd d27b 08be 53c6 a2be 3d62 bebe
000003a0: c433 8dbe d428 873c c927 41bb 787b 85bb
000003b0: cd86 06bd 8070 fbbb fabf e43d 5ea0 a43b
000003c0: dd22 bd3c 6c34 10be 42f7 58bb 44e0 673c
000003d0: a3e8 0bbd a8a8 733c 0722 52bb 4638 a73c
000003e0: d0ab 713d 2555 2fbd ee15 393d e750 1fbd
000003f0: 5a20 24be 79a7 9f3c 6cc1 d9be defd 9b3c
0.51258594 -0.020923266 0.035724875 0.012909751 -0.10013245 0.18860425 -0.034222115 0.26564816
0.17552283 -0.18081617 0.0026250344 -0.0029637234 -0.02336507 -0.020459399 0.042206407 0.14344549
0.011118036 -0.10113281 -0.17871378 -0.083599366 -0.021002742 0.05839715 0.34690762 -0.01563645
0.027667541 0.002272869 -0.35209078 0.044980105 -0.010943123 -0.0662602 -0.017758844 -0.053288434
-0.0055560074 -0.020353416 -0.0031135746 0.2988346 0.024055608 -0.09166056 -0.021711413 -0.062474202
-0.06271765 0.0058247605 0.0070073153 0.4226028 -0.009564051 0.01903064 0.0052336026 -0.013908038
-0.22727077 0.0015490069 -0.004577019 0.11717705 0.16765274 -0.09897046 0.03178214 0.24344267
-0.14256877 -0.0026790318 0.5783701 0.0038784738 0.38019642 0.07585593 0.09454153 0.0075021517
-0.27226567 0.08157077 0.30557573 -0.38849103 0.0052823564 -0.4152458 0.04622713 0.061987273
0.021041436 0.0069977073 0.010565136 0.32817447 0.24631537 0.02522204 0.42714342 0.32266977
-0.0033975071 -0.026899023 -0.02503661 -0.010364665 0.34708476 -0.064610705 0.27691758 -0.11528362
-0.14051501 0.014300882 0.048321478 -0.17769615 -0.016354728 -0.22355251 -0.038766902 0.08359618
-0.014590556 0.003030642 -0.13297732 0.16072184 0.41119763 0.11638586 -0.17077133 0.11603192
-0.03137378 0.025991267 -0.0498711 0.036967035 -0.037361927 -0.015908059 0.61100876 -0.02546609
-0.014696134 -0.023777 0.010232899 -0.0012585566 0.04649599 0.15068334 0.004864244 0.060446806
-0.033121504 -0.204606 -0.012300813 0.0021386049 -0.0679069 0.012629491 -0.052052468 -0.34604064
0.026913272 -0.028452849 -0.24328421 0.019720037 -0.32258272 -0.09912045 -0.398846 0.24443886
-0.013307978 -0.00013646315 -0.4213103 0.037686024 0.25092185 -0.009154878 -0.057816688 -0.31344408
0.0065642335 -0.31188437 -0.014847733 -0.14936374 0.4006787 0.34832886 0.03820627 -0.012432468
-0.02284909 0.016706577 -0.13576196 -0.06893557 -0.3199943 -0.100465864 0.008534675 -0.18667284
-0.015693162 -0.18729764 -0.008149622 -0.03399394 0.02573987 -0.1897073 0.006875031 0.32474655
-0.047531236 -0.0007862712 0.021421794 0.067833565 -0.0021457507 -0.35124558 -0.0040042726 -0.009381697
0.07087511 0.027265703 -0.005732746 0.3089898 0.15895224 0.19755179 0.20224665 0.0902845
0.39390525 0.018653756 0.071511626 -0.008784162 -0.02470032 -0.19346641 0.11849257 -0.005230091
-0.16197161 -0.107976474 0.095460914 0.12857737 -0.0055841114 0.013482929 0.21546386 -0.01651361
0.07966228 0.04189279 0.012145308 -0.061889686 0.2259116 0.017831504 0.063584626 0.123145536
0.00995943 -0.004293056 -0.0036537712 0.019377697 -0.23694871 -0.29555297 0.047333572 0.14497146
-0.20433246 0.0006980475 0.2790137 -0.07722391 0.0069481563 0.12848456 -0.37178785 -0.019353636
-0.035820685 0.001395545 0.25158602 -0.32795295 -0.036556154 -0.13328484 -0.31791934 -0.37184325
-0.27578557 0.01649896 -0.0029473177 -0.0040735565 -0.0328434 -0.007673323 0.11169429 0.005024
0.023087913 -0.14082497 -0.0033106362 0.01415259 -0.034157407 0.014871754 -0.003206374 0.020412575
0.059001744 -0.04280581 0.04518693 -0.038895514 -0.16027966 0.019489037 -0.42530382 0.019041952

fc3.bias f4 [2]
00000000: 42ef d8bc a42d 1e3d
-0.026481275 0.038617745
