v2/checkpoint_critic_1.pth (torch_old, 185340 bytes, 5 tensors)

fcs1.weight f4 [256, 48]
-0.06025273 0.3792034 0.017696671 -0.06661135 0.047663096 -0.21240164 0.0015464427 -0.036198493
-0.05546168 0.40751803 -0.10959969 0.1657449 0.04229939 -0.254275 -0.0031635575 0.12889577
0.09343756 0.35830858 -0.08512853 -0.14787722 0.0038573404 -0.17981961 -0.045302138 -0.23747014
0.40402317 0.11177622 0.016857844 0.27602863 -0.11788916 -0.27620474 -0.019526428 0.30990553
0.36059603 0.22078818 0.0018758982 0.34183437 -0.09126198 -0.22829092 -0.01911936 0.39753813
0.34203488 0.23839411 -0.07361965 -0.07794134 -0.046653878 -0.18093759 -0.066715695 -0.0011000904
0.06344754 -0.22245687 -0.049832918 -0.008902743 -0.21540934 -0.12244074 -0.08197097 0.06361988
0.1580615 0.06717693 -0.06888105 0.4548906 -0.049791586 -0.27378842 -0.076772965 0.47281307
0.07080425 0.09601652 0.01931211 0.3497373 0.22032058 -0.52992964 0.0006633369 0.26696837
0.15034604 -0.15303622 0.06751069 -0.05555389 0.1341638 -0.09901686 0.021005906 -0.06606337
0.24879096 -0.16053517 -0.07424294 0.09178615 -0.010252356 -0.23208646 -0.03501119 0.051741287
0.27652907 -0.07918589 -0.02982194 0.1194681 -0.21417117 -0.46690524 -0.05054347 0.1437162
-0.28355375 0.31319174 -0.00903029 -0.20192598 -0.07673078 -0.15797362 -0.02313138 -0.10743758
-0.095053464 0.38783145 -0.09302019 -0.2547764 -0.124583155 -0.08133042 0.006071807 -0.27612174
-0.039502 0.32409376 -0.07521123 -0.28161436 -0.17423162 -0.021277552 0.015086582 -0.16813567
0.14361912 -0.43328562 -0.015389331 0.11591498 0.08169029 -0.14370532 0.06557253 0.03832124
0.09723966 -0.34112424 0.015691053 -0.019994257 0.14950693 -0.10129957 0.0018101956 -0.01164051
0.09686424 -0.40846992 -0.036250018 0.11494049 0.19478184 0.015527829 -0.0153914215 0.17966063
0.20173797 -0.2618331 0.04100093 0.14466664 -0.061591614 0.103930935 0.0038995813 0.16836333
0.10643817 -0.22064605 -0.062376324 0.14962864 -0.00050788117 -0.3627733 -0.0031785464 0.036536515
-0.035696413 -0.17610969 -0.025790812 -0.113549635 0.16878644 -1.1064848 -0.08687127 -0.068095915
0.0016865849 -0.10649426 0.007866919 -0.023674013 0.028827628 0.0128632 0.04329102 0.025441764
-0.024931364 -0.20570381 0.11694572 0.100051254 0.002090656 -0.328237 0.010256674 0.05762696
0.0875142 -0.2338552 0.07011643 0.050815556 -0.13959801 -1.1272577 0.057275984 0.03329961
0.50001806 -0.20417017 0.054753784 -0.0879718 -0.12682553 0.00970367 -0.018542884 -0.112892695
0.35542867 -0.14044121 -0.08195365 0.14915463 -0.040132187 0.0063503697 -0.06914605 0.23808014
0.27978256 -0.084754445 -0.11378447 0.14393012 0.07221966 -0.19073042 -0.06962409 0.15061657
0.05510439 -0.118609525 -0.029668896 -0.13193816 0.10607517 0.07421381 -0.025775736 -0.11747222
0.074561834 -0.11556091 -0.01297703 -0.23835513 0.12513407 -0.07864193 0.079887524 -0.14003786
0.14809723 -0.06376765 0.06715723 0.18528877 -0.05009725 -0.25726864 0.12695895 0.1271632
-0.031224813 -0.14377968 -0.004831586 -0.05053926 0.43840948 0.12094094 0.007980443 -0.00010829588
0.05661015 -0.12797122 -0.012847145 -0.06385126 0.021510303 0.107678264 0.0025849838 -0.03245271
00000000: 91cb 76bd f326 c23e 9cf8 903c 886b 88bd
00000010: 613a 433d d17f 59be 02b2 ca3a df44 14bd
00000020: c92b 63bd 34a6 d03e cd75 e0bd 08b9 293e
00000030: 2042 2d3d 5530 82be b053 4fbb 41fd 033e
00000040: 315c bf3d 3974 b73e de57 aebd 206d 17be
00000050: 6fcb 7c3b a222 38be bc8e 39bd 5f2b 73be
00000060: 20dc ce3e eeea e43d 7619 8a3c a053 8d3e
00000070: df6f f1bd b56a 8dbe e3f5 9fbc f0ab 9e3e
00000080: 0ba0 b83e 4c16 623e b3e0 f53a ea04 af3e
00000090: 90e7 babd 18c5 69be 34a0 9cbc 1e8a cb3e
000000a0: 321f af3e 961d 743e e6c5 96bd b69f 9fbd
000000b0: 2318 3fbd b447 39be 3da2 88bd e930 90ba
000000c0: c9f0 813d bccb 63be 9a1d 4cbd d0dc 11bc
000000d0: 4494 5cbe 36c2 fabd 65e0 a7bd 244b 823d
000000e0: e0da 213e 0f94 893d 8211 8dbd 6ce7 e83e
000000f0: 43f2 4bbd ff2d 8cbe 253b 9dbd 8e14 f23e
00000100: d201 913d 4fa4 c43d 6e34 9e3c c410 b33e
00000110: b89b 613e 78a9 07bf c9e3 2d3a 14b0 883e
00000120: 50f4 193e 87b5 1cbe 0b43 8a3d 7a8c 63bd
00000130: 3c62 093e 5ac9 cabd 9414 ac3c 3b4c 87bd
00000140: 0fc3 7e3e 5563 24be af0c 98bd 61fa bb3d
00000150: 7ff9 27bc 13a8 6dbe e567 0fbd acee 533d
00000160: 3895 8d3e 362c a2bd 244d f4bc b1ab f43d
00000170: b04f 5bbe 340e efbe ab06 4fbd 572a 133e
00000180: f52d 91be ab5a a03e c8f3 13bc afc5 4ebe
00000190: 0725 9dbd d6c3 21be 057e bdbc 3c08 dcbd
000001a0: 64ab c2bd d891 c63e 5f81 bebd 0d72 82be
000001b0: 7425 ffbd 9090 a6bd 02f6 c63b d45f 8dbe
000001c0: d9cc 21bd 9eef a53e 5808 9abd c22f 90be
000001d0: c669 32be 434e aebc b62d 773c c22b 2cbe
000001e0: e410 133e 9dd7 ddbe 8823 7cbc d564 ed3d
000001f0: 3d4d a73d 7d27 13be e44a 863d bcf6 1c3d
00000200: 9625 c73d d6a7 aebe 868a 803c ffca a3bc
00000210: 5818 193e 2676 cfbd 1644 ed3a d6b7 3ebc
00000220: c260 c63d f822 d1be e67a 14bd eb65 eb3d
00000230: e474 473e 6f68 7e3c 4d2c 7cbc f5f8 373e
00000240: 6694 4e3e fd0e 86be 97f0 273d 7e23 143e
00000250: 7d47 7cbd bed9 d43d 1e90 7f3b 7067 2c3e
00000260: 41fc d93d 0af1 61be 517e 7fbd 4038 193e
00000270: 5423 05ba 6cbd b9be 294f 50bb 50a7 153d
00000280: 6736 12bd 1956 34be 4147 d3bc b68c e8bd
00000290: 5ad6 2c3e 4ba1 8dbf 90e9 b1bd df75 8bbd
000002a0: 6610 dd3a aa19 dabd 40e4 003c 01f0 c1bc
000002b0: eb27 ec3c 2cc0 523c ed51 313d 3f6b d03c
000002c0: dc3c ccbc 05a4 52be 3d81 ef3d ace7 cc3d
000002d0: 6303 093b ae0e a8be 9c0b 283c 3f0a 6c3d
000002e0: a53a b33d bd77 6fbe 3499 8f3d f923 503d
000002f0: c8f2 0ebe fb49 90bf 399a 6a3d 2c65 083d
00000300: 2f01 003f fc11 51be 8145 603d 8f2a b4bd
00000310: 8dde 01be 24fc 1e3c 3fe7 97bc 4934 e7bd
00000320: bffa b53e d2cf 0fbe 51d7 a7bd febb 183e
00000330: a661 24bd c316 d03b 729c 8dbd 48cb 733e
00000340: a93f 8f3e bd93 adbd d507 e9bd 6b62 133e
00000350: e7e7 933d d64e 43be 1397 8ebd 3b3b 1a3e
00000360: 24b5 613d 8de9 f2bd 2f0c f3bc cc1a 07be
00000370: f03d d93d 69fd 973d a327 d3bc 4695 f0bd
00000380: e0b3 983d 33ab ecbd 9c9d 54bc 5e13 74be
00000390: 2523 003e 050f a1bd 129c a33d 1666 0fbe
000003a0: cda6 173e 9d98 82bd bb89 893d 57bc 3d3e
000003b0: c632 4dbd b7b8 83be 8701 023e 1237 023e
000003c0: 2ecb ffbc fb3a 13be 4852 9ebb 4102 4fbd
000003d0: 3577 e03e e2af f73d 67c0 023c e81c e3b8
000003e0: 0be0 673d e30a 03be d57c 52bc 73c4 82bd
000003f0: 6036 b03c 6c86 dc3d d568 293b 22ed 04bd

fcs1.bias f4 [256]
-0.18240507 -0.199615 -0.17211188 -0.07247406 -0.2072256 0.120634675 -0.1432071 0.21098362
-0.11192795 -0.24687384 -0.05815965 -0.30313867 -0.045325212 -0.08360772 -0.16577375 -0.21321954
-0.14129777 -0.20037916 -0.36443472 0.046067853 -0.016977685 -0.14590184 -0.10344234 -0.26641265
-0.05276606 -0.12264639 0.052339703 0.13526398 -0.21157856 -0.46779034 -0.43781868 -0.026545398
0.19033508 0.44797325 -0.066941574 -0.44114283 -0.23956697 -0.051108018 -0.18180929 -0.22988515
-0.10305373 0.2069598 -0.09690036 -0.058195718 -0.21191186 -0.106661536 -0.2185738 0.07137563
0.024747057 -0.081734136 -0.5355707 -0.2144999 -0.17188993 -0.10682516 -0.38266358 -0.047648523
-0.26970935 -0.05616237 -0.039070714 -0.21330014 0.14634964 -0.27695364 -0.2860021 -0.16738404
-0.20649292 -0.21200867 -0.25652742 -0.17655861 -0.25559503 -0.25548983 -0.13892002 -0.35945106
-0.09877961 -0.16573365 -0.13484313 0.04593012 -0.31410986 -0.31793693 -0.26788345 -0.1444941
-0.19867842 -0.022878932 0.016735304 -0.19072865 -0.11185123 -0.4517485 -0.3685701 -0.4349465
0.096447065 -0.04594863 -0.2110331 -0.14248548 0.023490153 -0.1303516 -0.06552835 -0.10905893
-0.09996312 -0.018714625 0.15622856 -0.17544276 -0.10594902 -0.28843272 0.057803344 -0.27699617
-0.14759138 0.042168498 0.09307858 -0.044455092 0.003218629 -0.30164504 -0.14766118 -0.28096873
0.06923366 -0.23612036 -0.26656386 -0.20867606 -0.35333836 -0.024963515 -0.41007578 -0.34321982
-0.1679103 -0.22632493 -0.24867187 -0.113816105 -0.26277378 -0.015527479 -0.45176744 0.087118424
0.03024514 0.05559771 -0.13330519 -0.25257522 -0.08597741 -0.29266936 -0.008604157 -0.17336106
-0.11546051 -0.28098574 -0.0071479203 -0.16419318 -0.09601208 -0.26841408 -0.5199745 -0.22288372
-0.17946352 -0.15292375 -0.16663879 0.02796546 -0.060866937 -0.024968516 -0.37937146 -0.2042058
0.023279691 0.16192348 -0.020424046 -0.16087009 -0.3317618 0.030164802 -0.124137126 -0.12807046
-0.26227072 -0.25481045 -0.2653299 -0.17136823 -0.31193185 -0.26299134 -0.14294203 -0.10335544
-0.12219706 -0.17505403 0.105199166 -0.25914076 -0.30441132 0.043907814 -0.20059769 -0.12342221
-0.15251392 -0.09891578 -0.009043541 0.02623977 0.17175509 0.028704057 -0.0980276 -0.26005745
-0.03132723 -0.3548027 -0.07918211 0.12647891 -0.10458768 -0.11212849 0.2261626 -0.059588835
-0.25487748 0.055104557 -0.15892032 -0.21368477 -0.1704141 -0.070688345 -0.30666992 0.013956885
-0.20609744 0.030789081 -0.05857767 -0.41172844 -0.24307872 -0.059432328 -0.1230469 -0.2711535
0.117361136 -0.051233724 -0.12352244 -0.116625115 -0.19592538 -0.16859414 -0.088676006 0.12267166
-0.27959585 -0.13065867 -0.29001963 -0.044520322 -0.17810489 -0.3435566 0.18208456 -0.14132346
0.08416697 -0.09360046 -0.4798754 -0.34929535 0.016935144 0.17465538 -0.050590523 -0.10403937
-0.16180104 -0.20977643 -0.07177877 -0.06366554 -0.2770345 0.48713493 -0.21161102 -0.30966657
0.28983697 -0.35598883 0.009010139 0.030226694 -0.40557274 -0.10969643 -0.20571104 -0.25349072
-0.10884415 0.04714202 -0.17988372 -0.33166635 -0.35559914 -0.20087968 -0.008838363 -0.30224955
00000000: 65c8 3abe e067 4cbe 193e 30be 486d 94bd
00000010: f332 54be 500f f73d e2a4 12be 170c 583e
00000020: 7b3a e5bd 7fcc 7cbe d038 6ebd fe34 9bbe
00000030: eea6 39bd 863a abbd 98c0 29be 3956 5abe
00000040: 5db0 10be 3230 4dbe 3097 babe a5b1 3c3d
00000050: c914 8bbc 4b67 15be 94d9 d3bd 3d67 88be
00000060: 3921 58bd 082e fbbd 2862 563d a482 0a3e
00000070: 0da8 58be 3782 efbe c529 e0be bc75 d9bc
00000080: 33e7 423e c05c e53e aa18 89bd 79dd e1be
00000090: 0b51 75be a456 51bd 372c 3abe 0367 6bbe
000000a0: d60d d3bd 45ed 533e b273 c6bd a25e 6ebd
000000b0: 6cff 58be 5d71 dabd cfd1 5fbe 632d 923d
000000c0: 57ba ca3c 3a64 a7bd 291b 09bf dda5 5bbe
000000d0: ea03 30be 26c7 dabd 7bec c3be 192b 43bd
000000e0: 5817 8abe 830a 66bd 9d08 20bd 5a6b 5abe
000000f0: aedc 153e decc 8dbe de6e 92be b966 2bbe
00000100: e172 53be cd18 59be 9057 83be c8cb 34be
00000110: 5add 82be 90cf 82be 0d41 0ebe f809 b8be
00000120: f74c cabd 15b6 29be 5114 0abe 3921 3c3d
00000130: 02d3 a0be a1c8 a2be 0528 89be 43f6 13be
00000140: 5b72 4bbe 996c bbbc 7a18 893c 5f4e 43be
00000150: 4212 e5bd 944b e7be 38b5 bcbe 4fb1 debe
00000160: 0a86 c53d a134 3cbd 1019 58be b7e7 11be
00000170: 6c6e c03c e47a 05be ba33 86bd 4a5a dfbd
00000180: 77b9 ccbd 6a4f 99bc 61fa 1f3e 44a7 33be
00000190: cdfb d8bd 74ad 93be 33c3 6c3d 71d2 8dbe
000001a0: 3222 17be e0b8 2c3d fc9f be3d 8b16 36bd
000001b0: a2ef 523b 3871 9abe 7e34 17be 22db 8fbe
000001c0: 61ca 8d3d 89c9 71be 0f7b 88be 2daf 55be
000001d0: c4e8 b4be 4980 ccbc 74f5 d1be 82ba afbe
000001e0: adf0 2bbe b9c1 67be d7a3 7ebe 6b18 e9bd
000001f0: 498a 86be f866 7ebc 104e e7be 256b b23d
00000200: a8c4 f73c 6dba 633d 2881 08be 8a51 81be
00000210: ed14 b0bd c2d8 95be 73f8 0cbc 9085 31be
00000220: 8f76 ecbd 5ddd 8fbe 1a39 eabb 4222 28be
00000230: fba1 c4bd 926d 89be 0d1d 05bf a13b 64be
00000240: 49c5 37be 0b98 1cbe 5ca3 2abe d217 e53c
00000250: 9c4f 79bd c68a ccbc fa3c c2be 531b 51be
00000260: 0db5 be3c 45cf 253e 5450 a7bc 21bb 24be
00000270: afdc a9be 2d1c f73c 9b3b febd e724 03be
00000280: 5948 86be 8476 82be 52d9 87be 277b 2fbe
00000290: 88b5 9fbe cda6 86be 655f 12be 04ac d3bd
000002a0: 7442 fabd 5d41 33be a972 d73d 19ae 84be
000002b0: cddb 9bbe aed8 333d 7b69 4dbe c9c4 fcbd
000002c0: 9c2c 1cbe 5b94 cabd 5c2b 14bc c9f4 d63c
000002d0: 91e0 2f3e c524 eb3c b2c2 c8bd 4026 85be
000002e0: fb50 00bd b3a8 b5be 3b2a a2bd b083 013e
000002f0: 1132 d6bd 9fa3 e5bd 2b97 673e 6c13 74bd
00000300: 4d7f 82be 51b5 613d 02bc 22be 2ed0 5abe
00000310: 0981 2ebe 0dc5 90bd d703 9dbe 6bab 643c
00000320: 350b 53be 6239 fc3c 24ef 6fbd 12ce d2be
00000330: a1e9 78be 506f 73bd 0300 fcbd a2d4 8abe
00000340: 095b f03d 74da 51bd 55f9 fcbd 26d9 eebd
00000350: aaa0 48be f1a3 2cbe c49b b5bd 473b fb3d
00000360: 3027 8fbe 63cb 05be 747d 94be f15a 36bd
00000370: 2161 36be a7e6 afbe 6074 3a3e 19b7 10be
00000380: bb5f ac3d 99b1 bfbd 3ab2 f5be d7d6 b2be
00000390: 92bb 8a3c dcd8 323e 0238 4fbd 9812 d5bd
000003a0: 2caf 25be a2cf 56be bf00 93bd 1463 82bd
000003b0: 77d7 8dbe c069 f93e 8fb0 58be 9e8c 9ebe
000003c0: 8365 943e 2b44 b6be 439f 133c f99d f73c
000003d0: 3ba7 cfbe 86a8 e0bd eaa5 52be 89c9 81be
000003e0: afe9 debd fe17 413d 7033 38be 2cd0 a9be
000003f0: 1711 b6be 67b3 4dbe c8ce 10bc 74c0 9abe

fc2.weight f4 [128, 260]
-0.038466938 0.008360125 -0.015212026 -0.07520201 -0.049625397 -0.047045723 -0.009076925 -0.085940704
-0.055092197 -0.07689168 -0.10205188 0.023297325 -0.0059844935 -0.00018157954 -0.04567971 0.059807897
-0.004507133 -0.016008604 -0.07340007 0.002903019 -0.009326417 -0.1023233 -0.014607275 -0.029319735
0.007071381 -0.062876984 -0.077185154 -0.06440145 -0.11511993 -0.026582833 0.049589127 -0.04870173
0.012558641 -0.034791127 -0.01028934 -0.07083156 -0.03045877 0.0212603 0.061964054 0.010426451
-0.054852385 -0.016583687 -0.086345896 -0.0910123 -0.043288123 0.009372492 0.06413831 0.02583913
-0.095329076 -0.062737584 0.06890514 0.06295848 -0.07223393 -0.03700794 0.014232442 -0.052218344
-0.113459736 -0.032948893 0.05166441 0.052968983 -0.038143802 -0.05989903 -0.07509208 0.030599592
-0.032069515 -0.08743498 0.049599912 -0.097856194 -0.060478937 -0.062029462 -0.06964094 -0.041965403
0.033056315 -0.0032823808 -0.08398252 -0.0009926157 0.000932918 -0.03789779 -0.016948707 0.029380612
0.036293052 -0.045510586 -0.055063523 -0.018827677 -0.08901843 -0.08314968 0.023595968 -0.05820876
0.05751578 0.01601904 0.016552659 -0.06114045 -0.026901936 -0.06644721 -0.04959206 0.05043411
-0.015178768 -0.056439262 0.003863917 -0.076246 -0.094046816 -0.004303715 -0.017742552 -0.07922718
-0.011019406 -0.07464107 -0.10550934 -0.030381136 -0.03881596 -0.09391688 -0.061786305 -0.0130235385
-0.07789838 -0.05149085 0.01443131 -0.047509395 0.056189068 0.033055734 0.0024693103 -0.09928058
0.054309003 -0.01013932 0.011107009 -0.09682633 -0.06921654 0.007736916 0.035673838 -0.08242642
0.032412548 -0.12851779 -0.04081779 -0.108169734 0.052992966 0.021126801 -0.009572593 0.0055656587
-0.09529408 -0.03484763 -0.040054683 0.060394675 -0.010043056 -0.093786225 -0.0058451123 -0.04847721
-0.06492713 0.03365847 -0.03635877 -0.0656332 0.05258133 0.058808193 0.0789848 -0.05939046
-0.087161966 -0.03203093 0.050095506 -0.11014383 0.041665956 -0.05095004 -0.035521533 -0.04064434
0.013412695 -0.009307784 -0.029134935 0.008019873 -0.03400975 0.01532707 -0.090519324 0.055039547
0.042025752 0.04623706 -0.06781598 0.07363589 -0.037312474 0.048811838 0.030460758 0.03801518
-0.14794047 -0.045399338 -0.0042099087 -0.1069452 -0.03037819 -0.006747313 -0.10413216 0.0040906104
0.026536474 -0.13614511 -0.021436227 -0.076012954 -0.021853957 0.05317386 -0.067418784 -0.096752964
-0.008331702 0.008509089 -0.0866114 -0.034011114 -0.07731744 0.011165102 -0.071871735 -0.096078575
-0.0927469 -0.02885319 -0.08890178 -0.0034392322 0.04712359 -0.0087426035 -0.018432764 -0.04110658
0.006294059 0.06624475 -0.019222278 -0.035070583 0.06658727 -0.022075059 -0.048855342 -0.07046177
-0.04501762 -0.10656575 0.022796785 -0.06280987 -0.041360825 0.03727514 -0.031585008 -0.09000067
-0.1330228 -0.040258605 -0.06489153 -0.0726266 -0.06674985 -0.07118358 -0.076913774 -0.024151282
0.041459084 -0.06241193 0.04599307 0.0109021375 -0.09355339 -0.03823604 0.025416758 0.0031329896
-0.004876443 -0.07165532 -0.036045294 -0.03684566 0.06667211 0.0057771066 -0.06337371 -0.10062853
-0.05579033 -0.054147687 0.05186765 -0.035582688 0.05794423 0.019468758 0.014654737 -0.035987884
00000000: 828f 1dbd e8f8 083c dd3b 79bc 8303 9abd
00000010: 0044 4bbd 04b3 40bd 62b7 14bc ae01 b0bd
00000020: 5ba8 61bd 6379 9dbd 9300 d1bd 08da be3c
00000030: 9219 c4bb 6366 3eb9 a61a 3bbd 20f9 743d
00000040: 92b0 93bb 7a24 83bc c752 96bd 9440 3e3b
00000050: d4cd 18bc e18e d1bd 5a53 6fbc f12f f0bc
00000060: 0bb7 e73b a6c5 80bd 4013 9ebd e8e4 83bd
00000070: ffc3 ebbd 3ec4 d9bc f81d 4b3d 777b 47bd
00000080: c2c2 4d3c 2481 0ebd 9f94 28bc 2310 91bd
00000090: ac84 f9bc 152a ae3c 05ce 7d3d b5d3 2a3c
000000a0: e5ac 60bd 83da 87bc 1ed6 b0bd a864 babd
000000b0: e34e 31bd 158f 193c f25a 833d 95ac d33c
000000c0: e43b c3bd 907c 80bd 231e 8d3d 60f0 803d
000000d0: 62ef 93bd a395 17bd 302f 693c e7e2 55bd
000000e0: 945d e8bd 6bf5 06bd 0f9e 533d 01f6 583d
000000f0: ad3c 1cbd af58 75bd e0c9 99bd ffab fa3c
00000100: 535b 03bd 1c11 b3bd 4729 4b3d d468 c8bd
00000110: c3b8 77bd 9b12 7ebd e99f 8ebd eae3 2bbd
00000120: 0f66 073d 361d 57bb 07ff abbd a81a 82ba
00000130: 118f 743a b73a 1bbd 04d8 8abc 9caf f03c
00000140: 06a8 143d 4f69 3abd 4a8a 61bd 803c 9abc
00000150: 4b4f b6bd 614a aabd 554c c13c 4f6c 6ebd
00000160: ab95 6b3d 5d3a 833c 7199 873c 696e 7abd
00000170: 7361 dcbc 7a15 88bd 0b21 4bbd ff93 4e3d
00000180: 5eb0 78bc db2c 67bd c539 7d3b dd26 9cbd
00000190: 9e9b c0bd 2e06 8dbb d458 91bc dc41 a2bd
000001a0: bd8a 34bc 6bdd 98bd 4815 d8bd dce1 f8bc
000001b0: 7cfd 1ebd 7e57 c0bd a313 7dbd ae60 55bc
000001c0: 3089 9fbd 12e8 52bd 4d71 6c3c 3699 42bd
000001d0: 8226 663d 7365 073d 27d4 213b 9e53 cbbd
000001e0: 1e73 5e3d 641f 26bc 2cfa 353c e24c c6bd
000001f0: 67c1 8dbd f585 fd3b bb1e 123d 2fcf a8bd
00000200: 05c3 043d 2b9a 03be 8e30 27bd 1888 ddbd
00000210: 270f 593d 1d12 ad3c 5dd6 1cbc 2160 b63b
00000220: 8b29 c3bd 63bc 0ebd 6110 24bd 6860 773d
00000230: a18b 24bc fe12 c0bd 5b88 bfbb 0a90 46bd
00000240: 84f8 84bd 77dd 093d efec 14bd b36a 86bd
00000250: 855f 573d dce0 703d c8c2 a13d 6943 73bd
00000260: f981 b2bd dd32 03bd f230 4d3d 1793 e1bd
00000270: eca9 2a3d fdb0 50bd 077f 11bd ae7a 26bd
00000280: ecc0 5b3c ad7f 18bc 63ac eebc c965 033c
00000290: cf4d 0bbd 641e 7b3c 3262 b9bd 2671 613d
000002a0: 3223 2c3d 1263 3d3d 1be3 8abd 6ace 963d
000002b0: f7d4 18bd ecee 473d d788 f93c ceb5 1b3d
000002c0: b57d 17be a8f4 39bd 46f3 89bb 1606 dbbd
000002d0: afdb f8bc 9018 ddbb 3e43 d5bd 870a 863b
000002e0: 0563 d93c a069 0bbe 079b afbc aeac 9bbd
000002f0: 1207 b3bc d5cc 593d dc12 8abd 6b26 c6bd
00000300: b181 08bc b569 0b3c 5161 b1bd 3d4f 0bbd
00000310: 9b58 9ebd d5ed 363c 7d31 93bd d8c4 c4bd
00000320: 16f2 bdbd 865d ecbc 2312 b6bd be64 61bb
00000330: aa04 413d 233d 0fbc 4f00 97bc 605f 28bd
00000340: 653e ce3b 54ab 873d 0a78 9dbc 2ca6 0fbd
00000350: e85e 883d c1d6 b4bc 8a1c 48bd 434e 90bd
00000360: 6564 38bd 253f dabd 53c0 ba3c 76a2 80bd
00000370: f869 29bd d1ad 183d 485f 01bd 4552 b8bd
00000380: 2137 08be 35e6 24bd dae5 84bd 41bd 94bd
00000390: 25b4 88bd b2c8 91bd f884 9dbd e9d8 c5bc
000003a0: 00d1 293d a7a3 7fbd 3b63 3c3d e19e 323c
000003b0: eb98 bfbd 659d 1cbd ce36 d03c d852 4d3b
000003c0: 92ca 9fbb 06c0 92bd 3ba4 13bd 7aeb 16bd
000003d0: 638b 883d e24d bd3b 13ca 81bd 5516 cebd
000003e0: 6784 64bd f7c9 5dbd 2c73 543d 27bf 11bd
000003f0: ee56 6d3d f27c 9f3c 6c1a 703c 0868 13bd

fc2.bias f4 [128]
-0.04863772 0.029146334 -0.108699664 0.02266998 -0.081904285 -0.05553918 -0.15062974 -0.02527805
-0.011065287 -0.14111008 -0.11359314 -0.08907405 -0.20852022 -0.113775104 -0.16966738 -0.23957355
-0.02582592 -0.15874933 -0.044468667 -0.07310002 -0.15120809 -0.14705598 -0.1241753 -0.056114916
-0.022849225 -0.14360212 -0.10782261 -0.07733244 -0.00791308 -0.026340554 -0.1040974 -0.08592876
-0.095398985 -0.036243737 -0.06680978 -0.1528796 -0.020411706 0.3365855 0.034771897 -0.21074891
-0.066832304 -0.1276369 -0.04945419 0.13509123 -0.104275905 -0.18020482 -0.0024925596 -0.04458997
-0.07270431 0.10379392 -0.1818883 -0.14013904 -0.14041628 -0.04016502 0.20117623 -0.06430133
-0.051893618 -0.22281548 0.25271657 -0.009648834 -0.022840071 -0.1811729 -0.11166284 -0.023930712
-0.17393494 0.30029193 -0.118265264 -0.05220684 -0.123417914 -0.05034374 -0.13561368 -0.09742244
-0.13947788 -0.14687291 -0.09334957 -0.08085225 -0.0094438875 -0.04905723 -0.23324086 -0.0666361
-0.14214924 -0.08655091 -0.0608513 -0.03292849 -0.043198947 0.38397324 -0.1178834 -0.009997926
-0.15444817 0.081436805 -0.056719843 -0.0052892333 -0.17625332 -0.2121227 -0.1283613 -0.02300877
-0.043270253 -0.019980526 -0.08903124 -0.072118156 -0.041168183 0.009784659 -0.088538945 0.0070695877
0.0439807 0.14559731 -0.11064233 -0.09547454 -0.1783296 -0.04377381 -0.051196992 -0.07749996
-0.113097705 -0.10484537 -0.0017221151 -0.010810151 -0.2397343 -0.12736617 -0.31074437 -0.011096096
-0.055753347 -0.13910955 -0.06639014 -0.15353481 -0.072288044 -0.07249714 -0.10055329 -0.1821204
00000000: 5938 47bd 4bc4 ee3c ee9d debd 65b6 b93c
00000010: 6fbd a7bd 0d7d 63bd af3e 1abe ea13 cfbc
00000020: 2d4b 35bc 297f 10be 85a3 e8bd 756c b6bd
00000030: 5386 55be ec02 e9bd 49bd 2dbe c552 75be
00000040: e190 d3bc 2f8f 22be c724 36bd 77b5 95bd
00000050: 4bd6 1abe d895 16be 9f4f febd c1d8 65bd
00000060: 4c2e bbbc 6f0c 13be 1ad2 dcbd 7860 9ebd
00000070: dda5 01bc 25c8 d7bc 0531 d5bd 6bfb afbd
00000080: 8b60 c3bd 5074 14bd 91d3 88bd 788c 1cbe
00000090: 7336 a7bc ef54 ac3e fa6c 0e3d 90ce 57be
000000a0: 60df 88bd 3fb3 02be 7a90 4abd 5b55 0a3e
000000b0: 9b8e d5bd 9d87 38be 365a 23bb f9a3 36bd
000000c0: ffe5 94bd e891 d43d ed40 3abe 9c80 0fbe
000000d0: 49c9 0fbe 1384 24bd 2401 4e3e 6ab0 83bd
000000e0: 678e 54bd be29 64be 1164 813e 2516 1ebc
000000f0: 1a1b bbbc 6485 39be 7daf e4bd 570a c4bc
00000100: 001c 32be ddbf 993e 0f35 f2bd d7d6 55bd
00000110: 88c2 fcbd 3d35 4ebd 50de 0abe 6b85 c7bd
00000120: 4ad3 0ebe da65 16be 0f2e bfbd dd95 a5bd
00000130: 89ba 1abc 3cf0 48bd b1d6 6ebe 8278 88bd
00000140: 928f 11be 9a41 b1bd 363f 79bd 06e0 06bd
00000150: 61f1 30bd 2498 c43e da6c f1bd 57ce 23bc
00000160: a927 1ebe 57c8 a63d 1153 68bd 4e51 adbb
00000170: c07b 34be b136 59be 2571 03be e37c bcbc
00000180: 263c 31bd 33ae a3bc 0356 b6bd afb2 93bd
00000190: f89f 28bd d64f 203c e853 b5bd 00a8 e73b
000001a0: 1b25 343d 7617 153e 7298 e2bd 2888 c3bd
000001b0: 099c 36be 2b4c 33bd f0b3 51bd 4db8 9ebd
000001c0: c59f e7bd 2bb9 d6bd 98b8 e1ba 0f1d 31bc
000001d0: e97c 75be 476c 02be e319 9fbe 66cc 35bc
000001e0: 9f5d 64bd bc72 0ebe 8ef7 87bd 3b38 1dbe
000001f0: c10b 94bd 6179 94bd e2ee cdbd c57d 3abe

fc3.weight f4 [1, 128]
-0.02843185 0.0066042906 -0.00704557 -0.018720757 -0.008334846 0.015335475 -0.013552186 0.022497509
0.022090973 0.028159188 -0.0041262903 -0.019633276 0.001965668 0.005229189 0.01492742 -0.021249525
0.008029756 0.022456583 0.0016122907 -0.024703069 0.009685576 -0.0021209402 0.0019282459 0.0023739121
0.021375833 0.0062096957 -0.01711748 -0.026598232 0.005531299 -0.013779555 -0.015110089 0.017070007
0.015818112 0.020164886 -0.008676873 0.0029210697 -0.0051247464 0.00419957 0.0028334733 0.005764587
0.0024059152 -0.0074738385 -0.0054746396 0.012571422 -0.0075308746 -0.0034493913 0.007848338 0.014077051
0.019805038 0.015248956 -0.0047819503 -0.0058205714 -0.00046048407 -0.017216347 -0.010207411 0.0017986811
-0.00855354 -0.012132788 0.006538528 -0.013798616 -0.008271289 -0.00026258858 -0.0005811049 0.017330958
0.0073800026 0.012237726 0.012090651 0.002536883 0.023689153 0.01767142 -0.022887051 -0.002511708
-0.0013925587 -0.021301137 0.0106635215 0.0020845095 0.020578282 -0.0018148512 -0.012900637 0.0017415084
-0.012162074 -0.018746994 -0.0010036809 -0.022273999 0.015794804 0.015203102 -0.01534883 -0.01798341
-0.0035516575 -0.006975327 -0.018054547 -0.0032283606 -0.0048367297 -0.005550593 0.003954481 -0.0032786014
-0.025639815 -0.016241899 -0.0001341579 -0.030064553 0.008780732 0.003678637 0.007289966 0.005977699
0.013289487 -0.010621339 0.015511174 -0.020239556 0.0067766043 -0.00941377 0.014582077 -0.025802152
0.0026970564 4.5339162e-05 -0.007588612 -0.00973277 -0.017037824 0.02208072 -0.006013553 -0.023930034
-0.021672903 0.02041747 0.017804513 -0.01230245 -0.03574571 -0.004883938 -0.013185025 0.0030254438
00000000: e9e9 e8bc ce68 d83b 86de e6bb 465c 99bc
00000010: e18e 08bc a541 7b3c fd09 5ebc b24c b83c
00000020: 21f8 b43c 19ae e63c d535 87bb f7d5 a0bc
00000030: 70d2 003b 9e59 ab3b 2392 743c 7c13 aebc
00000040: 3d8f 033c def6 b73c 8053 d33a 175e cabc
00000050: 40b0 1e3c 79ff 0abb 32bd fc3a a393 1b3b
00000060: 5f1c af3c b47a cb3b f539 8cbc 89e4 d9bc
00000070: e63f b53b a5c3 61bc 4f90 77bc 66d6 8b3c
00000080: fc94 813c d530 a53c 7129 0ebc 6b6f 3f3b
00000090: 7ded a7bb 8c9c 893b cbb1 393b dce4 bc3b
000000a0: 8fac 1d3b 1ae7 f4bb 9b64 b3bb 5ef8 4d3c
000000b0: 8ec5 f6bb 2f0f 62bb 5196 003c 6ea3 663c
000000c0: 2d3e a23c c2d6 793c e8b1 9cbb 7eba bebb
000000d0: 206d f1b9 4c09 8dbc fc3c 27bc b9c1 eb3a
000000e0: 2624 0cbc 9ac8 46bc 2641 d63b 9713 62bc
000000f0: 4d84 07bc 0bac 89b9 4a55 18ba a7f9 8d3c
00000100: f3d3 f13b be80 483c de17 463c d641 263b
00000110: c10f c23c a7c3 903c a07d bbbc 789b 24bb
00000120: 8486 b6ba b97f aebc 0db6 2e3c 449c 083b
00000130: c993 a83c 4de0 edba 325d 53bc 5343 e43a
00000140: 7043 47bc 4c93 99bc f18d 83ba f677 b6bc
00000150: 1b64 813c 6e16 793c a979 7bbc f251 93bc
00000160: edc2 68bb 4991 e4bb 21e7 93bc e792 53bb
00000170: 6e7d 9ebb c0e1 b5bb 9794 813b cedd 56bb
00000180: 970a d2bc bb0d 85bc bdac 0cb9 f049 f6bc
00000190: 0fdd 0f3c 4a15 713b abe0 ee3b 93e0 c33b
000001a0: 26bc 593c 2005 2ebc 9422 7e3c 6dcd a5bc
000001b0: 470e de3b 373c 1abc aae9 6e3c 095f d3bc
000001c0: 19c1 303b 8e2a 3e38 e4a9 f8bb 3276 1fbc
000001d0: e892 8bbc a0e2 b43c 570d c5bb eb08 c4bc
000001e0: 5f8b b1bc 8a42 a73c c5da 913c 3790 49bc
000001f0: 186a 12bd 7109 a0bb 0106 58bc 8646 463b
