v2/checkpoint_critic_0.pth (torch_old, 185340 bytes, 5 tensors)

fcs1.weight f4 [256, 48]
0	0x3d62b242	0.05534578
1	0xbe82c075	-0.25537458
2	0x3cbf28b3	0.023334837
3	0xbe4f0c0e	-0.20219442
4	0xbd45cc70	-0.04829067
5	0xbd8a0d7d	-0.06740854
6	0x3beb6f78	0.007184919
7	0xbe2fe738	-0.17178047
8	0x3e723c6c	0.23655862
9	0xbd92c4b5	-0.07166425
10	0xbd81ba98	-0.06334418
11	0x3d8a8f14	0.06765571
12	0xbd06d027	-0.032913353
13	0xbe800598	-0.25004268
14	0x3d3080db	0.043091636
15	0x3cfc5b99	0.030805396
16	0x3eb66b24	0.35628617
17	0xbdbbb2a4	-0.09164932
18	0xbd0e387d	-0.03472184
19	0xbd2a2519	-0.041539285
20	0x3e1a9c54	0.15098697
21	0xbe09806d	-0.13427897
22	0x3ba74419	0.0051045534
23	0xbe064803	-0.13113408
24	0x3d96bb6d	0.073599674
25	0xbe3d27ef	-0.18472265
26	0xbd02d43c	-0.031940684
27	0x3e1c2af3	0.15250759
28	0xbcb3b28f	-0.02193573
29	0xbe065c24	-0.13121086
30	0xbd8bedc8	-0.068324625
31	0x3e3edb8f	0.18638442
32	0x3e297293	0.16547613
33	0xbd27092f	-0.040780243
34	0x3d85fc28	0.065422356
35	0x3dd1c30d	0.10242281
36	0xbc837a6f	-0.016049592
37	0xbe656f5e	-0.22405764
38	0x3d35f929	0.04442707
39	0x3e21ebc5	0.15812595
40	0x3e401ca0	0.1876092
41	0xbddbd9c7	-0.10734897
42	0xbd8d5579	-0.06901068
43	0xbeab411f	-0.3344812
44	0xbe466f64	-0.1937843
45	0xbe0aa584	-0.13539702
46	0xbd7e63c7	-0.062106874
47	0xbe83e953	-0.2576395
48	0x3c8c2269	0.017106252
49	0x3cb635b2	0.0222424
50	0x3c8797ac	0.016551815
51	0xbdc51bd7	-0.09624451
52	0xbe5f9b08	-0.21836483
53	0xbdef78a1	-0.1169293
54	0xbc7f5bfc	-0.015585896
55	0xbcc2516e	-0.02372047
56	0x3e0dca61	0.13846733
57	0x3d8bd6f8	0.068281114
58	0x3d288693	0.041143965
59	0x3d095cc3	0.03353573
60	0xbdd3bab8	-0.10338348
61	0xbe20afec	-0.15692109
62	0x3d083371	0.033252183
63	0x3d52c674	0.05145879
64	0x3df6369d	0.120221354
65	0x3d605eb5	0.05477782
66	0x3ae1547b	0.0017191315
67	0x3ec2cff2	0.38049275
68	0x3e0e2696	0.13881907
69	0xbee7cdcf	-0.45274207
70	0xbc8ab046	-0.016929757
71	0x3e986f08	0.2977221
72	0x3c08d95e	0.008352606
73	0x3de13c3c	0.10997817
74	0xbc9582f5	-0.018250922
75	0x3e63782a	0.22213808
76	0x3e0c68cb	0.1371185
77	0xbdbf7fc3	-0.093505405
78	0xbd849e9f	-0.06475567
79	0x3e58b530	0.21162868
80	0x3da2a35e	0.07941316
81	0x3da01393	0.078162335
82	0xbc818137	-0.015808685
83	0x3e0b324a	0.13593403
84	0x3d3183ae	0.04333847
85	0xbdebf867	-0.11521988
86	0x3cbfe1a5	0.023423025
87	0x3dc46182	0.09588911
88	0x3e410a16	0.18851504
89	0x3e3cd951	0.18442275
90	0x3d9231d0	0.07138407
91	0x3e46bc92	0.19407871
92	0xbe07daa9	-0.13267006
93	0xbec7890b	-0.38971743
94	0x3d4f8384	0.050662532
95	0x3e5f90fa	0.21832648
96	0xbd4f4e62	-0.05061186
97	0xbee0b281	-0.43886188
98	0xbd6068c8	-0.054787427
99	0xbd94c1e8	-0.07263547
100	0xbdfc9345	-0.12332777
101	0xbef45ca3	-0.47726926
102	0xbd8d1563	-0.06888845
103	0x3cb305a9	0.021853285
104	0x3d9838c6	0.07432704
105	0xbec9a544	-0.393839
106	0xbc87f4b6	-0.01659618
107	0xbe0d8d69	-0.13823475
108	0xbd2805b1	-0.041021053
109	0xbef779a6	-0.48334998
110	0x3da8f376	0.082495615
111	0xbe2368b9	-0.15957917
112	0x3dadbf3e	0.08483742
113	0xbee66503	-0.4499894
114	0xbd3a7307	-0.045519855
115	0x3e40b201	0.18817903
116	0x3df62812	0.120193616
117	0xbede9e88	-0.43480325
118	0x3d376963	0.04477824
119	0x3e9a732f	0.30166003
120	0x3dc9b5e6	0.098491475
121	0x3d3b8aeb	0.04578678
122	0xbdf0e808	-0.117630064
123	0x3deafe88	0.11474329
124	0x3e035db5	0.12828715
125	0xbeed0e6d	-0.46300068
126	0xbd16319c	-0.036668405
127	0x3d182add	0.037150253
128	0x3c990077	0.01867698
129	0x3da0b1ca	0.078464106
130	0xbc8ef4ca	-0.017450709
131	0x3dfdd0f5	0.12393371
132	0x3d870d27	0.065943055
133	0xbf00d993	-0.5033199
134	0xbd005588	-0.03133157
135	0x3e07767f	0.13228796
136	0x3cbb9498	0.022898003
137	0x3d8354f1	0.06412686
138	0xbd63a60e	-0.055578284
139	0x3bd0c808	0.006371502
140	0xbdcc11c0	-0.09964323
141	0xbecbc674	-0.39799845
142	0xbd0e363d	-0.034719694
143	0x3d91987a	0.07109161
144	0xbd099d4b	-0.033597272
145	0x3d9fc44e	0.07801114
146	0xbca090ca	-0.01960029
147	0xbd9fc92b	-0.078020416
148	0x3dad376a	0.08457835
149	0xbb3e3e9a	-0.0029029013
150	0xbd683ff7	-0.056701627
151	0xbd5e82c7	-0.054323938
152	0xbcb80567	-0.022463514
153	0xbbaaa54a	-0.0052076923
154	0xbdb639cd	-0.088977434
155	0xbdd7de69	-0.10540468
156	0x3d689438	0.056781977
157	0xbe8f0564	-0.279338
158	0xbcf3f35c	-0.029779129
159	0xbe5fbd82	-0.21849635
160	0xbd175fb3	-0.0369565
161	0xbd4a84a3	-0.0494429
162	0xbb990993	-0.004670331
163	0xbeac90f6	-0.33704346
164	0x3cabd998	0.02097778
165	0xbf3b000b	-0.7304694
166	0xbd86a8a5	-0.06575135
167	0xbe954b49	-0.29159
168	0x3db8d8c7	0.09025722
169	0x3e142ff0	0.14471412
170	0xbcca51b8	-0.02469717
171	0xbda994d6	-0.08280341
172	0xbdf05152	-0.117342606
173	0xbdc073d8	-0.093970954
174	0x3c2fc0bd	0.010727105
175	0xbd09fcba	-0.033688284
176	0x3b5763be	0.0032865847
177	0x3cb8730a	0.022515792
178	0x3c0be384	0.008538131
179	0xbe0061a2	-0.12537244
180	0xbd621868	-0.055199057
181	0xbe7aad21	-0.24480106
182	0xbdc903b3	-0.09815159
183	0xbe2bd2c1	-0.16779615
184	0x3d924237	0.07141536
185	0xbc7a76aa	-0.015287081
186	0xbb5acdf0	-0.0033386908
187	0x3cb80533	0.022463417
188	0x3c0688c3	0.0082113175
189	0xbf405141	-0.75123984
190	0xbc848a9c	-0.016179375
191	0x3ba22669	0.0049484265
192	0x3de3bf70	0.11120498
193	0x3e6eec33	0.2333229
194	0x3d4d4636	0.050115786
195	0xbd80b38b	-0.06284245
196	0xbd0053b1	-0.031329814
197	0xbe325e1c	-0.17418712
198	0xbcbde599	-0.02318077
199	0xbdb3bd0f	-0.087762944
200	0x3e13fd2c	0.14452046
201	0x3e71c531	0.23610379
202	0x3bb83f2d	0.0056227655
203	0xbe3743e6	-0.17896995
204	0xbd99f876	-0.07518093
205	0xbee7b0b0	-0.4525199
206	0x3c96fbbe	0.018430587
207	0xbdb86945	-0.090044536
208	0x3df04c36	0.11733286
209	0x3e7f95ed	0.24959536
210	0x3d03d84f	0.03218871
211	0xbe16a3fd	-0.14710994
212	0xbe43edd6	-0.19133696
213	0xbf4cda16	-0.8002027
214	0x3d9c5d2c	0.076349586
215	0xbe0fcb0d	-0.14042301
216	0x3d866859	0.065628715
217	0xbe9589f6	-0.29206818
218	0x3c116081	0.008873106
219	0x3cb4a093	0.022049224
220	0x3c2d563d	0.010579643
221	0xbde09e49	-0.109676905
222	0x3c512941	0.012766183
223	0x3d15913e	0.036515467
224	0x3da77d5f	0.081782095
225	0xbe4850d2	-0.1956208
226	0xbc005d23	-0.0078347055
227	0xbc09bfd1	-0.008407549
228	0x3e2406e4	0.16018254
229	0xbf099a67	-0.53751224
230	0x3dae2409	0.08502967
231	0x3db822be	0.089910015
232	0x3e04dabf	0.1297407
233	0xbe221784	-0.15829283
234	0x3d508b6e	0.05091422
235	0xbbc0078d	-0.005860275
236	0x3e5a951c	0.21345943
237	0xbf5de2ce	-0.866742
238	0x3de2bef5	0.110715784
239	0xbd830abb	-0.06398531
240	0xbd674836	-0.05646535
241	0xbe6e5937	-0.2327622
242	0xbb78d920	-0.0037971213
243	0x3ba22b5a	0.0049490156
244	0x3ee08d19	0.4385765
245	0xbdc57c70	-0.09642875
246	0x3c13b2c3	0.009014788
247	0x3d62d6a3	0.055380475
248	0x3da730a9	0.08163578
249	0xbd1b9b01	-0.03798962
250	0xbbb78f47	-0.005601797
251	0x3ce52baa	0.027974922
252	0x3e4fc151	0.20288588
253	0xbdcfbaf4	-0.1014308
254	0x3c210f92	0.009830372
255	0x3d7331bf	0.059373613

fcs1.bias f4 [256]
0	0xbe847839	-0.25872973
1	0xbd810eb8	-0.063016355
2	0xbea30331	-0.31838372
3	0xbea11d4d	-0.31467667
4	0xbdc70426	-0.09717588
5	0xbe62883b	-0.2212228
6	0xbe92b792	-0.28655678
7	0xbd84fdeb	-0.064937435
8	0xbdc93722	-0.09824969
9	0xbeaecd21	-0.34140876
10	0xbe0b713b	-0.13617413
11	0xbe26fbc4	-0.16306978
12	0x3e767d11	0.24071147
13	0x3e540196	0.2070373
14	0xbe96c9bb	-0.29450783
15	0xbe99340c	-0.2992252
16	0xbe92728b	-0.28603014
17	0xbea85a38	-0.3288133
18	0xbe8003fd	-0.25003043
19	0x3d8313e5	0.06400279
20	0x3c49cb0d	0.0123164775
21	0x3dbd86f7	0.09254258
22	0x3b955552	0.00455729
23	0xbdf08e1a	-0.11745854
24	0xbe3b938d	-0.18318005
25	0xbdfb4fe2	-0.12271096
26	0x3e29e92c	0.16592854
27	0xbd6d1f93	-0.05789144
28	0xbea67640	-0.32512093
29	0xbe757ee0	-0.2397418
30	0xbe2d6fe2	-0.16937211
31	0x3c36debc	0.011161502
32	0x3e011eff	0.1260948
33	0x3dcb4fce	0.09927331
34	0xbda4ec45	-0.08052877
35	0xbeb93914	-0.3617636
36	0xbefc24a6	-0.4924671
37	0xbe8ad94d	-0.27118912
38	0xbe40bf45	-0.18822964
39	0xbe40f086	-0.18841752
40	0x3d91214a	0.070864275
41	0xbdd27b2f	-0.10277402
42	0xbd8d5345	-0.06900648
43	0xbd88b914	-0.06675926
44	0xbedc1967	-0.4298813
45	0xbe3e2cae	-0.18571731
46	0xbe901e2d	-0.28148022
47	0xbeac3cb8	-0.33640075
48	0x3e43010d	0.1904337
49	0xbe1d0f84	-0.1533795
50	0xbf061938	-0.5238223
51	0xbd13181f	-0.035911676
52	0xbe513c9e	-0.2043328
53	0xbe4e0b11	-0.20121409
54	0xbe90ef07	-0.28307363
55	0x3e71a10b	0.2359659
56	0xbe5079e6	-0.20359
57	0xbe868f29	-0.26281098
58	0xbdbb1015	-0.09133927
59	0xbe92149e	-0.28531355
60	0xbe001ae2	-0.12510255
61	0xbe27e36b	-0.16395347
62	0xbef1882d	-0.47174206
63	0xbeb77278	-0.3582952
64	0xbdeb096c	-0.114764065
65	0xbe2485c9	-0.1606666
66	0xbd676d0d	-0.056500483
67	0xbe6f154a	-0.23347965
68	0xbf0d7d72	-0.5526954
69	0xbd8adea1	-0.06780744
70	0x3e1e7d5d	0.1547751
71	0xbea99a26	-0.33125418
72	0xbef1cae1	-0.47225097
73	0x3e708076	0.23486504
74	0xbe29897d	-0.16556354
75	0x3ed739f6	0.42036408
76	0xbe81fe41	-0.25389293
77	0xbe0ce528	-0.13759291
78	0xbe8f948f	-0.2804303
79	0xbed2df97	-0.4118621
80	0xbe75033b	-0.23927014
81	0xbe0f6814	-0.14004546
82	0xbe38d337	-0.18049322
83	0xbe2a4ce1	-0.1663089
84	0xbe99aad6	-0.3001315
85	0x3e5f223f	0.21790408
86	0xbebdda95	-0.37080827
87	0xbe1e1d29	-0.15440811
88	0xbcd9fee0	-0.026610792
89	0xbe4aa26c	-0.19788522
90	0xbecb8339	-0.39748552
91	0xbd628e31	-0.055311386
92	0x3e1567db	0.14590399
93	0x3beb172f	0.0071743946
94	0xbe906f7b	-0.28210053
95	0x3df995fd	0.12186811
96	0xbdf5424c	-0.11975536
97	0x3e630f44	0.22173792
98	0x3e00e2eb	0.12586562
99	0xbe480aaf	-0.19535325
100	0xbdc8696a	-0.09785731
101	0xbef373e9	-0.4754937
102	0xbe084176	-0.13306221
103	0xbe545256	-0.20734534
104	0xbd8c551c	-0.06852171
105	0xbec532f6	-0.38515443
106	0xbdb28608	-0.08716971
107	0xbe255208	-0.16144574
108	0xbdf0f5d0	-0.11765635
109	0xbec93a1c	-0.39302146
110	0xbee220be	-0.44165605
111	0xbd61bd53	-0.055112194
112	0x3e1b0d11	0.15141703
113	0xbda52dee	-0.08065401
114	0xbe1e62f3	-0.15467434
115	0x3e58785e	0.21139666
116	0xbe89ef14	-0.26940215
117	0x3d985548	0.07438141
118	0xbe6d460d	-0.23171254
119	0xbe751842	-0.23935035
120	0xbe2c0644	-0.16799265
121	0xbedf9118	-0.43665385
122	0xbea1cb3d	-0.3160037
123	0xbe325c8b	-0.17418115
124	0xbe0dac97	-0.13835369
125	0x3d25ce59	0.04047999
126	0xbebd673a	-0.36992818
127	0xbd59537c	-0.053058133
128	0xbe0a4c84	-0.13505751
129	0xbe4a698e	-0.19766828
130	0xbe45d68f	-0.19320129
131	0xbeebd7c7	-0.46063063
132	0xbec0a508	-0.3762591
133	0xbe3952c1	-0.18097974
134	0xbe4f909a	-0.20270005
135	0xbe88ad92	-0.26694924
136	0xbecd7606	-0.40129107
137	0xbf36bcfa	-0.71382105
138	0xbe5ff6b6	-0.21871457
139	0xbecb6060	-0.39721966
140	0xbe822c5c	-0.2542447
141	0xbf0daf4c	-0.55345607
142	0xbe7263b8	-0.23670852
143	0xbe17a9a1	-0.14810802
144	0xbc7a864c	-0.015290808
145	0xbd983c3e	-0.07433365
146	0xbd8238ef	-0.063585155
147	0x3d6bd921	0.057580117
148	0x3d9a03a9	0.07520229
149	0xbe8ab6e8	-0.2709267
150	0xbc1735f4	-0.009229172
151	0xbe91442a	-0.28372318
152	0x3c928f9d	0.017890746
153	0xbe4fcfd3	-0.20294122
154	0xbe2fa4ab	-0.1715266
155	0xbdcf9cf4	-0.10137358
156	0xbe6228d7	-0.22085892
157	0xbdca2e6e	-0.09872137
158	0xbead3fd2	-0.33837754
159	0xbe93f320	-0.28896427
160	0xbd76adac	-0.06022422
161	0xbd1a4c96	-0.037670694
162	0xbe83e8dd	-0.25763598
163	0xbea928f9	-0.33039072
164	0xbec67fae	-0.38769287
165	0xbe5d3888	-0.21603596
166	0xbed8bce6	-0.42331618
167	0x3da4d3e3	0.08048227
168	0xbe58a998	-0.21158445
169	0xbd2827e3	-0.041053664
170	0xbda98e3a	-0.08279081
171	0xbd3116b0	-0.043234527
172	0xbe0ab8e7	-0.13547097
173	0xbdc3c42f	-0.095589034
174	0xbbf31a5b	-0.0074189133
175	0xbe8910d9	-0.26770666
176	0xbdc0e13a	-0.094179586
177	0xbe989571	-0.29801515
178	0xbe6c2b13	-0.23063307
179	0x3c75b3fd	0.014996526
180	0x3d01076c	0.03150122
181	0xbeb1f643	-0.34758195
182	0xbe87903b	-0.26477227
183	0xbec87e6b	-0.3915895
184	0xbe563316	-0.20917925
185	0xbea4337c	-0.3207053
186	0xbe5998be	-0.21249673
187	0x3e4c7035	0.19964679
188	0x3d65a77e	0.056067936
189	0xbe744f8f	-0.23858474
190	0xbdc09ebc	-0.09405276
191	0xbe29d4bd	-0.1658506
192	0xbe7c4e0f	-0.24639152
193	0xbd958098	-0.07299918
194	0xbea8b7c3	-0.329527
195	0xbe91d3ea	-0.2848199
196	0xbe638c3e	-0.22221467
197	0xbea06eb5	-0.31334463
198	0x3d6d363e	0.057913058
199	0xbd8d8835	-0.06910745
200	0xbd0677f9	-0.03282926
201	0xbe109667	-0.14119874
202	0xbeb8705f	-0.36023232
203	0xbe14543a	-0.14485255
204	0xbe94fdaf	-0.29099795
205	0xbe1e53ec	-0.15461701
206	0xbec57b6b	-0.38570723
207	0xbeebcc35	-0.46054235
208	0x3db9d562	0.09073903
209	0xbe1eb97b	-0.15500443
210	0xbebcebd5	-0.36898676
211	0xbef3055d	-0.4746503
212	0xbdc7b323	-0.097509645
213	0xbe2806da	-0.16408864
214	0xbe92201c	-0.28540123
215	0x3da6b682	0.08140279
216	0xbe56bb1f	-0.20969819
217	0xbd9a9b29	-0.07549126
218	0xbf0fcbe1	-0.5617047
219	0xbec534c0	-0.38516808
220	0xbc9250df	-0.017860828
221	0xbe61cb7d	-0.22050281
222	0xbeb9e201	-0.3630524
223	0xbbe56f6f	-0.0070018093
224	0x3dc7fdf1	0.09765232
225	0x3d9af5d7	0.075664215
226	0xbe018fc5	-0.126525
227	0x3d9d5522	0.076822534
228	0xbe7759ea	-0.24155393
229	0xbeb6a8a8	-0.3567555
230	0xbeb1f463	-0.34756765
231	0xbdb953a8	-0.09049159
232	0x3db0df8b	0.086363874
233	0xbec9b365	-0.3939468
234	0xbe13e45b	-0.1444258
235	0xbd2d2fd0	-0.042281926
236	0xbd2884c9	-0.04114226
237	0x3d2ceb06	0.042216323
238	0x3dcc1336	0.09964602
239	0xbdde4f83	-0.108550094
240	0xbe7a589d	-0.24447866
241	0xbebf35d2	-0.3734575
242	0xbdf92036	-0.12164347
243	0xbe2ff1c6	-0.17182073
244	0xbeaa38c4	-0.33246434
245	0xbe607e6b	-0.21923225
246	0xbe19e0f8	-0.15027225
247	0xbed1d623	-0.40983686
248	0x3f015a17	0.5052809
249	0x3e903a9e	0.2816972
250	0xbe69f4e4	-0.22847325
251	0xbe1ea717	-0.15493427
252	0xbe8bc9a0	-0.27302265
253	0xbea71a47	-0.32637236
254	0xbd4d45ad	-0.050115276
255	0xbe17b6a5	-0.14815767

fc2.weight f4 [128, 260]
0	0xbd1573db	-0.03648744
1	0x3ce8e54c	0.02842965
2	0xbc8431ee	-0.01613709
3	0xbe1484e5	-0.1450382
4	0x3d1eeb98	0.0387989
5	0x3d29ebf5	0.04148479
6	0xbc89ee05	-0.01683713
7	0xbe6f7c96	-0.2338737
8	0xbd687ca4	-0.05675949
9	0xbdccf3bd	-0.10007427
10	0xbd236242	-0.039888628
11	0x3cb5e488	0.022203699
12	0xbd4554a0	-0.048176408
13	0xbc6ed3d6	-0.014576873
14	0xbd283e26	-0.041074894
15	0x3d7c7fa2	0.061645158
16	0xbca6de44	-0.020369656
17	0x3cca6b6e	0.02470943
18	0xbd9cdd3c	-0.076593846
19	0xbc4681e7	-0.012115932
20	0xbda43f7f	-0.080199234
21	0xbc49b9cb	-0.012312363
22	0x3b6ca559	0.0036109297
23	0x3c7908c8	0.0151998475
24	0x3d3e44ec	0.046452448
25	0xbd93038b	-0.0717841
26	0xbd9fdeda	-0.078061774
27	0xbdad2b08	-0.08455473
28	0xbda1968b	-0.07890042
29	0xbdd38307	-0.10327726
30	0xbc970e9d	-0.018439585
31	0xbd37c6e8	-0.044867426
32	0x3d2e01c3	0.04248215
33	0xbc9d2748	-0.01918377
34	0xbcb53cdb	-0.022123745
35	0xbccd1ce2	-0.025038186
36	0xbda65555	-0.081217445
37	0xbc31a226	-0.010841882
38	0x3d4aee6f	0.049543794
39	0x3c9bdcba	0.019026149
40	0xbdb5a6bc	-0.08869693
41	0xbb149d3c	-0.0022676727
42	0xbd986fce	-0.074432
43	0xbdc35369	-0.095373936
44	0xbb5ff89e	-0.0034175287
45	0x3d698e0a	0.057020225
46	0x3d472fd4	0.048629597
47	0xbdb3b8eb	-0.08775505
48	0xbd583d28	-0.0527927
49	0xbd907a5d	-0.07054589
50	0x3ce3f3b9	0.027826177
51	0x3d6ade8f	0.057341155
52	0xbd2074f6	-0.039174043
53	0xbdb13ddf	-0.08654379
54	0x3cafd7cf	0.02146521
55	0xbe2928ed	-0.16519518
56	0xbdceb513	-0.10093131
57	0xbd52ff21	-0.05151284
58	0x3d358739	0.04431841
59	0x3ca52000	0.02015686
60	0xbd871fb7	-0.06597846
61	0xbe0cbdc9	-0.13744272
62	0xbdc90589	-0.09815509
63	0x3c85e019	0.01634221
64	0xbcd23f05	-0.025664816
65	0xbd8424f6	-0.06452362
66	0x3c2e1310	0.010624662
67	0xbdbec175	-0.09314243
68	0xbd5fccfb	-0.054638844
69	0xbd880d0f	-0.06643116
70	0xbe067ff9	-0.13134755
71	0xbd49a3b4	-0.049228385
72	0x3d7770cd	0.06041031
73	0xbb2cf2f6	-0.0026389933
74	0xbd979029	-0.07400543
75	0xbc4d1180	-0.012516379
76	0xbbe591fa	-0.007005927
77	0xbce9ad48	-0.02852501
78	0xbd0908b0	-0.03345555
79	0x3ca54fa3	0.020179575
80	0x3b693758	0.0035585966
81	0xbd42df61	-0.047576312
82	0xbc452c1e	-0.012034444
83	0xbd087b08	-0.033320457
84	0xbd585cde	-0.05282294
85	0xbd4b2d87	-0.049603965
86	0x3c740d9b	0.014895822
87	0xbd4853dd	-0.048908103
88	0x3d89dde3	0.06731775
89	0x3d80c365	0.062872685
90	0x3c42d7ec	0.0118923
91	0xbd77f762	-0.060538657
92	0xbcf85914	-0.030315913
93	0x3d967168	0.07345849
94	0xbd75c39e	-0.06000101
95	0x3d555e8e	0.052092128
96	0xbd025452	-0.031818695
97	0xbddb3255	-0.107029594
98	0xbd4dd9f8	-0.0502567
99	0xbda1fd93	-0.079096936
100	0xbd4f5624	-0.05061926
101	0x3d618786	0.055060886
102	0xbd57ac2c	-0.05265443
103	0xbd82a00a	-0.06378181
104	0xbc5bff68	-0.013427593
105	0xbd98a150	-0.07452643
106	0xbdade943	-0.08491757
107	0xbd99294d	-0.074785806
108	0xbd34be23	-0.04412664
109	0xbda45f13	-0.080259465
110	0xbd941cc8	-0.07232052
111	0x3cbf447f	0.023348091
112	0xbdaa4176	-0.08313267
113	0xbd9bd7d4	-0.07609525
114	0xbb118d19	-0.0022209345
115	0xbdd1b7f9	-0.10240168
116	0x3bb157a1	0.0054120575
117	0x3d4a582c	0.049400494
118	0x3d6e59da	0.058191158
119	0xbdb022e3	-0.08600404
120	0x3cc61277	0.024178727
121	0xbcc2df1d	-0.02378803
122	0x3cf9ecc1	0.0305084
123	0xbe20d431	-0.15705945
124	0xbd9df3bf	-0.077125065
125	0x3d0cb8ea	0.034356035
126	0x3d45ded7	0.04830822
127	0xbe7163a3	-0.23573165
128	0x3ce09601	0.027415277
129	0xbdfe1692	-0.12406649
130	0xbcb0a2a4	-0.021561928
131	0xbcfa86a7	-0.030581785
132	0x3d8b3895	0.067979015
133	0x3c75bff7	0.014999381
134	0x3ca23882	0.019802336
135	0x3d49c9dd	0.049264777
136	0xbde0ae5d	-0.10970757
137	0xbc3f5ae5	-0.011679386
138	0xbc9b04a9	-0.01892312
139	0x3d54aa80	0.051920414
140	0x3abf41a2	0.0014591704
141	0xbbba5b7a	-0.0056871744
142	0x3ce377c8	0.027767077
143	0xbdc17d5e	-0.0944774
144	0xbd3ae9d4	-0.045633152
145	0x3d145920	0.03621781
146	0xbcb4fe30	-0.022093862
147	0xbdc95bba	-0.098319486
148	0xbd8fad8f	-0.070155255
149	0x3daae870	0.08345115
150	0x3c80df2c	0.015731417
151	0xbd9aff7b	-0.0756826
152	0xbda4df16	-0.08050363
153	0xbc80c845	-0.015720496
154	0x3d89f47a	0.06736083
155	0xbdb6069d	-0.0888798
156	0x3d7f1da1	0.062284116
157	0x3cb4b393	0.022058284
158	0xbcdeb013	-0.027183568
159	0xbd6dc436	-0.05804845
160	0xbd54e241	-0.051973585
161	0xbc350c75	-0.011050333
162	0xbd18fd5c	-0.037350997
163	0x3bd3ddce	0.00646565
164	0xbe0c6c97	-0.13713299
165	0x3c86938c	0.016427778
166	0xbde106b3	-0.10987606
167	0x3d2d394b	0.042290967
168	0x3d515049	0.051101957
169	0x3d9b6a91	0.07588685
170	0xbd7bc607	-0.06146815
171	0x3d7e79d2	0.062127896
172	0xbcf4280d	-0.029804254
173	0xbc537676	-0.012906661
174	0x3d52154f	0.051289853
175	0x3d0f02d6	0.034914814
176	0xbdc2de06	-0.09515004
177	0xbdb1c7c0	-0.086806774
178	0x3b01f402	0.0019829278
179	0xbd9cadb7	-0.07650321
180	0xbdb578b4	-0.08860913
181	0x3d6e5a7e	0.05819177
182	0xbd9fcf3a	-0.07803197
183	0xbc61540d	-0.013752949
184	0x3cdeefbf	0.02721393
185	0xbd9b4124	-0.07580784
186	0xbce3b6c7	-0.027797116
187	0xbdfcea8b	-0.12349423
188	0xbda40a38	-0.080097616
189	0x3d9b6abe	0.07588719
190	0xbd8fd6de	-0.070234045
191	0xbd91dec8	-0.0712257
192	0x3c170161	0.009216637
193	0xbd152642	-0.03641344
194	0xbd98f97b	-0.074694596
195	0xbe1d3608	-0.15352643
196	0xbda14933	-0.0787529
197	0x3cd8139a	0.026376534
198	0xbd15979c	-0.03652154
199	0xbda2c398	-0.07947463
200	0xbdf44e63	-0.119290136
201	0xbd2427e8	-0.04007712
202	0xbe265121	-0.16241886
203	0xbc2a8520	-0.010407716
204	0x3d345a6b	0.04403154
205	0xbc267142	-0.010158839
206	0xbcb895de	-0.0225324
207	0xbc940e16	-0.018073123
208	0xbc1ce90c	-0.009577047
209	0x3dce27e1	0.100662
210	0xbb697d9f	-0.0035627855
211	0xbc7d1c06	-0.015448576
212	0x3d9433e0	0.07236457
213	0xbc283256	-0.010265907
214	0xbd18d4a6	-0.037312172
215	0x3bce11ee	0.0062887585
216	0xbc9ffd9c	-0.01953011
217	0xbdfac8e0	-0.12245345
218	0xbd031a5b	-0.032007556
219	0xbd0ab8a1	-0.033867482
220	0xbd1367d2	-0.035987683
221	0x3d0aadf7	0.033857312
222	0xbd09a305	-0.033602733
223	0xbdfcc5ed	-0.12342439
224	0xbd03a43d	-0.03213905
225	0xbd8555d7	-0.06510513
226	0xbda79276	-0.08182232
227	0xbd8e0ade	-0.069356665
228	0xbd92cbac	-0.071677536
229	0xbd9d74a2	-0.076882616
230	0xbdca3c19	-0.09874744
231	0xbd94ce51	-0.07265914
232	0x3c42271f	0.0118501475
233	0xbda8343e	-0.082130894
234	0x3d21d82e	0.039512806
235	0xbe061004	-0.13092047
236	0xbd86f2b7	-0.06589263
237	0xbd5ff987	-0.054681327
238	0xbc2363c9	-0.009972521
239	0x3c46f048	0.012142248
240	0x3cab68bc	0.020923965
241	0xbe25020b	-0.1611406
242	0xbc699324	-0.014256272
243	0xbddfc123	-0.1092551
244	0x3d539ac3	0.051661264
245	0xbd077ff3	-0.033081006
246	0xbd7b0839	-0.06128714
247	0xbd12d090	-0.035843432
248	0xbe395517	-0.18098865
249	0xbd83f1f6	-0.06442635
250	0x3d7f13e2	0.06227482
251	0xbce44c6f	-0.027868478
252	0x3c69c6c5	0.014268582
253	0x3c5587ab	0.013032834
254	0xbc23dc29	-0.010001221
255	0xbda559b1	-0.08073748

fc2.bias f4 [128]
0	0xbd26e4c2	-0.040745504
1	0xbdb94fa4	-0.09048393
2	0xbd82527d	-0.0636339
3	0x3d3fed02	0.046856888
4	0x3e76ac61	0.24089195
5	0xba32488b	-0.0006800971
6	0xbdc4157d	-0.09574411
7	0x3c098a3a	0.008394772
8	0x3de014be	0.10941456
9	0xbddc9648	-0.107708514
10	0xbdae0e0c	-0.08498773
11	0x3f2bb553	0.67073554
12	0xbdc3a7e6	-0.095535085
13	0xbdc235a2	-0.09482886
14	0xbdb8533d	-0.090002514
15	0xbd28a2ee	-0.041171007
16	0x3c1123cd	0.008858633
17	0xbdfa6edd	-0.12228177
18	0xbd40a902	-0.04703618
19	0xbb696d4b	-0.0035618122
20	0xbd72b6ff	-0.05925655
21	0xbdc4e4bd	-0.09613941
22	0xbdab3f14	-0.083616406
23	0xbd9fd0bb	-0.07803484
24	0x3aac76fa	0.0013158016
25	0xbdd4faee	-0.103994235
26	0xbda37901	-0.07982064
27	0xbd5c6eed	-0.053816725
28	0xbd7bf219	-0.06151018
29	0xbc9bb478	-0.019006953
30	0xbcfd25fc	-0.030901901
31	0xbd6ccdbe	-0.0578134
32	0xb8f66daa	-0.000117506206
33	0x395957af	0.00020727397
34	0x3d12c451	0.035831753
35	0xbe0053ad	-0.1253192
36	0x3be1221d	0.0068705217
37	0xbd718ccb	-0.05897216
38	0xbd82b24e	-0.06381665
39	0xbd3a5de1	-0.045499686
40	0xbd9fe2ad	-0.07806907
41	0x3cbffa05	0.023434648
42	0xbc1a8296	-0.009430548
43	0xbc872a30	-0.016499609
44	0xbd9deb27	-0.077108674
45	0x3c60f90e	0.013731254
46	0xbb837461	-0.004011676
47	0xbd956b21	-0.07295824
48	0xbdbc5c78	-0.091973245
49	0xbdb95ca3	-0.09050872
50	0x3dba0ee0	0.090848684
51	0xbd6ab525	-0.05730166
52	0x3c70477e	0.014665483
53	0x3e9de698	0.30839992
54	0xbcd6bd4d	-0.026213313
55	0xbd8ac116	-0.067751095
56	0xbce504d9	-0.027956413
57	0xbdf1ffe8	-0.11816388
58	0xbc47622c	-0.012169402
59	0xbcdfead4	-0.027333654
60	0x3debee3e	0.115200505
61	0xbd220c6b	-0.039562624
62	0xbd4cfc88	-0.05004552
63	0xbdaf9948	-0.08574158
64	0xbca3d49d	-0.019998843
65	0xbd8ed79d	-0.06974719
66	0xbde0b6d0	-0.10972369
67	0xbdb9c9cf	-0.09071695
68	0xbdc368a0	-0.0954144
69	0xbdccd090	-0.10000718
70	0xbd8845df	-0.06653952
71	0xbd4d1ffe	-0.05007934
72	0xbd18716d	-0.037217546
73	0x3d7d1e34	0.061796382
74	0x3d79a9e9	0.060953055
75	0xbde53687	-0.11192041
76	0xbd87f8f4	-0.06639281
77	0xbd12c365	-0.035830874
78	0x3ce8cfb3	0.028419351
79	0xbcaa13fc	-0.020761482
80	0x3ee0b22a	0.43885928
81	0xbcf97016	-0.030448955
82	0xbd5195d1	-0.051168267
83	0x3bccdc7e	0.0062518707
84	0xbdf45d41	-0.11931849
85	0x3de3353b	0.11094137
86	0xbd22eb06	-0.039774917
87	0xbcc1a6a8	-0.023639038
88	0x3d763642	0.060110338
89	0x3e4f4848	0.20242417
90	0xbd686eb0	-0.056746185
91	0xbc71fd4d	-0.014769864
92	0xbdecb500	-0.115579605
93	0x3d2a2184	0.04153587
94	0xbd851fd1	-0.06500209
95	0x3d1106ff	0.035407063
96	0x3ce08179	0.027405487
97	0xbd1f15d6	-0.038839184
98	0xbd898f11	-0.06716741
99	0xbc440d1e	-0.011966018
100	0xbe305889	-0.17221273
101	0x3c897a08	0.016781822
102	0xbdbf5c9b	-0.09343835
103	0xbddc78aa	-0.10765202
104	0x3d8cede7	0.06881314
105	0xbaa9fad7	-0.0012968433
106	0xbde48760	-0.11158633
107	0xbdc1fbd7	-0.09471863
108	0xbddaa27f	-0.10675525
109	0xbd2a7afd	-0.041621197
110	0xbca33294	-0.019921578
111	0xbd9785bf	-0.07398557
112	0xbd1169d6	-0.035501324
113	0xbdabda7d	-0.08391283
114	0xbde1683e	-0.11006211
115	0x3ea8a08a	0.32934982
116	0x3cbdf444	0.023187764
117	0xbdbc4629	-0.091930695
118	0x3c9da75e	0.019244846
119	0x3d0c0a88	0.03418973
120	0x3b88cd0b	0.0041748337
121	0xbe1a8194	-0.15088493
122	0x3c290453	0.010315972
123	0xbd1447bd	-0.036201227
124	0xb98c0a0e	-0.00026710372
125	0x3e0970ad	0.13421889
126	0xbd890521	-0.066904314
127	0xbd9b9299	-0.07596321

fc3.weight f4 [1, 128]
0	0x3c780d54	0.015139896
1	0xbc654d27	-0.013995445
2	0xbc1b142d	-0.0094652595
3	0x3c942f12	0.018088851
4	0xbc215305	-0.009846454
5	0x3cc74d7e	0.024328943
6	0xbc2433db	-0.010022129
7	0xbb3a7458	-0.0028450694
8	0xbce12083	-0.027481323
9	0x3cf6c369	0.030122476
10	0x3880da25	6.144148e-05
11	0xbc563fac	-0.013076704
12	0xbccd5e53	-0.025069391
13	0x3b402493	0.0029318675
14	0xbc553af6	-0.013014546
15	0x3bbe59a3	0.0058090254
16	0xba82693b	-0.0009949574
17	0x3ca41843	0.0200311
18	0xba851163	-0.0010152276
19	0x3c7f5c80	0.015586019
20	0xbbae5d7e	-0.0053212037
21	0x3be07b31	0.006850623
22	0x3bed6050	0.0072441474
23	0x3b69707e	0.003562003
24	0x3ca607f6	0.020267468
25	0x3becd808	0.0072279014
26	0xbc91b03c	-0.01778423
27	0xbce65df0	-0.028120965
28	0xba61453e	-0.0008593387
29	0xbb0ee108	-0.002180161
30	0xbc735f88	-0.014854319
31	0xbc0a93c9	-0.008458086
32	0xbcf96bb6	-0.030446868
33	0xbc56190f	-0.013067498
34	0xbca40f2a	-0.020026762
35	0xbcc9a3de	-0.02461427
36	0x3bbcfd8f	0.005767531
37	0x3c382cb0	0.011241123
38	0xbc8d2acb	-0.01723232
39	0xbcc63a29	-0.024197655
40	0x3a55bb08	0.0008153175
41	0xbc004e29	-0.007831135
42	0x3add763f	0.0016896202
43	0x3c13ff6c	0.009033065
44	0xbb7adff5	-0.0038280461
45	0xbc47a707	-0.0121858185
46	0x3b99b495	0.0046907165
47	0x3aa036e0	0.0012223385
48	0xbbabba6f	-0.0052407305
49	0x3b96c69a	0.004601312
50	0xbc9097cf	-0.017650513
51	0xbc5599c0	-0.013037145
52	0x3c2c321a	0.010509992
53	0xbc46049f	-0.012086063
54	0xbbbd7152	-0.005781331
55	0xbca8d410	-0.020608932
56	0x3c0d552c	0.008626264
57	0xba4b5fe9	-0.0007758127
58	0xbc247fb0	-0.010040209
59	0xbb82f1df	-0.0039961184
60	0x3ca838aa	0.020534832
61	0x3cba86a7	0.022769285
62	0xbb80ad48	-0.0039269067
63	0x3cbb9afb	0.022901049
64	0x3a182193	0.0005803343
65	0x3c845822	0.016155306
66	0xbc1026c8	-0.008798309
67	0xbc11c10f	-0.008896126
68	0x3b0e3a10	0.0021702088
69	0xbb9cf190	-0.0047895387
70	0xbbb9e18a	-0.0056726383
71	0x3a37e5a6	0.0007015116
72	0x3bbcafb1	0.0057582487
73	0xbc000d74	-0.0078157075
74	0xbc6046cd	-0.013688755
75	0xbb914e62	-0.004434393
76	0xbb041574	-0.0020154389
77	0x3bd9434a	0.006630336
78	0x3bed69d8	0.0072452836
79	0x3c1c3aed	0.009535533
80	0xbc58b72c	-0.013227265
81	0x3ceeabdc	0.029134683
82	0x3cb7dfc4	0.022445567
83	0xbba9682f	-0.0051698904
84	0x3b1bc666	0.0023769378
85	0x3c5d478a	0.013505826
86	0x3ce81ef8	0.02833508
87	0x3c4277b6	0.011869362
88	0xbc61cfc9	-0.01378245
89	0xbc3ed46f	-0.011647328
90	0xba552d52	-0.00081320584
91	0x3c28f03a	0.010311181
92	0xbb4ff710	-0.0031732954
93	0xbd0ae59b	-0.033910375
94	0x3ca05fef	0.019576995
95	0x3c190202	0.009338858
96	0x3ba7ad59	0.0051171
97	0xbc7203b8	-0.014771394
98	0x3bf03913	0.0073310225
99	0x3c23d8c5	0.010000412
100	0xbc8ba908	-0.017048374
101	0x3ba217c9	0.004946683
102	0xbcdf87b9	-0.027286397
103	0xbc87a421	-0.016557755
104	0x3c526287	0.012840874
105	0x3bc86f1a	0.00611676
106	0xbc1cff28	-0.009582318
107	0x3c6c09e7	0.014406658
108	0xbc1c3c5c	-0.009535875
109	0xbc70fdb1	-0.014708922
110	0x3ca1054e	0.01965585
111	0xbca0b706	-0.019618522
112	0xbb90b9ad	-0.0044166655
113	0x3cd02484	0.025408037
114	0xbb249caa	-0.0025117793
115	0xbc6ebb6a	-0.01457105
116	0xbc190b49	-0.0093410695
117	0x3908284b	0.00012984981
118	0xbc0e9275	-0.00870191
119	0x3b617b8f	0.0034405922
120	0xbc04d883	-0.008108261
121	0xbc122197	-0.008919141
122	0x3cb5d22c	0.022194944
123	0xbc2a2f89	-0.01038731
124	0x3bc1d1bd	0.0059148953
125	0xbc42fd62	-0.0119012315
126	0xb9e711e8	-0.00044073095
127	0x3aa11097	0.0012288269
