v2/checkpoint_actor_0.pth (torch_old, 183806 bytes, 6 tensors)

fc1.weight f4 [256, 48]
000000 f7 39 9b 3c f9 09 db 3e e6 20 4d be 71 22 ea 3d
       0.018948538 0.42781046 -0.20032081 0.114323504
000010 be 07 0b 3e 05 c8 d9 be 74 f3 47 be 0e b1 2b 3e
       0.13577172 -0.42535415 -0.19526464 0.1676676
000020 77 2f c3 3d 92 82 15 3f 24 b7 92 bd 70 42 aa 3c
       0.095305376 0.5840236 -0.071638376 0.020783633
000030 30 b7 13 3e 27 ec 46 bf 70 d3 20 bc 8e 61 e4 3d
       0.14425349 -0.7770409 -0.009816036 0.111514196
000040 72 9e fb 3d 42 c3 09 3f 2b 71 8e bd d0 d7 d6 3d
       0.122860804 0.53813565 -0.06955179 0.10490382
000050 d7 70 66 3e 69 76 70 bf 32 e9 fd bc fb 34 33 3e
       0.22503982 -0.9393068 -0.030994985 0.17500679
000060 e3 0e 47 3e e7 80 fc 3b 5c f6 af 3d 9f d1 53 3e
       0.19439273 0.007705796 0.08591911 0.20685433
000070 80 67 0d be 87 dd f4 be f9 0d 39 3e 6d 76 59 3e
       -0.13809013 -0.47825262 0.18071736 0.21236582
000080 4c d1 85 3e d7 90 12 3e f0 bd 1b 3e bd 86 71 3e
       0.26136243 0.14313065 0.15209174 0.23586555
000090 52 22 28 be 9e 7a 46 bf 98 34 f4 3d 00 d9 90 3e
       -0.16419342 -0.7753085 0.11924094 0.28290558
0000a0 4d c2 71 3e 6d 6f 45 3e a7 a0 3e 3e 11 69 22 3d
       0.23609276 0.19280787 0.18615972 0.03965098
0000b0 d0 0d 5d be 85 2e 6f bf eb 65 6e 3e c8 49 93 3d
       -0.215873 -0.9343036 0.23281066 0.07191807
0000c0 21 ce c4 bb 46 d2 c5 3e ab 3f d8 bd 7b e6 33 3d
       -0.006006018 0.38636988 -0.10559019 0.043920975
0000d0 89 b5 26 3e 01 98 5b be ef ba 94 bd 98 e1 8a 3d
       0.16280188 -0.21444704 -0.07262217 0.0678131
0000e0 cd 41 4d 3d ae b1 c2 3e 9b 61 f5 bd 01 5b 1b 3e
       0.05011158 0.38026184 -0.119815074 0.15171434
0000f0 21 7b 13 3e 6c c5 c7 bd d5 e1 fa bc 41 2e 43 3e
       0.14402439 -0.09754452 -0.030625263 0.19060613
000100 64 14 20 3d 04 88 dd 3e 87 85 8b 3d 95 3a 79 3e
       0.039081946 0.43267834 0.06812578 0.24338754
000110 86 e8 74 3d 27 cc 18 be c6 18 5c 3d 7f 52 4b 3e
       0.059792064 -0.14921628 0.053734563 0.19855689
000120 ef ce 88 3e b5 41 34 3f 27 cc 8c 3e de a1 7a be
       0.26720378 0.7041276 0.27499506 -0.2447581
000130 0f 4c 57 be 3d 17 61 be 61 d0 8a 3e 40 a9 96 be
       -0.21025108 -0.21981521 0.27112105 -0.29426003
000140 b3 d3 8c 3e 45 7f fd 3e 73 06 35 bd d0 84 19 be
       0.27505264 0.4951116 -0.044195604 -0.1499207
000150 d3 b1 18 be 49 a6 52 be ab 8d 91 bd 38 a7 5c be
       -0.14911585 -0.20571245 -0.07107099 -0.21548164
000160 ee c8 8d 3e 93 24 e2 3e 28 74 22 3e 19 7c fc be
       0.2769236 0.4416853 0.15864623 -0.4931343
000170 2c f6 26 be 81 e1 fe bd 79 e8 b3 3d 36 1f e8 be
       -0.16304845 -0.12445355 0.08784575 -0.45336312
000180 70 7d 18 3c 31 27 05 3f 08 da 18 bd eb 0a 4b 3d
       0.00930725 0.52012926 -0.037317306 0.04957096
000190 34 9f c8 bd 86 43 d5 be 3e 5b 85 bd 3e ce 11 3e
       -0.097959906 -0.4165308 -0.06511544 0.14238831
0001a0 e2 d6 40 bd 57 0f 17 3f 95 9f 3c be 7c 77 9e 3e
       -0.04707993 0.5900778 -0.1842025 0.30950534
0001b0 30 18 d8 bd e0 ce 0a bf c7 14 5c be 90 e5 68 3e
       -0.105514884 -0.54221916 -0.21492301 0.22743821
0001c0 1a 45 43 bd e3 4f 2e 3f 6f 24 29 3e 8f b9 e8 3d
       -0.047673322 0.6809065 0.16517805 0.113635175
0001d0 90 4e a5 bc 30 8c 4c bf bb 10 19 3e c8 88 03 3e
       -0.020179063 -0.7990141 0.14947788 0.12845147
0001e0 1e 7e 90 3e 18 dc b7 bc 79 19 41 be c7 36 17 3d
       0.2822122 -0.022443816 -0.18857373 0.036917474
0001f0 47 87 7f 3d 00 9a d5 be 9b 9d f6 bd 23 12 5d 3c
       0.06238487 -0.41719055 -0.120417796 0.013493094
000200 de fd 6b 3e 5e 38 c3 3d 54 dd c9 bd 43 d5 0f 3e
       0.23046061 0.095322356 -0.09856668 0.14046197
000210 bd 92 75 3d 3f 7f 06 bf cd b5 16 bd ab 42 2c 3d
       0.059954394 -0.5253791 -0.036794472 0.042055767
000220 31 8c 69 3e 36 df af 3d 9c 51 3f be e1 49 fe 3d
       0.22807385 0.08587496 -0.18683475 0.12416435
000230 5c f0 93 3b 10 40 55 bf 38 58 a4 bd a5 45 bd 3d
       0.004514737 -0.83300877 -0.08024639 0.09241799
000240 b7 5f 00 3f 31 5f 96 3e e5 e7 3a 3c e4 fd 92 3d
       0.5014605 0.293695 0.011407827 0.07177332
000250 08 ae 9b be c5 11 0e bf f0 4d 72 3d 3d 3b c8 3b
       -0.30406213 -0.55495864 0.05915636 0.0061105774
000260 c7 85 e4 3e f9 a8 96 3e a9 9b 51 3d 66 dd 13 3e
       0.44633314 0.2942579 0.05117384 0.14439926
000270 08 bf 5d be b6 50 25 bf fd 6e eb 3c c4 1a 2b 3e
       -0.21654904 -0.6457628 0.028739447 0.16709429
000280 e8 4b f6 3e 9e ae cd 3e cf aa 71 3d 7f da f9 3e
       0.48104787 0.40172285 0.059000786 0.48799512
000290 bf 23 39 be 0b 4f 4e bf 0b c0 0f bd 2e 4c 02 3f
       -0.18080042 -0.8058936 -0.035095256 0.5089749
0002a0 2a bc a6 3c 6a 9b e6 3e d4 6f f7 37 ac 29 2e be
       0.020353395 0.45040447 2.9496769e-05 -0.17008084
0002b0 2f 9d 52 3e 4b c0 17 bf 9e 5e e1 3c 4c ee 30 be
       0.20567773 -0.5927779 0.027510937 -0.17278403
0002c0 6b 94 4b 3d f8 d6 c9 3e c4 30 f7 bd 15 ef 72 be
       0.04970209 0.3942182 -0.12069848 -0.23724015
0002d0 24 f4 7c 3e 02 b7 30 bf 6b dc b0 bd 01 e5 9a be
       0.24702507 -0.6902925 -0.086357914 -0.3025284
0002e0 f0 d0 93 3d 63 c8 b9 3e c1 e2 27 be ba d0 84 be
       0.07217586 0.36285695 -0.16395094 -0.25940496
0002f0 91 d8 75 3e 39 ed 31 bf d5 f0 7d be 27 48 8b be
       0.24008395 -0.695026 -0.24798901 -0.27203485
000300 2d ca b2 bc 82 f7 7c 3f ee f0 07 bd bc 44 f9 bc
       -0.02182492 0.98815167 -0.033188753 -0.030428283
000310 61 92 18 3d cd 1f cc bd e0 68 09 3d 89 59 67 bd
       0.037248973 -0.09967003 0.033547282 -0.05648187
000320 89 00 82 bd 3f 3d 30 3f a6 00 29 bc 62 53 88 be
       -0.06347758 0.68843454 -0.010315096 -0.26626116
000330 63 c6 bc 3e d7 a8 11 3e 9d ba 9e bd cc 34 67 be
       0.36870107 0.14224564 -0.077504374 -0.22578734
000340 12 9b dc 3c fd ae 3d 3f 28 32 69 bd 27 37 b0 be
       0.026929412 0.74095136 -0.0569326 -0.34417078
000350 a1 c7 a2 3e a6 07 0c bd 81 d9 6d bc 85 1b d2 be
       0.3179293 -0.03418698 -0.014517189 -0.4103662
000360 94 38 00 3f f0 f7 4e 3f c0 bb bc bd a9 48 ae 3b
       0.5008633 0.8084707 -0.09215498 0.0053187204
000370 a9 e8 dc bd c9 5d 80 bd e0 bd 05 bd c7 a1 00 3e
       -0.10786564 -0.06267888 -0.032651782 0.12561713
000380 73 c2 86 3e 07 73 04 3f 5f e8 45 be 10 d7 32 bd
       0.26320228 0.5173802 -0.19326924 -0.04366213
000390 c9 2f c0 be 79 50 8b 3d f3 82 0e be 16 77 d8 bd
       -0.37536457 0.06802458 -0.1391714 -0.10569589
0003a0 1f c8 89 3e 95 cd 09 3f 89 8d 0e be 9c 10 d3 bc
       0.26910493 0.5382932 -0.13921179 -0.025764756
0003b0 1e 12 85 be ca 84 74 bd a1 9a 9d bd 1d a6 a2 bd
       -0.25990385 -0.05969695 -0.07695509 -0.0794184
0003c0 fe 36 0c 3f 73 f0 07 bf 9d 69 8e 3d e6 30 b1 3e
       0.5477141 -0.5310127 0.06953738 0.3460762
0003d0 63 87 54 3e 92 50 a2 3d 30 93 b1 3d 7e 70 b0 3e
       0.20754771 0.07925524 0.08670652 0.34460825
0003e0 d2 6f e6 3e a2 07 cb be de 57 9a bc 1c 6b 5f 3e
       0.45007187 -0.3965426 -0.018840726 0.21818203
0003f0 c3 ff 0a 3e 51 fc 95 3d 2f cf 20 bd 58 3a 5b 3e
       0.13574128 0.07323516 -0.039260086 0.21408975

fc1.bias f4 [256]
000000 f9 d4 1c be 41 6e 1e be 16 2a 4a be e7 18 63 be
       -0.15315618 -0.15471746 -0.19742617 -0.22177468
000010 56 14 95 be 0d 0d 23 be e5 81 32 be bf 4d 39 be
       -0.29117078 -0.15922947 -0.17432363 -0.18096064
000020 a7 3f 7e be 29 87 52 be 11 a8 55 be 16 2d 85 3d
       -0.24828969 -0.20559372 -0.20864893 0.0650274
000030 1c 44 0e 3d 29 05 a5 3d 31 0f e8 be 76 a0 a5 be
       0.034732923 0.08057625 -0.4532409 -0.32348984
000040 8a c2 8c 3d 8e 0f 80 be dd ab b7 be 95 d4 14 be
       0.06873043 -0.25011867 -0.3587331 -0.14534219
000050 2f 11 3a be 97 bd f4 be 1b ec 11 be 35 e4 bb be
       -0.18170618 -0.47800896 -0.14250223 -0.36697546
000060 ad 69 6c bd 63 6b 83 be 28 33 b7 be 23 f6 6f be
       -0.057717968 -0.25667867 -0.35781217 -0.23433737
000070 b7 15 b2 be ef 9d 35 be ea 63 44 be 0c 3b df bd
       -0.34782192 -0.17736028 -0.19178739 -0.10899934
000080 f7 e9 1f be 5c f1 dd bc df 2d fd bd 38 00 03 bf
       -0.15616594 -0.027092628 -0.12362265 -0.5117221
000090 6d ca 9e be 8d a2 e3 bd 2e 61 47 be 93 10 18 be
       -0.31013814 -0.111149885 -0.19470665 -0.14850073
0000a0 5e 2b 2e be 0b e6 d8 be c1 f8 63 be b2 70 97 be
       -0.17008731 -0.4236301 -0.22262861 -0.29578167
0000b0 0c 08 b9 be 6c 5a ae be 9b 47 9b be 66 37 b1 be
       -0.36138952 -0.3405336 -0.30328068 -0.34612578
0000c0 c5 bc 5f be 64 db 7a bd 80 30 2c be 51 1f 34 be
       -0.21849354 -0.061244383 -0.16815376 -0.17590071
0000d0 d2 5c 34 be f8 21 73 be 8d 53 af be 82 59 31 3d
       -0.17613533 -0.23743427 -0.34243432 0.043298252
0000e0 e2 82 1f be af f2 36 3e 67 8a 99 bd f9 14 9d bd
       -0.15577272 0.17866014 -0.07497101 -0.07670016
0000f0 7e ed 4d be f0 e7 d7 bd 9e 02 f6 bd 12 22 68 bd
       -0.20110127 -0.105422854 -0.12012218 -0.056673117
000100 61 67 47 3d ec a2 b1 be fa 4d 56 be 40 f8 9e be
       0.048682574 -0.34694612 -0.20928183 -0.31048775
000110 41 a2 b3 be 61 40 95 be 38 ea 85 be ff b0 38 be
       -0.35084727 -0.2915068 -0.26155257 -0.18036269
000120 d7 f8 0d be 75 94 a9 3c b2 ea 19 ba e1 99 d3 bd
       -0.13864456 0.020700673 -0.0005871459 -0.103320844
000130 56 c3 28 be e9 ca 68 3d 25 f7 90 be 3a f3 84 be
       -0.16480765 0.056834135 -0.28313556 -0.25966817
000140 99 51 53 be 1c fe 09 3e 4b 30 85 be 23 78 a6 be
       -0.20636596 0.13475841 -0.26013407 -0.32513532
000150 dc d7 a4 3c b8 a9 ca be df 4d ea be 8a 33 08 be
       0.020122461 -0.3958261 -0.45762536 -0.1330091
000160 dd 3a 27 be 56 33 ff 3d 18 1e 93 be b5 9d 8c be
       -0.16331048 0.124609634 -0.28733897 -0.2746407
000170 8c e2 16 be 79 52 8d 3d 73 48 f9 bd 7a 6f ac be
       -0.14734858 0.06900496 -0.12172022 -0.336788
000180 8c ac 1b be 33 4c 75 be 79 60 34 be e9 cc 3c be
       -0.1520254 -0.23954849 -0.17614926 -0.18437542
000190 86 6c 0d 3e d5 e4 1e be e7 15 4f be 37 83 53 be
       0.1381093 -0.1551698 -0.20223199 -0.20655523
0001a0 cd 5a 95 be 87 b1 16 be 4f dd fc bd 33 20 37 be
       -0.29170838 -0.14716159 -0.12346899 -0.17883377
0001b0 d7 14 03 bd 4d 57 7a 3c 3b c4 5d be 8c 9a 50 be
       -0.032002296 0.015279603 -0.21656887 -0.20371455
0001c0 e2 1a 96 be 7f 0b bf be 2e 74 b4 be d9 38 35 be
       -0.29317385 -0.37313458 -0.35244888 -0.17697467
0001d0 81 19 94 be f1 50 dd bd 33 e3 bf be be 5a 83 be
       -0.28925708 -0.10806454 -0.37478027 -0.25655168
0001e0 e7 9b b9 be d5 fe 55 3d 3f e8 a8 be 45 ba 0f be
       -0.36251757 0.05224498 -0.3298969 -0.140359
0001f0 4e f1 a5 be 4e 4f 8f 3d 00 29 1a bd 03 4c 3b be
       -0.32410663 0.06997548 -0.037636757 -0.18290715
000200 cb 01 58 be 6c 04 b7 be f6 c4 3f be 5f fc ce be
       -0.21094434 -0.3574556 -0.18727478 -0.4042692
000210 0e 44 89 bd 3e 0f a8 be 75 64 75 be 3c c6 80 bd
       -0.067024335 -0.3282413 -0.23964103 -0.0628781
000220 1e 9c 14 bd e2 d1 80 be 4a f3 1e be 62 04 93 3b
       -0.036281697 -0.25160128 -0.15522495 0.0044866065
000230 af b5 b0 be 5a 9e db be 20 81 d0 be 86 aa 71 be
       -0.34513614 -0.4289425 -0.40723515 -0.23600206
000240 cf 4b 2f bd e8 05 28 be 2a 6c 5e bd 01 88 49 be
       -0.042796906 -0.16408503 -0.054302372 -0.19680788
000250 51 49 9f bd 1d 4e 98 bc c4 d4 61 be 2d e8 d4 be
       -0.07777656 -0.018591935 -0.2205382 -0.41583386
000260 f6 d6 1b 3e 54 58 38 be 69 61 80 be 32 49 cf be
       0.1521872 -0.18002445 -0.25074318 -0.4048553
000270 2b b6 9b be fd c1 33 bc a8 62 4e be 35 46 42 be
       -0.3041242 -0.010971543 -0.20154822 -0.18972094
000280 a6 3a 12 be fc e3 94 bd 20 bd a1 3d 93 ea a7 be
       -0.14280185 -0.07270047 0.07897401 -0.32796153
000290 14 22 88 be 99 6c 88 be 59 8b da be 77 e8 17 be
       -0.265885 -0.26645353 -0.4268444 -0.14834772
0002a0 89 ba 9b be be a0 7f be d3 5f 86 be b8 e1 05 be
       -0.30415753 -0.24963662 -0.26244983 -0.13074386
0002b0 7a 21 c8 be ab a1 84 bd ef ed 79 be 9e 86 4b be
       -0.3908804 -0.06476148 -0.2440717 -0.19875571
0002c0 b3 f7 e8 3d 70 05 74 be 09 7e 52 be 37 7c e1 bd
       0.1137537 -0.23830199 -0.20555891 -0.1101002
0002d0 d8 a1 46 be 19 25 5c be d5 7c 72 be 54 d2 15 be
       -0.19397676 -0.21498527 -0.23680432 -0.14631015
0002e0 d6 be 9e be ab 9b 3d be 8f 46 c7 bc d3 99 77 3e
       -0.3100497 -0.18516414 -0.024325637 0.24179773
0002f0 b4 73 8d be e8 0c f3 bd cf d4 36 be 76 00 b7 bd
       -0.27627337 -0.11867696 -0.17854618 -0.08935635
000300 41 b9 9a 3d 50 79 06 bd ae 97 7a be 54 27 63 be
       0.07554866 -0.032830536 -0.24471924 -0.22182971
000310 09 2e 91 be 2a 76 a7 be b9 c9 b8 be 95 7d b3 be
       -0.28355435 -0.3270734 -0.36091402 -0.3505675
000320 59 8a 83 be c0 0a 1e be 4a 19 a8 be 96 09 94 be
       -0.25691488 -0.15433788 -0.32831794 -0.28913563
000330 8a d8 d8 bd 7a 86 ab bd 29 f9 99 be b1 09 e8 be
       -0.105881765 -0.08375259 -0.30072907 -0.45319894
000340 07 3d 3c be d1 26 41 be 75 c3 e9 bd 06 d5 84 be
       -0.18382655 -0.18862464 -0.114142336 -0.25943774
000350 40 ca 29 be b5 75 1b be d0 92 9b be 03 4e 03 be
       -0.16581059 -0.1518162 -0.30385447 -0.12822728
000360 67 b8 11 be 82 e4 85 bd 8d a6 8e be b6 4b 48 be
       -0.142305 -0.06537725 -0.27861443 -0.19560131
000370 26 ec 9e bd 57 f2 b8 be 47 6d 4b be d1 88 48 be
       -0.077598855 -0.3612239 -0.19865905 -0.19583441
000380 00 68 44 bd 67 8d c3 be f2 36 bc be d5 aa 85 be
       -0.047950745 -0.3819382 -0.3676067 -0.26106897
000390 65 ee 37 be a1 63 be be cf 1a ba be e4 8f 96 bd
       -0.17962034 -0.37185386 -0.36348578 -0.07351664
0003a0 c1 22 10 be 6b ef a8 be 56 98 32 be ea e6 af 3b
       -0.14075758 -0.3299516 -0.17440924 0.0053681033
0003b0 ef af 54 be 81 21 d5 bd e0 35 c8 3c 1c a2 0c bd
       -0.20770238 -0.10406781 0.024439752 -0.034334287
0003c0 00 9d b2 bd af 57 82 be fb 68 3c be 94 05 91 be
       -0.087213516 -0.25457522 -0.18399422 -0.28324568
0003d0 9b d7 8a be 63 d9 8a be 0e 56 98 be c4 85 42 be
       -0.2711762 -0.27118978 -0.29753155 -0.1899634
0003e0 68 76 1f bd 71 d0 3a bd 74 5b be be eb 16 47 be
       -0.03893128 -0.04560894 -0.37179148 -0.19442336
0003f0 ce d6 b0 be 5a f0 39 bd c3 2a 37 be 47 c8 94 be
       -0.34538883 -0.045395233 -0.17887406 -0.2905905

fc2.weight f4 [128, 256]
000000 e0 50 f8 3d 03 ab bd 3b 71 a1 14 3e 5b f3 eb 3e
       0.12124801 0.0057882085 0.1451471 0.46084103
000010 e8 65 50 be ff 51 81 be 23 01 95 be 7a eb 12 bd
       -0.20351374 -0.2525787 -0.2910243 -0.0358691
000020 0f 4b 5b 3b 89 96 62 bd cd 49 2a be 02 ca 23 be
       0.0033461486 -0.055319343 -0.16629715 -0.15995029
000030 3d 92 af 3d 73 ea ac be 22 41 11 be 0a a1 03 be
       0.085728146 -0.3377262 -0.14185002 -0.128544
000040 ec 5f 5f bd 3c a8 f6 3b 72 ef 0b bd 1a b9 08 be
       -0.054534838 0.0075273793 -0.0341639 -0.1335186
000050 54 e3 3e be 69 e1 02 be e6 60 6b 3e 7e ff 19 be
       -0.18641406 -0.127813 0.22986183 -0.15038869
000060 6d 40 a4 3d 92 75 2b bc 5f e4 85 bd 9f 77 97 bd
       0.08020101 -0.010465043 -0.06537699 -0.07395863
000070 fe df a6 bd 3a 10 dc be f5 01 74 be 1f de ac bc
       -0.08148192 -0.4298113 -0.23828872 -0.02110201
000080 5a a9 85 3e d3 a2 27 bd 36 49 98 be 83 13 97 be
       0.26105767 -0.040926766 -0.29743356 -0.29507074
000090 8f f9 3c be 17 1c 39 bd 38 ab c2 3b 67 83 3a be
       -0.18454574 -0.045192804 0.005940821 -0.18214189
0000a0 c5 5b 1c be 69 b7 ee 3d b2 3a 98 be 25 6b 06 be
       -0.15269382 0.116560765 -0.2973228 -0.1312681
0000b0 89 f1 b4 be f1 7c a4 bd f5 ec d5 bd 96 21 27 3e
       -0.35340527 -0.08031643 -0.104455866 0.16321406
0000c0 48 fe d0 3c f7 0e 95 3e f5 37 46 3e bf 1d 27 3e
       0.025511876 0.2911298 0.19357283 0.16319941
0000d0 42 4c 1b 3d 95 7e 53 be 70 a4 e0 bd 3b 07 9f 3c
       0.037914522 -0.20653756 -0.10968864 0.019412627
0000e0 12 3a fa bd 60 45 43 bd de fe 99 be fb aa 5d 3d
       -0.12218107 -0.047673583 -0.3007726 0.054118138
0000f0 68 4c 58 3e 85 ae bb 3e aa f4 15 be 84 0a 0e be
       0.21122897 0.36656585 -0.14644113 -0.13871199
000100 c7 f6 95 be 09 65 0c bd 9e 7e 03 3d f1 2e 86 be
       -0.2928984 -0.034276042 0.032103173 -0.26207688
000110 9b dc a9 bd fe d6 2f bd 90 b5 98 be 02 99 d8 bd
       -0.0829403 -0.042929642 -0.2982602 -0.10576059
000120 c9 3f 30 3b ef 59 44 be e7 77 7a 3e 8a c8 69 3d
       0.0026893488 -0.19174932 0.24459802 0.057076015
000130 60 fb 3d bd 5a 12 f4 3a a1 a1 16 be 47 76 34 bc
       -0.046382308 0.0018621192 -0.14710094 -0.011014528
000140 78 c6 85 be 75 a4 18 be e3 08 d0 3b 8e 27 67 3d
       -0.26127982 -0.14906485 0.0063487156 0.056434207
000150 22 d0 a8 bc 27 ff 47 3e 5b f9 80 3d b4 32 5b 3d
       -0.020607058 0.19530927 0.06297561 0.05351515
000160 be 33 04 bf cc a0 53 3e 65 56 06 be 9b 7d 82 bc
       -0.5164145 0.20666808 -0.13118894 -0.015929034
000170 e4 0c db 3b f4 3f 3b 3e 71 c6 ea 3d ed 8a 90 bd
       0.0066848863 0.18286115 0.11463631 -0.07057748
000180 76 d0 e8 3c 6d d1 89 bd b7 d1 c7 3e d0 3f c3 bd
       0.028419714 -0.06729398 0.39027187 -0.09533656
000190 36 87 2e 3d 03 f3 b7 bd 53 c3 ed bd 8a 12 95 bd
       0.042609416 -0.08981898 -0.11609521 -0.07278927
0001a0 8d a2 01 bd eb d5 81 3d 81 7d ff 3c 77 86 b2 3d
       -0.03164916 0.0633963 0.031187775 0.087170534
0001b0 d6 2a 90 3d ed 93 24 be d3 b1 28 bc b7 55 ab 3e
       0.0703942 -0.16072054 -0.010296303 0.33463833
0001c0 da 85 cd bd 90 bc 7e be 3d f2 42 be 03 19 55 bd
       -0.10035296 -0.24876618 -0.19037719 -0.052025806
0001d0 4d a9 bf bd b7 bd 81 bd 17 f2 af be 40 8c b6 bd
       -0.093584634 -0.06335013 -0.34364387 -0.08913469
0001e0 06 a4 34 bd 5c 6d 62 bd c7 1f 33 be 0a b3 14 be
       -0.044101737 -0.055280074 -0.17492591 -0.14521423
0001f0 b7 0f 31 3e a9 54 b6 bd 99 d2 05 bd 90 3a 44 bd
       0.17291151 -0.089028664 -0.032671545 -0.047907412
000200 28 a5 bd bc 5d ac b8 3e f1 1d b5 bd a6 74 40 3c
       -0.023150042 0.36069003 -0.088436015 0.011746561
000210 2e a0 2c be 38 c7 41 3e 95 a9 23 3e bb e9 4d 3e
       -0.16857979 0.18923652 0.15982659 0.20108692
000220 24 c5 3f be 0e 76 32 bc 87 32 bd 3d cf e9 29 be
       -0.18727547 -0.010892404 0.09238153 -0.16593097
000230 e7 95 9c 3d 55 8c ee bc f3 22 61 ba 82 b2 4e be
       0.07645779 -0.02911965 -0.00085882767 -0.20185283
000240 6c 03 54 3e 4e 32 c0 bd 42 60 6b 3e 4c ed 9b bd
       0.2070443 -0.09384595 0.22985938 -0.0761362
000250 fa cf 91 3d 76 48 32 3e 38 9a 11 be a1 3a 0a bd
       0.071197465 0.17410454 -0.14218986 -0.03374732
000260 aa 62 80 3e 96 88 b1 bd 12 50 a0 3e 85 3c 51 3d
       0.25075275 -0.0866863 0.3131109 0.051083107
000270 b7 3a d2 3d e2 e3 bd ba a1 bc 96 be fe 76 85 be
       0.10265105 -0.001448747 -0.29440787 -0.26067346
000280 a7 39 65 bd e6 fd f0 bd 65 c0 95 be 2f a8 10 3e
       -0.055963185 -0.11767177 -0.29248348 0.14126657
000290 44 03 3b 3e 00 8a 0f 3e ea 85 3f be d9 e5 c5 3d
       0.18262964 0.14017487 -0.18703428 0.096629806
0002a0 7c 6a d4 be 65 67 1c be a7 a5 10 3c 25 01 18 bd
       -0.4148749 -0.15273817 0.008828557 -0.037110467
0002b0 a1 c2 4d 3c 5b e3 1d bc 30 c4 4e 3d e9 a0 6e bd
       0.01255861 -0.009636725 0.050480068 -0.058258925
0002c0 ff f1 fc 3d fa 9f 61 be 3d a0 03 3e e3 57 e4 bd
       0.123508446 -0.22033682 0.12854095 -0.111495756
0002d0 44 e7 a0 3d 35 ef 60 be d6 c7 97 3e 23 08 6b bd
       0.078566104 -0.2196625 0.2964465 -0.057380807
0002e0 8e 0d b2 3b 0d 55 e5 bd 9b ad 66 3d 27 af c2 bc
       0.0054337448 -0.11197863 0.056317907 -0.02376516
0002f0 5a 6a a5 be f1 1c 34 3e f9 bd 83 bd 0e ff bd bc
       -0.32307702 0.17589165 -0.06432719 -0.023192909
000300 ba 8f b8 be 0b b8 14 bd 41 b5 5b bd 55 20 24 bd
       -0.36047155 -0.03630833 -0.053639654 -0.040069897
000310 0c 10 03 3e 45 9e 2c bb 09 f0 99 3d c3 fc 59 3e
       0.1279909 -0.0026339453 0.07516486 0.21287827
000320 c9 ca 23 bd 21 f3 30 be ce 88 9d bc e0 cf 97 be
       -0.039988313 -0.17280246 -0.019230273 -0.29650784
000330 e9 29 0e 3e 5b 28 ce be 2b 02 d5 bd b6 6a 98 3d
       0.13883175 -0.40265164 -0.10400804 0.074422285
000340 a9 8b 04 bd 09 d5 da bc dd fa bc bc 4f 8f 37 bc
       -0.032359753 -0.026712911 -0.02306884 -0.011203601
000350 90 17 f7 bd 16 e0 15 be 66 3a 0c be c4 74 2c 3e
       -0.12065041 -0.14636263 -0.13694152 0.16841418
000360 8a d7 81 3b 82 94 b0 be 04 56 21 3e 36 57 e1 bd
       0.003962462 -0.34488302 0.15755469 -0.11002962
000370 71 f9 57 3e 4d a4 d4 bd 68 45 d1 ba ac 66 c4 3d
       0.21091248 -0.103829004 -0.0015966119 0.095898956
000380 21 f6 3e 3d 41 1f 1f be 71 05 a1 3e 3d 00 91 3d
       0.046621446 -0.15539266 0.31449464 0.070801236
000390 97 b7 dc bb 07 35 18 be 33 41 dd bb 2c 6b 24 be
       -0.006735753 -0.14863978 -0.006752157 -0.16056508
0003a0 22 2b 47 be 48 bb d7 3d 71 10 3c 3d a5 60 16 3d
       -0.19450048 0.10533768 0.045914117 0.03671326
0003b0 07 57 e4 bd 62 da ab bd 87 00 a1 bd 93 83 9d be
       -0.11149412 -0.083912626 -0.07861429 -0.30764446
0003c0 1d 76 09 be 76 2c dd be 32 2f 7f bc 13 1f 9f be
       -0.13423963 -0.43197984 -0.015575217 -0.31078395
0003d0 8e a8 a8 bd 99 d8 42 be 40 56 e9 3d 9a a4 e7 bb
       -0.08235274 -0.19027938 0.11393404 -0.0070691826
0003e0 bd 32 ad 3c 62 e0 72 3e a3 cb 53 be 34 84 2c bd
       0.021142358 0.23718408 -0.2068315 -0.042118266
0003f0 db d9 d1 be c0 bf 3a 3d 4d cb 37 be 22 25 eb 3d
       -0.40986523 0.045593023 -0.17948647 0.11481692

fc2.bias f4 [128]
000000 f6 bf 90 bd 4f 6c 3d bd 05 fa c8 be 9f 52 85 be
       -0.07067864 -0.04624587 -0.3925325 -0.26039597
000010 9e f4 33 bd 27 e0 16 be 51 86 a9 bd 5f c4 ae bd
       -0.043934457 -0.14733945 -0.08277572 -0.085335486
000020 10 ba 75 be 92 76 ec be 69 c7 19 be 41 42 f6 bc
       -0.23996758 -0.46184212 -0.15017475 -0.03006089
000030 e0 80 fa bd 59 71 6b bc 3d e9 b7 bd c2 e5 01 be
       -0.12231612 -0.014370286 -0.089800335 -0.12685302
000040 7a 84 6f be 62 1d 17 be 33 ef 67 bc 27 9b b8 be
       -0.2339038 -0.14757302 -0.014156151 -0.36055872
000050 14 da cd bd e0 b0 9c bd c7 57 78 be 47 a4 39 be
       -0.10051361 -0.07650924 -0.24252234 -0.18129073
000060 29 bc c0 bd 9a 3a 83 bd e7 1b 0d be fc 68 1a be
       -0.09410889 -0.06407662 -0.13780175 -0.15079111
000070 f9 e3 af bd 92 86 b5 bd cc ff c8 be aa b2 35 be
       -0.08588404 -0.08863558 -0.39257658 -0.17743936
000080 fd cd 41 be 9e 69 61 be b4 2c 43 bb a2 eb ca bd
       -0.18926235 -0.22012946 -0.0029781284 -0.09908225
000090 36 80 18 be 05 c1 06 bd 38 ce 4b be cf 9d 5e bb
       -0.14892659 -0.03289892 -0.19902885 -0.0033968573
0000a0 5e 18 fa be 2d ad 20 be e0 1d b1 be 7d d8 e8 bd
       -0.48846716 -0.15691061 -0.34593105 -0.11369417
0000b0 25 84 ac bd 14 96 75 be 82 be bc 3d 09 41 1f be
       -0.08423642 -0.23983032 0.09216024 -0.15552153
0000c0 21 13 9d bd 9a e3 38 be 7e 0e 56 be 8b 04 56 bd
       -0.07669664 -0.18055573 -0.20903966 -0.052250426
0000d0 ae 1f 98 bd 03 7f fd bd e8 92 b6 bd 2f e5 9c be
       -0.074279174 -0.12377741 -0.08914739 -0.30643603
0000e0 b1 50 ef bd 71 0d 37 bc d0 0f d1 bc 51 5d 38 bd
       -0.116853125 -0.011172638 -0.025520235 -0.04501087
0000f0 9e d0 10 be 17 1e e6 3d b1 00 94 3b 07 d6 ad bd
       -0.14142081 0.11236208 0.004516684 -0.08488088
000100 fe d7 7e bd f8 4a 19 be a9 12 3d be c8 a9 7f be
       -0.062217705 -0.14970005 -0.1846415 -0.2496711
000110 7f 3f f1 bd 01 30 7a be a3 45 e0 3c 64 f5 b8 bd
       -0.11779689 -0.24432375 0.027376955 -0.090311795
000120 e9 cf c3 bc 1e 01 a2 bd 88 62 79 be 5b 7d 43 be
       -0.02390285 -0.07910369 -0.24353993 -0.19090788
000130 a3 62 b3 be 0f 05 26 3d 66 3a e4 bd ec c1 04 3d
       -0.3503619 0.040532168 -0.11143951 0.0324115
000140 ec 03 e3 bd 9d bd 1f 3d a4 9e 49 be 7b 7b 47 bd
       -0.110847324 0.03899919 -0.19689423 -0.048701745
000150 cc a7 b0 be 6f 29 81 bd d9 fe b8 bd ff 37 9e bd
       -0.3450302 -0.06306731 -0.09032983 -0.07725524
000160 ba 75 6a be aa 37 cc bd 86 89 4b be d4 90 17 bd
       -0.22896472 -0.099715546 -0.1987668 -0.037003353
000170 12 77 75 be 7f 05 57 bd 0c 96 25 be 83 e9 c3 3d
       -0.23971203 -0.052495476 -0.1617052 0.09566023
000180 23 13 2b be 7a a8 fd bd 1b fb 87 3b 43 78 0f be
       -0.16706519 -0.1238565 0.004149807 -0.1401072
000190 db 4d a7 bd f5 fe 69 be ae ad 32 be e3 96 50 be
       -0.081691466 -0.22851165 -0.17449066 -0.20370059
0001a0 1f a7 0d be e7 05 40 bd b7 00 5d be 85 dd 49 be
       -0.13833283 -0.04688063 -0.21582304 -0.19713409
0001b0 56 d1 b2 be b3 2d f8 be c8 c2 f7 bd fb 83 1b be
       -0.34925336 -0.48472366 -0.120976985 -0.15187065
0001c0 1e 3f 1c be c6 dd c4 bd 4c 55 8a be 35 67 39 bd
       -0.15258452 -0.096126124 -0.270182 -0.04526444
0001d0 fe d2 ad bd a2 45 24 be 06 75 39 be d1 2d 81 bd
       -0.08487509 -0.16042188 -0.18111047 -0.06307567
0001e0 30 42 db bd 92 23 bf bb d3 8a 9a be e8 e9 f9 bd
       -0.10705984 -0.0058330977 -0.3018404 -0.12202817
0001f0 c3 e0 84 be c1 b7 1e bb cb b3 a3 bc e2 d2 e4 bd
       -0.2595273 -0.0024218413 -0.019983193 -0.11173035

fc3.weight f4 [2, 128]
000000 97 48 8a bd e8 f8 ab 3b 1d 4e 5a be 28 c3 b6 bd
       -0.06752127 0.005248178 -0.2131886 -0.08923942
000010 10 92 d8 3d 02 99 91 be 14 66 82 bd 86 dc ac bd
       0.10574734 -0.28437048 -0.06367126 -0.08440499
000020 76 8b e2 3d e7 d3 e5 bd 35 47 a6 bd 58 1f 65 bd
       0.11061756 -0.11222058 -0.081190504 -0.055938095
000030 7a 37 bc 3c 5f 81 bf 3c 67 1d bc 3d 73 09 86 bc
       0.022975672 0.023377119 0.091852956 -0.016361928
000040 89 5e 87 3e 62 c1 22 3d 68 73 09 ba 3c e7 92 be
       0.26439312 0.039735205 -0.0005243332 -0.28692043
000050 2c 7d aa ba 28 ff 13 3e ad 44 27 3e 69 b1 6d bd
       -0.0013007275 0.14452803 0.16334791 -0.05803052
000060 3b 6c fe bd 3d 3b 19 3d 5d f4 31 bd 94 ae 15 3d
       -0.12422987 0.03741001 -0.043445934 0.036543444
000070 48 95 b1 3b ec be eb 3c 9a 68 9f 3c d9 b3 b0 bd
       0.005419407 0.028777562 0.019459058 -0.08628053
000080 cc 1f 5b bd 10 45 ff bd cb ca f9 3d 08 a9 b9 3c
       -0.05349712 -0.124643445 0.12196883 0.022663608
000090 0b eb 04 3c 2f be 6b bd 53 2b 91 be 0f bd 8a 3d
       0.008112679 -0.05755442 -0.28353366 0.06774341
0000a0 f8 ff 75 be bd c4 a1 bd 28 1f d7 3c a7 7e 25 bc
       -0.24023426 -0.07898853 0.026259974 -0.010100997
0000b0 f4 7d a8 3d 8b dc a3 bd fe 29 4e 3d 88 d9 b8 bd
       0.08227149 -0.080010496 0.050333016 -0.09025866
0000c0 c9 c8 64 bc 88 d0 26 3c f8 83 1d 3e 88 40 b1 3c
       -0.013963887 0.010181554 0.15382373 0.021637216
0000d0 59 a0 e6 bc 24 4c 28 3e 10 d5 00 3c 2e 5b 08 3e
       -0.028152632 0.16435295 0.007863298 0.13316032
0000e0 1b 89 05 3d 35 25 76 bc 7e 7e 23 3b b9 ea 21 3c
       0.032601457 -0.015023519 0.0024947221 0.009882622
0000f0 88 e9 13 be 6b bf be bd f0 8d 4d 3e 64 64 69 bd
       -0.14444554 -0.09313854 0.20073676 -0.056980506
000100 5f e4 f5 bd c9 5a a4 bd 2f 72 f9 3b e8 be 26 3d
       -0.12006449 -0.080251284 0.0076124887 0.040709406
000110 6f 95 61 3d 4a 45 f1 3d 3e ff 0b be a6 8a 20 be
       0.05507415 0.11780794 -0.13671586 -0.1567789
000120 53 94 04 bd c5 06 54 3c 1a ba 83 3d be 0c c3 3d
       -0.032368015 0.012941067 0.064319804 0.09523915
000130 be 01 10 be c1 bb 87 3c f7 75 ac 3b f6 19 50 bd
       -0.14063165 0.01656902 0.005263086 -0.05080601
000140 d6 0b a7 3b 09 26 66 bd b8 f6 b5 3b ec de 3d 3e
       0.0050978465 -0.056188617 0.005553093 0.18542069
000150 5a 6e 02 be a7 9d 65 bc be 09 15 3e 6a 01 aa 3d
       -0.12737408 -0.014014638 0.14554498 0.08301051
000160 e4 e1 fe bd e1 43 f3 3c 8e 38 9c 3d 1c b4 36 bc
       -0.12445429 0.029695453 0.076279745 -0.01115134
000170 b9 bb 86 be 41 cc 83 3d de 22 60 bd c5 9d a4 3d
       -0.26315096 0.06435443 -0.054720752 0.08037905
000180 f1 9c 03 bd 79 bc f6 bd 3c 46 da 3d b1 ee 60 be
       -0.032132093 -0.12047667 0.106579274 -0.21966054
000190 a2 32 05 3c f7 39 8c bc 98 ee df bd 32 5b 82 3e
       0.008129748 -0.017117484 -0.1093418 0.25460202
0001a0 df 14 c9 39 55 c0 16 3e c7 3f 5d bd 87 0d 0c 3e
       0.00038353258 0.14721806 -0.0540159 0.13677035
0001b0 46 f1 c7 bd 18 f7 bf bd 98 76 75 bc 13 89 d3 3c
       -0.09762816 -0.09373301 -0.014981888 0.025822198
0001c0 37 7e 02 bc 34 32 21 3e 81 10 c8 3c e0 88 44 3e
       -0.007964662 0.15741807 0.024421932 0.19192839
0001d0 be 16 44 be e1 2b af bc 97 1c ec 3d ae c5 fb bc
       -0.191493 -0.021383228 0.115288906 -0.03073391
0001e0 23 ec 6d 3e 64 b2 ed 3d b2 38 c3 bd e2 c3 1b bd
       0.2323461 0.11606291 -0.09532298 -0.038028605
0001f0 b1 53 29 bd 80 8c d1 3d 4b e8 57 3e 3d 36 91 3d
       -0.04133958 0.102318764 0.21084706 0.07090423
000200 e2 45 a2 be 0a 53 ff 3c f9 4e 1a bd 39 11 71 3e
       -0.3169394 0.031167526 -0.03767297 0.23541726
000210 50 59 80 3d 0f dc 26 be 67 49 3c bc c0 d4 db 3d
       0.06267035 -0.16294883 -0.01149211 0.10733938
000220 5c 9c 97 3e 57 aa b9 3c 86 cf c2 3d 8c c0 84 3c
       0.2961148 0.022664232 0.09512238 0.016205095
000230 0d 2e 8c bc 76 01 dc 3d b6 9c e8 3e 19 b2 4e 3d
       -0.017111802 0.10742466 0.4543206 0.050462816
000240 51 49 93 3d a6 48 74 be 7d 12 40 3e c0 b5 8f be
       0.07191718 -0.23855838 0.18757053 -0.28068352
000250 8f 5f 21 3e fb 49 2b bd ba 4e 12 be a7 c0 53 3d
       0.15759109 -0.0418186 -0.14287844 0.0516974
000260 a1 88 ce 3e 21 e0 99 3b 5b c8 4f be 0b 27 9e 3c
       0.40338615 0.0046959077 -0.20291273 0.019305727
000270 24 27 d5 3e 0c 15 52 3e 71 47 7e 3e f4 86 06 bd
       0.41631424 0.20515841 0.2483194 -0.032843545
000280 4c 15 8e 3e 2a 5d 04 3e 1f 0c dd 3e 24 e3 6f bc
       0.27750623 0.12926164 0.4317331 -0.014641557
000290 1e 34 df 3c 54 51 93 3c df 19 ad be d5 00 8d 3d
       0.027246531 0.017983116 -0.338088 0.06884924
0002a0 f9 a8 a3 3e 70 ae 20 3e 49 01 c5 be f9 af a9 3a
       0.31964853 0.15691543 -0.38477543 0.0012946121
0002b0 1c 08 06 3d 5c 0f 93 bd de 32 cb be 53 e9 c9 3e
       0.032722577 -0.07180664 -0.39687246 0.39435825
0002c0 4c 3d 84 bc 00 57 b3 3d 83 ca d0 be 6b 97 16 3d
       -0.01614251 0.08756828 -0.40779504 0.036765497
0002d0 7b 6a 6f 3c aa 39 ad 3e a6 46 1b bc 3a 21 3b be
       0.014612789 0.33833057 -0.009477293 -0.18274394
0002e0 98 f4 a2 3e b3 44 05 3c 7f 1c f1 bb 20 31 b8 3c
       0.31827235 0.008134055 -0.0073581333 0.022484362
0002f0 ce c8 21 be b1 8f eb bd f4 31 f1 3e 54 9a db 3d
       -0.15799257 -0.11502016 0.47108424 0.10722795
000300 0c cc 69 3d f7 2c 81 3e 78 07 fd be ce a6 d3 be
       0.05707936 0.25229618 -0.4941976 -0.413382
000310 31 d2 29 bc 3c 56 dc 3e 84 bc 53 be 6d 7e b4 bb
       -0.010365055 0.43034542 -0.20677382 -0.005508235
000320 f4 58 12 3f c0 55 50 bc 5b 62 03 bc 23 6f 0f be
       0.5716698 -0.012715757 -0.008019055 -0.14007239
000330 d3 24 18 3e 2f 50 e4 be 23 89 c5 3c 03 f7 bd 3e
       0.14857797 -0.44592425 0.024113243 0.37102517
000340 0c b5 16 bc fb b6 c5 3e ee c8 70 3d c0 f2 0b be
       -0.009198438 0.38616166 0.05878537 -0.1366682
000350 93 e6 53 bd 60 a5 63 3b 12 55 d4 3d 7f 5b 05 3e
       -0.051733565 0.0034736022 0.103677884 0.13023184
000360 05 2f 4c bd 9c 38 b7 3e 3f e9 37 3d 9e 5a 9a bc
       -0.04984953 0.35785377 0.044900175 -0.018842038
000370 da bf 02 be 98 ed ac be a3 59 4f bc b8 85 0e 3e
       -0.12768498 -0.3377502 -0.012655648 0.13918197
000380 0f 48 a6 be 63 c2 cc bd 1e c1 93 be d0 71 21 be
       -0.3247685 -0.09998014 -0.28858274 -0.15766072
000390 f7 46 f6 3e 33 f5 e9 3e e5 e0 8d 3e 91 95 9e 3d
       0.48101017 0.45694885 0.27710643 0.07743371
0003a0 ca fb 80 ba ac b6 b5 3d 3f 82 9e 3d 20 43 19 be
       -0.0009840664 0.088727325 0.07739686 -0.14967012
0003b0 94 cd 7f 3e e2 1a de 3d 90 48 e9 3e b4 51 fa 3e
       0.24980766 0.10844971 0.45563173 0.4889046
0003c0 de d1 ef bd 2e 03 50 bd dc ed 66 3e 89 55 5e 3e
       -0.11709951 -0.050784282 0.22551674 0.21712317
0003d0 5f 8d 89 3d 97 d8 be be b1 dc 9f bd 03 ee 52 3e
       0.067164175 -0.3727462 -0.078057654 0.20598607
0003e0 b3 c9 e3 3e c5 0b 01 bf 47 89 5d be 74 f1 4a 3e
       0.44489822 -0.50408584 -0.21634398 0.1981867
0003f0 1b 26 29 be be a1 dd 3c 46 bd f8 3e c1 c2 39 3c
       -0.16518442 0.027054664 0.48581904 0.011337937

fc3.bias f4 [2]
000000 d8 f0 1b be 56 f1 b8 bd
       -0.15228593 -0.09030406
