models/best/checkpoint_actor_0.pth (torch_old, 183806 bytes, 6 tensors)

fc1.weight f4 [256, 48]
00000000: b52a 3c3e 0611 4e3e 13df 3abc 698d 8cbe
00000010: b16a 953e 385f b33e 4819 b5bd 5293 89be
00000020: 440a 2a3e d1c1 223d 2f3d 0e3d 5a2b dabe
00000030: d309 663e 18ce 243f f33a 2d3c ae5d bcbe
00000040: 07c5 ec3d feb1 1f3c 60f7 00bd f9bf 4dbe
00000050: 9a83 723e 9bef 833f a2b7 67bc 899f 4bbe
00000060: df3c c03e 554a 233e f7f8 1f3d 30ff 05bf
00000070: c86e 66be 2a85 c73e 78fa 0f3e baee 05bf
00000080: 62c3 f73e 2f19 d1bd c3fb 403c 884a 30bf
00000090: 88d5 8ebe 9040 393f 077d 863c 485f 34bf
000000a0: 6371 e23e 837d b8be f6b3 74bc 563c 26bf
000000b0: e140 05be 23b5 913f 377c 883c 6081 27bf
000000c0: 8052 c73c 64d8 83be 3ff1 913d 4817 7fbe
000000d0: e882 06bd 69b2 9fbe cf0b a7bc 68b8 92be
000000e0: de82 473e af7b 88be f253 eabd 4128 38be
000000f0: 7ba8 873c 77ff c5be 511d 17be 7551 57be
00000100: cb1b 2b3e cf1e 99be 692e adbd f1b2 78bd
00000110: ee35 233e e36a f1be 7e6f 23be fe05 9cbd
00000120: 8618 f63e 864e c5be 8f22 53bd cfc3 293d
00000130: 8d47 34bd d153 bfbe 7524 463d 3bd3 bc3d
00000140: 44b1 be3e d158 97be 7098 2abd cb94 193e
00000150: eb86 9cbd f6dc bfbe a184 89bd 4047 9b3d
00000160: 5a06 f93e 3cae 8cbe c1c2 79bd 65ca 173e
00000170: d8c7 f3bd fb3a dfbe 014a 613d 2497 ab3d
00000180: 5095 f939 30d4 e2be 7d47 60be f0fd 71be
00000190: 141e e0bc ac14 54be 6cae 8ebe 4a9e 27be
000001a0: 822f 413c 035e a4be e639 2e3c 9e49 0e3f
000001b0: 5000 483e 5f01 77be 1a0c 01bd 0dca 053f
000001c0: 2401 96bd 8aee 76be 170e f1bd 706d eb3e
000001d0: d812 c33e 8b68 04be f1dc 2cbe d26e f43e
000001e0: 2d5e 5b3f ee4e d43c c84d 22bd fafe 9dbd
000001f0: 0b4b 98bc 3c1d 38be e5ac 8bbc a6ce 15be
00000200: 8642 293f 85ad 193d f657 5c3d 9aa9 cc3d
00000210: 89a4 78be 3ce8 44be 4166 603d 6a65 ed3d
00000220: a13e cc3e a275 02bd 1512 013d eed7 573e
00000230: c44a eabe 59db 3fbe c738 55bc 7a42 943e
00000240: 03e9 d23d d618 3d3f 3856 39be c929 8fbd
00000250: af6c b63b 3fe4 39bc 4997 e0bd 43d9 c0bd
00000260: bf2c ac3e 4457 363f 0570 473e 9b8b d1be
00000270: 5449 bf3d 0daf debd 9902 f93d 2562 cfbe
00000280: 8b78 8d3d 54a7 153f eeb8 a5be 2916 98be
00000290: e780 953e 0c52 f7bc 6aca ccbe 417c c2be
000002a0: 06bd 6abd c97f 85be 35a3 aebc f511 d13d
000002b0: a474 86bd 020c 823c 4d1d f9bc 6af1 133e
000002c0: 814b 11bc 6615 65bd 1b10 6bbd d062 4e3e
000002d0: 4cb1 53bd 0795 26be 204a 86bd 7bde 6c3e
000002e0: 3fc1 353a 6e64 ebbd 9cb2 d4bc afde 1e3e
000002f0: 559e 9ebe d2fc 2bbd fee5 68bd 1f30 ef3d
00000300: 237d 433e fe2a 45be 8678 8fbd 0d0c 01be
00000310: f2df 153f c454 f3be 18ad 0f3b f03e 5dbd
00000320: 1a07 fd3d 0d75 5ebe 808b d23b 53e2 42be
00000330: 21e8 093f 325d 8dbe cb57 adbd c93a 31be
00000340: 3465 89bb d423 82bd d636 b8bd b110 413e
00000350: 9dd5 d43e ed02 76be 5e5e b0bd b7e5 1b3e
00000360: 5f1b 153f 5b67 80be 0b69 943d 50ae c3be
00000370: 5fca 14bf 2ecf fcbe c368 683d 7e6e f1be
00000380: 9dd2 da3e 3ef6 e0be 207c 15bd 5a45 cd3d
00000390: 7450 f9be 5eec 81be 1bab 8abd 0cec 493d
000003a0: de16 113f 7578 44be 950d b13c 48f5 0f3f
000003b0: 6344 b8be c78d 73be df8c 9f3d bc27 013f
000003c0: 33ed db3d ae38 c1bc 2feb 67bc ecb2 babe
000003d0: def3 793e dc1d 9d3e d9bc 1f3d 6097 d1be
000003e0: 8b12 6a3c aa28 24be 53f3 6b3d de00 07bf
000003f0: ede9 383e 9f55 183f 5161 673d 5761 1cbf
0.18375666 0.20123681 -0.011405724 -0.27451637 0.29182962 0.35033584 -0.08842713 -0.2687021
0.16605479 0.03973562 0.034726318 -0.426112 0.22464685 0.64376974 0.010573137 -0.36790222
0.115610175 0.0097470265 -0.031485915 -0.20092763 0.23683015 1.0307497 -0.014142903 -0.19885077
0.3754644 0.15946324 0.03905579 -0.5234251 -0.22503197 0.38968784 0.1406039 -0.5231739
0.48391253 -0.102098815 0.011778775 -0.68863726 -0.27897286 0.7236414 0.01641704 -0.7045789
0.44227132 -0.36033258 -0.014935484 -0.64935815 -0.1301303 1.1383404 0.016660793 -0.65431786
0.024331331 -0.2575103 0.07126092 -0.24911225 -0.032839686 -0.31190804 -0.020391373 -0.28656316
0.19483516 -0.26656863 -0.114417925 -0.17984106 0.01655983 -0.38671467 -0.14757277 -0.21027167
0.16709821 -0.29906318 -0.08456118 -0.060717527 0.15938541 -0.4715186 -0.159605 -0.076183304
0.48065585 -0.3853647 -0.05154663 0.041446503 -0.04401355 -0.37368634 0.048374612 0.092199765
0.37244618 -0.2955995 -0.041649282 0.14998166 -0.07642921 -0.37473267 -0.0671475 0.07581949
0.48637658 -0.2747668 -0.060976747 0.14823301 -0.119033515 -0.43599686 0.055002216 0.08378437
0.00047604227 -0.4430251 -0.2190227 -0.23632026 -0.027358092 -0.2071101 -0.27867448 -0.16368976
0.011791112 -0.32102975 0.010633921 0.5558108 0.19531369 -0.24121617 -0.03150568 0.5226143
-0.07324436 -0.24114433 -0.117702655 0.45981932 0.38100314 -0.12930505 -0.16881157 0.477408
0.85690576 0.025916543 -0.03962496 -0.077146485 -0.01859047 -0.17979902 -0.017050216 -0.14629611
0.6611713 0.037518997 0.053794824 0.099932864 -0.24281515 -0.19229215 0.054785017 0.11591609
0.39891532 -0.031850465 0.031511385 0.21078464 -0.45760167 -0.18736018 -0.013014025 0.28956968
0.1029835 0.7386602 -0.18099296 -0.06990392 0.0055671553 -0.011345922 -0.10966355 -0.094164394
0.3362789 0.71226907 0.19476326 -0.40926823 0.09340158 -0.10873232 0.121586986 -0.40504566
0.06907757 0.5845845 -0.32367653 -0.29704407 0.29199907 -0.03019049 -0.3999818 -0.37985423
-0.057309173 -0.26074055 -0.021318058 0.10208503 -0.06565216 0.015874866 -0.03040948 0.14447561
-0.008868099 -0.05592861 -0.057388406 0.20154881 -0.051682755 -0.16267787 -0.06557107 0.23131745
0.0006933398 -0.11493765 -0.025964074 0.15514635 -0.30980173 -0.041989155 -0.056859963 0.116791
0.19090705 -0.19254681 -0.0700541 -0.12602253 0.5854484 -0.4752561 0.002192324 -0.0540151
0.1235487 -0.21724339 0.006425321 -0.19031648 0.53869826 -0.27610165 -0.08464011 -0.17307581
-0.0041929726 -0.0635449 -0.08994834 0.18854024 0.41569224 -0.24024554 -0.08611749 0.15224348
0.5824489 -0.25078854 0.07246598 -0.38218927 -0.58121294 -0.49376816 0.056740534 -0.4715461
0.4273881 -0.43937868 -0.036495328 0.100229934 -0.48694193 -0.25375646 -0.06770917 0.049297377
0.5667552 -0.19186576 0.021612922 0.56233644 -0.35989675 -0.23784553 0.07790541 0.50451255
0.107386015 -0.023586597 -0.014155193 -0.36464632 0.24409434 0.30686843 0.03899846 -0.40935802
0.014286648 -0.16031137 0.0576051 -0.527357 0.18057986 0.5950565 0.056489293 -0.6108603

fc1.bias f4 [256]
00000000: 39d4 59bd 2933 bbbe 3189 2dbd 9e49 8f3c
00000010: a058 00be 6da6 5d3d b645 54bd f21d 95bd
00000020: 46fb 86be af6f 5e3c e571 9a3d 0b62 453d
00000030: 0876 d1be d3f5 38be 23cf 2fbd 617c e8b9
00000040: 9802 9f3c 05b3 62bd fa60 43bd 2ceb 363d
00000050: 0286 1bbd 1941 573d 65c1 0f3d 5628 9dbd
00000060: 74c3 89bd e593 2abe 83ed 05be 6497 0fbe
00000070: b03d 20be ff95 b5be 3125 94be 4bc5 98be
00000080: 600b 723a 1e6b b13d 6622 92bd deaf cabe
00000090: d737 12be 3790 52bc da68 e8bc c1b0 343c
000000a0: 622a 99bd 73f6 8ebd 1b16 30b8 6626 52be
000000b0: 2028 f33c 42a3 0abd 1ca0 aabe 2366 5ebe
000000c0: 9205 c23c fd57 98bd af18 8a3c cd3c 5f3c
000000d0: f89c e93a 49b4 1e3d be05 b2bb f69d 26be
000000e0: 0843 473e 5638 a9bd e9cc 093e 7845 353e
000000f0: eaca b6bc 77b1 dcbe 64d2 ad3d 9b7a 62bd
00000100: 3d4b 76bd b00b fcbc 6b8e 3cbd 744d 15be
00000110: 50d4 3a3d ffd9 50be 2fd7 bfbd c61d 92bd
00000120: 915b 4cbe 1d61 5abd 780b 01be e577 67be
00000130: 2093 eebc f264 6b3e a997 b93d b8c9 d63d
00000140: a8f7 64be cb40 25be 07b9 59be c6ea 49bd
00000150: 92bb fdbd 2d9d 2f3d d0a4 44be 7b4a 2fbe
00000160: 16f2 01be 48ef 93bd 9353 56be f084 2dbe
00000170: 5f89 373d cfa6 ba3d 3b5e 4b3d 8a98 48be
00000180: 88da a4be 6212 4a3c 1a94 1ebe ed43 84ba
00000190: 8840 10be 58e1 9fbd 103d b2be e620 e3bd
000001a0: c5f7 82be 5698 59be 580c d8bb 7727 26be
000001b0: e584 76be 8bf5 62bd e179 553c 1854 403d
000001c0: 1039 4dbe d75d 11be 8057 5cbd ee65 283d
000001d0: ba80 2abc 3bf6 d83d 7332 c43d 6595 c6bd
000001e0: 345c 403d ceff 64be 8b25 8a3e ca82 22be
000001f0: eef0 bfbd 0913 b9be 3025 aebe e505 4dbe
00000200: 1654 d33c dd3d 4abd 934b afbd a663 b23d
00000210: 3003 a9be 17c3 bf3d eafb 533b f762 7fbe
00000220: 8b4d 27bc 2645 7d3d 7db9 52bd a76e 673c
00000230: 231c bcbd 70d3 16be 6adc 8dbe ddfa babd
00000240: 0728 ecbc e9d8 88be a4a0 e23c 1c3c 5fbe
00000250: 63e9 1cbe 46db adbe 2a9f 82bd 64c1 9fbe
00000260: 91de cebb caf0 5a3d 1d90 99bd 449c 96be
00000270: ef47 61be 1b51 e13d 82a3 46bd 0f5a e1bd
00000280: b880 f83c 447b 29ba d520 02be 03ea 45be
00000290: ee81 0fbe b9d9 35bc eadc 17be e03a 1cbe
000002a0: 3503 08be 7d48 54be ac37 223e 5464 05bd
000002b0: 1100 fe3d 0b58 76be 4c13 e2bd b0f7 66be
000002c0: 92a6 8cbe 87d4 4c3e 3a5a 5fbe 737b 1fbe
000002d0: 7a3c 3d3c be70 93bd db56 af3d af33 703e
000002e0: be72 783c 763a 21be 34af 463d 6dda 583d
000002f0: bf1e d93d a64b 793c db88 6c3d 3c11 6fbe
00000300: 7c3c c9bd 1719 dcbc 5153 4bbe e1e2 c6bd
00000310: ce0d 703d 4a24 debd a50a 4b3b 29fe 75bd
00000320: 8ef0 83be 3f11 1f3d da42 86bd 600a 163e
00000330: fc18 b0bd ade3 5abd 52d4 2ebe f085 49bd
00000340: bff2 64bd 83df c43d 142f 8fbe f7e9 d7bd
00000350: afc3 0c3d f314 96bd b09d e53d 138e 523d
00000360: ec25 12be b961 8dbd 18dc af3c 420c b4be
00000370: f36d 0cbd 713f 473e ff8d 993c 3657 1ebe
00000380: a341 36be 77bd 2dbd 691b 4cbe 9083 66be
00000390: ce5c 37be 452c 333d 85d4 a4be 68d6 413d
000003a0: 6752 cebc a094 dabc 6706 b23d 5a63 343d
000003b0: d3d9 10be 79ac 623e 7e5e 0f3e a4b2 edbd
000003c0: 66c4 77bb 34cc 9d3b fdac 3fbe f9d9 07bc
000003d0: b4db 88bd 5781 80be 61b0 5e3e e654 943d
000003e0: 25a4 cbbd c3b4 f1bd 6fdd 5dbe cec7 febd
000003f0: 0f40 e2bd cabc 423e e1e8 a5bd d9f3 c3be
-0.053180907 -0.3656247 -0.042367164 0.017491158 -0.12533808 0.054113794 -0.051824294 -0.07281102
-0.2636358 0.013576432 0.07541255 0.048189204 -0.40910363 -0.18062524 -0.04292215 -0.00044343158
0.019410416 -0.055346508 -0.047699906 0.04465787 -0.037969597 0.052552316 0.035096545 -0.07673709
-0.06726733 -0.1665798 -0.13078885 -0.14022595 -0.15648532 -0.35466 -0.28934625 -0.29838023
0.00092332624 0.08663009 -0.07135467 -0.395873 -0.14279114 -0.012851766 -0.02837031 0.01102847
-0.07478787 -0.069806 -4.1982257e-05 -0.2052246 0.029682219 -0.0338471 -0.3332528 -0.2171865
0.023684297 -0.074386574 0.016857473 0.013625336 0.001782327 0.038746152 -0.0054328134 -0.16271195
0.19459164 -0.08262698 0.13457073 0.17702281 -0.022313554 -0.43104145 0.084873945 -0.055292707
-0.060130347 -0.030767292 -0.046034258 -0.14580327 0.045612633 -0.20395659 -0.09367215 -0.07134585
-0.19956805 -0.05331527 -0.12602031 -0.2260433 -0.029122889 0.22987726 0.0906213 0.104876935
-0.22360098 -0.16137998 -0.21261989 -0.049296163 -0.12389292 0.042874504 -0.19203496 -0.17118256
-0.12690005 -0.07223374 -0.20930319 -0.16945243 0.04480874 0.091138475 0.049650412 -0.19589439
-0.32197976 0.012333484 -0.15486184 -0.0010091044 -0.14087117 -0.07806653 -0.34812212 -0.11090259
-0.25579658 -0.21249518 -0.0065932684 -0.16225992 -0.24074133 -0.05540995 0.0130295465 0.046955198
-0.20041299 -0.14195953 -0.053794384 0.041112833 -0.010406667 0.1059384 0.09579935 -0.096964635
0.04696293 -0.22363207 0.26981768 -0.15870205 -0.093721256 -0.36147335 -0.34012747 -0.2002178
0.025796931 -0.049375404 -0.085593365 0.08710413 -0.33010244 0.09363382 0.0032346197 -0.24940096
-0.010211359 0.061833523 -0.051446427 0.014125503 -0.09185054 -0.14729095 -0.27707225 -0.091298796
-0.02882768 -0.2672799 0.02766449 -0.21800274 -0.15323405 -0.33956355 -0.063780144 -0.31202233
-0.006313153 0.05345229 -0.074981906 -0.29416096 -0.22000097 0.11001798 -0.048495777 -0.110035054
0.030334815 -0.00064652064 -0.12707837 -0.1932755 -0.14014408 -0.011099272 -0.14830366 -0.15256834
-0.13282473 -0.20730777 0.1584155 -0.032566383 0.124023564 -0.24057023 -0.11038837 -0.22555423
-0.27470833 0.20002948 -0.21811762 -0.15574436 0.011550063 -0.07199238 0.08561488 0.23457216
0.015164075 -0.15744957 0.04850693 0.052942682 0.106015675 0.01521579 0.057747703 -0.23346418
-0.098259896 -0.026867433 -0.19856001 -0.097112425 0.058606915 -0.10846765 0.0030981686 -0.06005684
-0.25769466 0.038834807 -0.0655572 0.14652395 -0.085985154 -0.053439785 -0.17073181 -0.0492
-0.055895563 0.09612944 -0.27965605 -0.10542672 0.034366306 -0.073282145 0.11211717 0.051405024
-0.14272279 -0.06903405 0.021467254 -0.35165602 -0.034284543 0.19457795 0.018744467 -0.15462956
-0.17798476 -0.042417016 -0.19932331 -0.22511125 -0.17906496 0.04374339 -0.3219339 0.047323614
-0.025185777 -0.026682198 0.086926274 0.04404006 -0.14145593 0.22136106 0.1400089 -0.116063386
-0.0037806272 0.0048156027 -0.18718334 -0.008291715 -0.0668253 -0.25098678 0.2174697 0.072427556
-0.099434175 -0.11802056 -0.21666501 -0.124404535 -0.110473745 0.1901733 -0.08101059 -0.38271978

fc2.weight f4 [128, 256]
00000000: 04ef e3be c041 7b3d 0899 56be 5df0 563d
00000010: e7bf bdbd fafc debd f750 09bd 2da1 ac3d
00000020: 0cdb dcbd a72f 243e eafc 97be 488c 47bd
00000030: 6c05 13be 49b8 96bc bd78 63be cb33 7f3e
00000040: baec a1bc 212f f9bd 4729 a13e 36f2 e13d
00000050: 61ba c03d 980a 523e a104 7fbd a9c4 5dbe
00000060: ddb4 283d 3cdf ac3e b33e 69be 9db9 683e
00000070: c47e 43be dab0 3dbe 4d3f 5dbe a7f9 29bd
00000080: b84f cf3c 7284 8bbe 439f ab3c f635 81be
00000090: 24f7 0abe 92d1 143e 799d c8bd a880 a8be
000000a0: 5638 3abe c429 843d 5516 d03d 8059 28be
000000b0: 5cb6 a2bc 54fa 34be ad0f 5dbe 523b 893e
000000c0: 4a21 793d bc65 f33d 575e 4bbd 8bee 0a3d
000000d0: b136 25be 25c4 b73c 31cb 66be fb46 85be
000000e0: c3d4 8cbe 8b0a 253d 28c8 f9be aa2d 09be
000000f0: 5518 943c 56f4 173e 8ffe 083d 17b9 403e
00000100: ae9f 9bbd e3bc e6bd 7430 a33e 5b1f babc
00000110: b350 98be 0d06 77bd a6f3 21be 956f 393d
00000120: 1c57 11be 6cfe d13d 0d6a 183e 9a3d cfbc
00000130: f3dd f1bd 71d5 6fbe 4450 6fbe 331e 92be
00000140: e4c6 d03d 580b 15be 5bb2 57be 6976 febd
00000150: cc77 153e ef98 b03b 71fd 84bd 577f a0bb
00000160: 5203 8fbd a357 88bd c98d 713e 03e2 08be
00000170: 3da5 9cbd 45db 11be 5dbc f43c 6a0b 50be
00000180: 9fb9 523e f166 623e 11db 4d3d 13af 80bd
00000190: 5a46 2f3e df65 82bd 1bfe a73d edfa 5bbe
000001a0: d71b 263e cb95 343e 2e23 fd3d 4c08 f8bd
000001b0: 7572 29bc 7f05 beba 0cf1 52be c29c e13d
000001c0: 2e8b 34be 6380 8f3e 0ced 9bbe 27f0 5ebe
000001d0: 4f24 acbe a8b5 05be 1ff8 8a3e 02e3 98bd
000001e0: ce41 663b ec2d ee3d 6955 49be 7b2e bd3e
000001f0: 323d 843d 7019 79be 3f7a ce3d aed4 51be
00000200: 7762 81bc b872 29be aef5 89bd d7d9 76be
00000210: c2e4 9b3d 0e62 5b3d 3ce7 c1bc 90c8 28be
00000220: 6822 5a3e 4bff 16be 26c7 03be e78a 1e3e
00000230: 531f 81be 4753 7abe 038c 5ebd dcd6 f0bd
00000240: dc96 b8be 1fdf f43b fb8e 22bc 8453 d1bd
00000250: 5611 8cbe cf1e f33d 74d5 acbd fa99 e5bd
00000260: fb83 7c3e 55e2 723c f195 a53c 1639 cdbd
00000270: 5ca1 7cbd 62f7 44be dd9b a0be 02b9 a0bd
00000280: 0efa 9d3d fe03 913d 12f0 9bbe f4d9 5fbe
00000290: c760 253e cafc aabd 82d0 db3d 882c 9d3d
000002a0: 55d8 61be 5e21 ecbd 44d1 873d 2b0c ae3d
000002b0: b4d5 253e 4d13 e7bd e141 c9bd af83 6e3e
000002c0: e8e9 a43c 2687 31bc 513b ad3d 82ab 2bbd
000002d0: 2418 e4be ae3e 753e 01aa e5bd 1568 20be
000002e0: ffc2 42be 7610 2fbd b738 a83e 0a0e 32be
000002f0: 440d 563d b8bf 083e 136d 14be 3b83 863e
00000300: c5e5 483e 266f 00be 5ac6 433d 1551 113e
00000310: bad6 85bd af16 773e 66a9 31be e678 60bb
00000320: 6233 abbd a24a af3e 3ca0 73be 42a7 2c3e
00000330: 5b5f 33be d059 c53d ee7b 613e 0b7b 4a3e
00000340: bebc 53be 01dd 55be 2f93 b6bd f891 87be
00000350: 03d7 29be 9b82 12bd 2df7 473e 554b b13e
00000360: 2b27 803e 1883 a93e e1ea a2be 064c 143e
00000370: a412 243e 8a0e 74be 9a3c 433e 30c9 053c
00000380: f17a 08be 04ef 663e 682a dfbe 3f07 423d
00000390: c155 90ba b620 cebe 7a58 023e 5288 f6bd
000003a0: ef83 1ebd edde e9bd 96b8 52be 5a9f 703d
000003b0: 39c1 31bc 95d1 8ebe 662a 92bc a251 833e
000003c0: 911d 4c3e a98f 003e 1748 45bb 910e 76bc
000003d0: 6a73 09be 5e4e 853e dfe5 94be 3e1c 56bd
000003e0: 001c f0bd ad45 abbe b4f1 203d d281 8b3d
000003f0: 4078 adbe 89b6 34be 35e3 7abe 6ff3 99be
-0.44518292 0.061342 -0.20956814 0.052475322 -0.09265118 -0.10888095 -0.03352448 0.08429179
-0.107839674 0.16033803 -0.29685146 -0.048717767 -0.14357537 -0.01839842 -0.22214027 0.24922101
-0.0197662 -0.12167192 0.31476805 0.11032526 0.09410549 0.20511854 -0.062260274 -0.21657051
0.04118811 0.33764064 -0.22777824 0.22727056 -0.19091326 -0.18524495 -0.21606179 -0.041497853
0.025306568 -0.27249485 0.020949965 -0.2523648 -0.13570839 0.1453307 -0.097956605 -0.32910657
-0.18185553 0.06453279 0.101605095 -0.16440392 -0.019862346 -0.17673618 -0.21588011 0.2680307
0.060822763 0.11884639 -0.049650516 0.0339189 -0.16134144 0.022432396 -0.22538449 -0.26030716
-0.27506074 0.040293258 -0.4878552 -0.13396326 0.018078009 0.148393 0.03344589 0.18820606
-0.07598816 -0.11266496 0.31872904 -0.02272003 -0.2974907 -0.060308505 -0.15815601 0.04527243
-0.14193386 0.10253605 0.14884205 -0.025297929 -0.118099116 -0.23421265 -0.23370463 -0.28538665
0.101941854 -0.14555109 -0.21064131 -0.12424929 0.1459648 0.005389325 -0.064936526 -0.0048979926
-0.06983055 -0.066573404 0.23589243 -0.13367467 -0.07648704 -0.14243801 0.029874975 -0.20316854
0.20578621 0.22109582 0.050257746 -0.06283393 0.1711668 -0.063670866 0.08202764 -0.2148244
0.16221558 0.17635266 0.123602256 -0.121109575 -0.01034223 -0.0014497488 -0.20599765 0.11016227
-0.17631218 0.2802764 -0.3045429 -0.21771298 -0.3362145 -0.13057578 0.27142426 -0.07465173
0.0035134437 0.11629853 -0.19661488 0.36949524 0.064569846 -0.2432611 0.1008191 -0.20491287
-0.015794022 -0.16547668 -0.06736313 -0.24106537 0.076119915 0.05356031 -0.023669831 -0.16482759
0.21302187 -0.14745824 -0.12868938 0.15482675 -0.2521921 -0.2444583 -0.054332744 -0.11759731
-0.36052597 0.007472887 -0.0099217845 -0.102210075 -0.27356976 0.11871111 -0.084391505 -0.11211009
0.24659722 0.01482447 0.0202131 -0.10020654 -0.06167732 -0.19234994 -0.31368914 -0.078477874
0.0771371 0.070808396 -0.30456597 -0.21860486 0.16150199 -0.08348997 0.10733129 0.07674509
-0.2205518 -0.11529802 0.06631711 0.084984146 0.16194803 -0.11282978 -0.098270185 0.23292421
0.020131066 -0.010835445 0.08458579 -0.04191161 -0.44549668 0.23949692 -0.11214066 -0.15664704
-0.19019698 -0.042740308 0.3285577 -0.17388168 0.052258745 0.13354385 -0.14494734 0.26271996
0.196189 -0.125424 0.047796585 0.14191087 -0.065350965 0.24129747 -0.17349777 -0.0034251749
-0.0835941 0.34236628 -0.23791593 0.16860679 -0.17516844 0.09636271 0.22019932 0.197735
-0.20677468 -0.20885088 -0.08914792 -0.26478553 -0.16585927 -0.035769086 0.19527884 0.34627786
0.25029883 0.3310783 -0.31819823 0.14482126 0.16022736 -0.23833671 0.19066086 0.008165643
-0.13328148 0.22552115 -0.4358704 0.04737019 -0.0011011885 -0.4025933 0.12729064 -0.1203772
-0.03870004 -0.11419473 -0.20578226 0.05874572 -0.0108492905 -0.27894273 -0.017842483 0.25648218
0.19933154 0.12554802 -0.0030102783 -0.015018121 -0.13422933 0.26036352 -0.29081628 -0.052273028
-0.117240906 -0.33451596 0.039293006 0.06811871 -0.33880806 -0.17647757 -0.24500735 -0.30068538

fc2.bias f4 [128]
00000000: 8032 81be 4cb3 563b 89dd febd 3e2b 15be
00000010: 18c1 bdbd e35a 443c c61b f7bc b1d3 e03c
00000020: 5d4f 88be b78d 873c 03e9 2dbd 2db9 adbd
00000030: aaa6 d0bd 3973 53bd 8186 07be 997e b23d
00000040: fc4e 15be 9ab4 8fbd 04cf 00bd edd8 94bd
00000050: b2d6 1f3c 737f 56bd c683 bcbd 84f0 e13d
00000060: 8cc3 29be 9ac9 13bd 1095 c7bd d038 283c
00000070: bed4 8e3d d272 0abe 5542 edbd 0204 963d
00000080: e97e 74be f6f2 49bd 00c5 b2bd 8748 27be
00000090: a685 ffbc 381a b03d ee6e 2cbe c103 903b
000000a0: e658 febd 1bbf e2bd 9374 7bbd 84ba e6bb
000000b0: b5e7 74be d4f9 913d 1236 07bd eefd c6bc
000000c0: 3cd8 b6be 2d1d d6bd 6053 393c 5da0 b83d
000000d0: 48bf 25bc ed3d 83bd 8542 a4bd 6044 3abe
000000e0: d611 50bc 2fdf 06be 4d92 d4bd 299b 8ebd
000000f0: b82c afbd b372 4e3d d49a b0bd 348f 5e3e
00000100: 7b7c 453c f0b1 97bb e768 5ebd 1cdf 0c3c
00000110: 0f60 02be 48a5 babd 61d9 a53d 5e59 2bbc
00000120: b081 29be 5fe2 deba 8467 6dbe 6d10 57bd
00000130: d19e 593b 9a7b 3b3e 9fdd 42be bc1f 34be
00000140: cae4 283c 959c 4c3d 78f0 953d 3034 5dbe
00000150: f728 cbbd a658 63bd 248e e6bb 70e0 2abd
00000160: 8ca9 7fbd 5e8f 793c 5bf9 333c 58ca 35be
00000170: 0230 163c ae77 2abd a7ee 15bd 6e1b 58bc
00000180: 7762 063e 0b2b 95bd 2017 64be 8735 a4bd
00000190: 5dbe 503d 88c1 ae3b bcd5 debd ff36 40be
000001a0: dbc8 663d e123 96bc 61a5 483d e167 8c3d
000001b0: 715b e0bb 6774 b6bd b3ff 64bd 1ad5 a6bb
000001c0: 502b 82bd a721 0ebd eb3c 4ebe 1c06 4fbd
000001d0: daff 41bd 46e9 8fbd 232a d0bd ed89 073e
000001e0: 19c8 2cbe 62cb 1bbd be78 91bd 3a7d 70bc
000001f0: ab65 c0bd 8fbf 99bc cfbb a8bb 21a1 803d
-0.2523384 0.0032760678 -0.12444598 -0.14567277 -0.09265345 0.01198456 -0.03016461 0.027444692
-0.2662305 0.016547067 -0.042458545 -0.08482585 -0.10188039 -0.051623557 -0.13234903 0.08715553
-0.14580911 -0.07016869 -0.031447425 -0.07267938 0.009755777 -0.05236764 -0.09204821 0.11032203
-0.16578501 -0.036080934 -0.09745228 0.010267451 0.06974171 -0.13520363 -0.115849175 0.07324983
-0.23876537 -0.04930397 -0.08728981 -0.1633626 -0.031191658 0.08598751 -0.16839191 0.0043949788
-0.124193 -0.11071607 -0.06139047 -0.0070412774 -0.23916514 0.07127729 -0.03301055 -0.024291005
-0.3571185 -0.104547836 0.011311382 0.09014962 -0.010116406 -0.06408296 -0.080205 -0.18190145
-0.012699565 -0.13171075 -0.10379467 -0.06963188 -0.08553451 0.050402354 -0.08623281 0.21734315
0.012053604 -0.004629366 -0.05429926 0.008598115 -0.12731956 -0.09113556 0.08098102 -0.0104583185
-0.16553378 -0.001700472 -0.2318402 -0.0525059 0.0033206234 0.18308869 -0.19029854 -0.1759023
0.010308454 0.049954016 0.073212564 -0.21601939 -0.09919923 -0.055504464 -0.0070359875 -0.041717947
-0.062417552 0.015231935 0.010984744 -0.1775297 0.009166719 -0.04161804 -0.03660455 -0.0131901335
0.13123499 -0.072836004 -0.22274446 -0.08018022 0.050962795 0.0053331293 -0.1088061 -0.1877098
0.056343894 -0.018327655 0.048985843 0.06855751 -0.006846838 -0.08908921 -0.055907916 -0.0050913217
-0.063559175 -0.034700062 -0.20140426 -0.050542936 -0.04736314 -0.07026915 -0.10164287 0.13236208
-0.16873206 -0.038035758 -0.07103108 -0.014678294 -0.093943916 -0.0187681 -0.0051493417 0.06280733

fc3.weight f4 [2, 128]
00000000: c413 febd 13a9 543c 62d3 edbb c107 cf3d
00000010: eb2d a1bc ce9b 9f3d 67b8 06bc e326 c23e
00000020: a093 09bf b6f1 87bd 3598 69bb 3ce7 9cbc
00000030: 50fe 81bd c223 de3d 5d69 8a3e 9fb6 853e
00000040: 620b 183d 1490 743e 3d15 013e d3b1 2b3c
00000050: 422f ed3c c4fa dc3d a8ea b53d a0bb 753e
00000060: 3017 973d ef77 fe3d 7285 c2bd c946 bc3c
00000070: 0ea0 483e c074 3c3e 1fe4 5dbc 3bda 50bd
00000080: 1498 d4be 5d2f a2ba 0b7d ccbe 75dd 7dbd
00000090: 6d3a 1ebe 3394 cc3e 429e fc3c 9d45 cc3c
000000a0: e9a4 5c3e 129c 06be 7a28 583c 20a5 513c
000000b0: 766b 2bbe fe8a 08be 793d 313d ea84 a23e
000000c0: b371 05bf 8bcd 963d 6f67 083e a8eb 43be
000000d0: 4382 5cbc 3c97 1b3d 3b4b dc3a c415 aebd
000000e0: e3e8 213e 3851 b23b bab1 84bb a432 bb3c
000000f0: 9d71 423c 0fdd 3c3e 05aa 393e aaee a23e
00000100: bd65 903e 652e fd3b 5758 1e38 fa28 dbbb
00000110: 2fae 81bd 593a 89bb 9a12 7f3e 69ab e63c
00000120: 5ea7 5739 b457 f23d 2655 aa3e 6636 2e3c
00000130: 236c dd3e fd96 9e3e f507 a1be 7eeb 47be
00000140: 2ac9 5e3e 2ba5 873d 6c8d c4bd a64b e2bd
00000150: e0cb ecbc fff9 16be eae1 983b b7f6 483e
00000160: 6f6e 9fbd e5a4 68be 8753 60bc e81f 873d
00000170: 682e 563e e8fa f83d 20ba 003d dea5 ad3c
00000180: 0394 bc3d 0a85 70bb ee04 8b3d 9d45 ca3e
00000190: dfcc 653e c133 1abc ec73 7a3e a6b8 3cbe
000001a0: 7c00 913e 6a6d cdbe 6fba 163e fd91 c63d
000001b0: 5b2b a23d 34c9 e83b 4dbc 703e efd9 533c
000001c0: 65fa 503c 455f 9b3e b495 9d3e 1a99 573c
000001d0: 30b5 953e 9442 013e eb1e 813d 365e 823e
000001e0: 33b4 8cbe ec76 063e 5e54 143e c6f6 3fbe
000001f0: e089 863d 7c3e 59bc 2672 4c3e b696 953e
00000200: 7ddd 833e 7e74 e63b e2aa 5a3e d5ca 653c
00000210: ed69 b6bd 6fed 2abd 9fdb 713c f1c4 553e
00000220: 7360 81be 5d68 e33a f95f ed3c 486d 1ebd
00000230: c99b 003f e36f 5b3e 3073 67bd 9729 ae3d
00000240: d5f5 bf3d c78d 263e 2436 f3be 8a25 f33b
00000250: 846d bfbc 7295 a7bd d297 07bc 2417 963c
00000260: 8939 753e fb69 703d 1477 ce3d 0765 bd3c
00000270: 980b eebe c638 cabe ec75 c8bc a633 b8be
00000280: a7a0 9fbe 1686 eabc a540 f03d 8818 c53d
00000290: 26f4 4dbe 29ed f1bc 82b8 afbc 2fd6 973e
000002a0: 7146 8a3d 4cb8 a83c 7269 3e3c 59ac 66ba
000002b0: 4546 043e 8aae b73d 71d6 a93e 1900 693e
000002c0: 21f1 15bf 0b99 f03d 449b afba 98be eb3e
000002d0: aee8 ebb9 c60c 8a3c 6f55 ac3c f857 f33e
000002e0: 1f5b d6bd baaf 813e 1a34 033d 81af 7a3d
000002f0: 9af1 e13b fad5 8d3e f329 3f3e c540 8b3e
00000300: f6af 9cbd 5b3f 103c 6281 ddbb 82f9 6e3c
00000310: 8a2b 96bd 1e96 873d 0d3f abbd 1814 edbb
00000320: 1fba f13d fc39 dd3d 38b3 94bd 15e5 733d
00000330: 36b3 1b3c 0850 b03d 9200 a2bd c0fd 08be
00000340: 11c1 0c3e 42b6 1b3e 0a64 c53e 004a da3e
00000350: 37a1 fdbd 8b9d 74be 0270 c63c f92d 8ebe
00000360: 24b3 623e 436b 87bc 2b02 023f 7a88 283e
00000370: 77f6 d83d f5fc 2b3e 6d0c 48be 6524 8dbc
00000380: 3943 5d3e 9f6c 0ebc 9021 dbbe a012 a4bd
00000390: 2485 f33e c830 2b3e c677 00bd 528e 6abe
000003a0: 117a 443d b5e9 8f3e 7b96 0d3e 4e57 3e3e
000003b0: 0f77 243e 2e03 91be bdba 0bbe 9912 b73a
000003c0: c4b5 cebc b316 c4be 0be8 273c 3b68 ef3b
000003d0: 45a9 163e 8558 4abd 18a3 0f3e a784 b43e
000003e0: 96ea 37be f414 d23d f6cd c7bd a2b3 6e3d
000003f0: ff4d e0bd 70de 953c a804 393d f2aa 88bd
-0.12406114 0.012979764 -0.007257865 0.10108901 -0.019675216 0.07793389 -0.008222676 0.37920293
-0.5374088 -0.066378996 -0.00356437 -0.01915323 -0.063473344 0.10846664 0.2703351 0.2611589
0.03712023 0.23883086 0.12605758 0.010479408 0.028953198 0.10790017 0.08882648 0.23997355
0.073774695 0.12425219 -0.09498109 0.022982972 0.19592306 0.18403912 -0.013543158 -0.05098937
-0.41522276 -0.0012373734 -0.3993915 -0.061978776 -0.15451975 0.39956817 0.030837182 0.024935538
0.21547283 -0.13145474 0.013193244 0.0127957165 -0.16740212 -0.13334271 0.043271516 0.3174203
-0.52126616 0.07363423 0.13320707 -0.19132864 -0.013458791 0.037986025 0.0016807088 -0.08500245
0.15811495 0.005441811 -0.004049507 0.022851296 0.011867908 0.18443702 0.18131264 0.3182271
0.2820262 0.007726478 3.775241e-05 -0.0066882344 -0.06332051 -0.004187864 0.2490944 0.028157907
0.00020566347 0.11833134 0.33268088 0.010633087 0.43246564 0.3097457 -0.31451383 -0.19523427
0.21756425 0.066233 -0.095972866 -0.11049585 -0.028905809 -0.14743803 0.004665603 0.19625364
-0.077847354 -0.22719152 -0.0136917895 0.065978825 0.2091614 0.121572316 0.031427503 0.021197256
0.092079185 -0.0036700391 0.0678805 0.39506236 0.22441433 -0.009411753 0.24458283 -0.18429813
0.28320682 -0.4012254 0.14719556 0.09695814 0.07918426 0.0071040634 0.23509331 0.012930377
0.012755011 0.30346122 0.30778277 0.013159061 0.29239798 0.12623054 0.06304725 0.25462502
-0.2748123 0.13131303 0.14485309 -0.1874648 0.06569266 -0.013259526 0.19965419 0.29216546
0.2575492 0.00703293 0.21354249 0.01402541 -0.089069225 -0.04173034 0.014761834 0.20875908
-0.25268897 0.0017349828 0.028976427 -0.038678437 0.5023771 0.214294 -0.056506336 0.085040264
0.093730606 0.16265021 -0.47502244 0.0074202465 -0.02336765 -0.08182801 -0.008275943 0.018321581
0.23947729 0.05869482 0.10081306 0.023119463 -0.4649322 -0.3949644 -0.024470292 -0.35976905
-0.31177256 -0.02862839 0.1173108 0.096238196 -0.20112666 -0.029532032 -0.021450285 0.29655597
0.06751717 0.020595692 0.01162182 -0.00087994855 0.1291743 0.089688376 0.33171418 0.22753944
-0.5857106 0.11747941 -0.0013397713 0.4604385 -0.00044996053 0.016851794 0.021036832 0.47528052
-0.10466599 0.2532938 0.03203211 0.06120253 0.006895256 0.27702314 0.18668346 0.27197853
-0.076507494 0.008804168 -0.0067598084 0.0145858545 -0.07332523 0.066204295 -0.08361635 -0.0072350614
0.11803078 0.10802075 -0.07260746 0.05954464 0.009503176 0.08609015 -0.07910265 -0.13378048
0.13745524 0.15206245 0.38552886 0.42634583 -0.12384265 -0.23888223 0.024223331 -0.2776945
0.22138649 -0.016530639 0.5078456 0.16458312 0.105938844 0.16795714 -0.1953599 -0.017229268
0.21607675 -0.0086928895 -0.42799044 -0.08011365 0.47562516 0.16717827 -0.031364225 -0.22905853
0.047967974 0.28107992 0.13826935 0.18587992 0.16061042 -0.28322738 -0.13645454 0.0013967335
-0.025233157 -0.38298568 0.010248194 0.0073061264 0.14713009 -0.049400825 0.14027059 0.35257456
-0.17960581 0.10257903 -0.09756081 0.05827678 -0.109523766 0.018294543 0.045170456 -0.0667323

fc3.bias f4 [2]
00000000: 2466 923d 1cfd 83be
0.07148388 -0.25779045
