models/solved/checkpoint_actor_0.pth (torch_old, 183806 bytes, 6 tensors)

fc1.weight f4 [256, 48]
0	0xbe6183ea	-0.22022977
1	0x3fab3215	1.3374659
2	0xbe260655	-0.16213353
3	0xbe575704	-0.21029288
4	0xbe3381bc	-0.17529958
5	0x3f483b02	0.7821504
6	0xbe20d92e	-0.15707847
7	0xbe20b70c	-0.15694827
8	0x3ce7a773	0.028278088
9	0x3fbd43c8	1.478631
10	0xbef523ea	-0.47878963
11	0xbf4f883a	-0.8106724
12	0xbf08549d	-0.5325411
13	0x3ea6deec	0.3259195
14	0xbed57d6e	-0.41697258
15	0xbf384e50	-0.71994495
16	0x3da6eb3e	0.08150338
17	0x3f95f908	1.1716623
18	0x3ecc4499	0.39896086
19	0xbf814c63	-1.0101436
20	0xbefe579d	-0.4967622
21	0x3cf33f9c	0.029693417
22	0x3ee00245	0.43751732
23	0xbf70a64e	-0.9400376
24	0xbf7c1b68	-0.9847932
25	0xbeade450	-0.3396325
26	0x3e285e4f	0.16442226
27	0xbeb544cf	-0.3540406
28	0x3e312206	0.17298135
29	0x3f3ab02a	0.72925055
30	0x3e84b8d2	0.25922257
31	0xbeb27289	-0.34853008
32	0xbf10fca6	-0.5663551
33	0xbd806d0a	-0.062707976
34	0xbe56ad03	-0.20964436
35	0xbed7dac3	-0.4215909
36	0x3f0339d2	0.512601
37	0x3ea7c1fe	0.32765192
38	0xbe7850f8	-0.24249637
39	0xbebfc4f5	-0.37454954
40	0xbedf7bc2	-0.43649107
41	0x3de536af	0.11192071
42	0xbda372a3	-0.079808496
43	0x3d730a7c	0.05933617
44	0x3f01848a	0.50592864
45	0x3d0e1d8c	0.034696147
46	0xbd07d10d	-0.03315835
47	0x3dbb9ada	0.09160395
48	0x3f68078b	0.9063651
49	0x3fb9c0e7	1.4511994
50	0x3e88dac7	0.26729414
51	0xbf821030	-1.016119
52	0xbe92cd1b	-0.28672108
53	0xbe8357f0	-0.25653028
54	0x3e99bc03	0.30026254
55	0xbf7e028e	-0.9922265
56	0x3f0f802d	0.56054956
57	0x3f5c3428	0.86017084
58	0xbce61e04	-0.028090484
59	0xbf89f87a	-1.0778954
60	0xbde9aa2c	-0.11409411
61	0x3dd152bd	0.10220859
62	0x3d7a3fa5	0.061095852
63	0xbf84fdd9	-1.0389968
64	0x3f0f1f29	0.5590692
65	0x3ed81f65	0.42211452
66	0xbe88fb3f	-0.26754186
67	0xbff478f3	-1.9099411
68	0x3e1ff6e2	0.15621522
69	0x3e5df396	0.21674952
70	0xbe905960	-0.28193188
71	0xbffa35b4	-1.9547639
72	0xbd69dda9	-0.057096157
73	0xbc316e15	-0.010829468
74	0xbd3651dc	-0.04451166
75	0x3e8e0148	0.27735353
76	0x3e750322	0.23926976
77	0xbe861783	-0.26189813
78	0xbd462f76	-0.048385106
79	0x3e69522d	0.22785254
80	0x3913ecb3	0.0001410719
81	0xbeb314a4	-0.34976685
82	0xbe445ec1	-0.19176771
83	0xbedfa158	-0.43677783
84	0x3ddf3d60	0.10900378
85	0xbbc35358	-0.005960863
86	0xbe5fe367	-0.21864091
87	0xbf0098d2	-0.50233185
88	0x3e47272d	0.19448538
89	0xbea68853	-0.32525882
90	0x3e88fd5a	0.26755792
91	0xbf2424c8	-0.64118624
92	0xbe84d9d7	-0.2594745
93	0x3e774ebd	0.2415113
94	0x3e497bf3	0.19676189
95	0xbf19f620	-0.6014118
96	0x3ef79f3f	0.48363683
97	0x3fde0eaf	1.7348231
98	0xbd299e9d	-0.04141103
99	0xbef33fce	-0.47509617
100	0xbd6f6239	-0.05844328
101	0xbf3abe63	-0.7294676
102	0xbd8dbdf5	-0.06920997
103	0xbec3baa3	-0.3822833
104	0x3f152804	0.58264184
105	0x3fdb406d	1.7129036
106	0xbe01b0d9	-0.12665118
107	0x3cbc3513	0.022974527
108	0x3d7674c7	0.06016996
109	0xbf5a74ad	-0.85334283
110	0xbe212680	-0.15737343
111	0xbd720742	-0.059088953
112	0x3f0c3e71	0.5478278
113	0x3fcc452f	1.5958613
114	0xbe94cb79	-0.29061487
115	0xbecab13b	-0.3958834
116	0x3e95083f	0.29107854
117	0xbf6c927a	-0.92411005
118	0xbe9cd53b	-0.30631432
119	0xbec31abd	-0.38106337
120	0x3f30abf8	0.69012403
121	0x3f0a99b6	0.54140794
122	0xbe599792	-0.21249226
123	0x3f1fe6d2	0.6246158
124	0x3cbb54b3	0.022867536
125	0xbf3ae99d	-0.73012716
126	0xbe13cdfa	-0.14434043
127	0x3f19e7e1	0.60119444
128	0x3f7251b9	0.9465595
129	0x3f48923b	0.7834813
130	0x3e07b014	0.13250762
131	0x3e330940	0.17483997
132	0xbdd8886e	-0.10572897
133	0xbf562533	-0.8365051
134	0x3e46f060	0.19427633
135	0x3d9c8a77	0.076435976
136	0x3f8f7f0e	1.1210649
137	0x3f7be16f	0.9839086
138	0xbe8d20b6	-0.2756402
139	0x3ecdf240	0.40223885
140	0xbe9d0d55	-0.30674234
141	0xbf754684	-0.95810723
142	0xbe2d1c37	-0.16905294
143	0x3ebdb0e2	0.37049013
144	0xbf223e60	-0.63376427
145	0x3f1de452	0.61676514
146	0xbf01a096	-0.5063566
147	0x3c4e28a0	0.012582928
148	0x3f43e4cb	0.76520985
149	0xbeba676b	-0.36407027
150	0xbeeace8c	-0.45860708
151	0xbd596c63	-0.05308188
152	0xbee1e704	-0.44121563
153	0x3ecfa484	0.40555203
154	0xbe796bf9	-0.24357595
155	0x3c1d469f	0.009599357
156	0xbefb93ca	-0.49136192
157	0xbd4a3f85	-0.049376983
158	0xbe88321d	-0.26600733
159	0x3d0445a8	0.032292992
160	0xbdeeab08	-0.11653715
161	0x3f37e817	0.71838516
162	0xbe00987c	-0.12558168
163	0x3e84b2ef	0.25917765
164	0xbfab8e89	-1.3402873
165	0xbd81fe26	-0.06347303
166	0xbe60f3bd	-0.21967979
167	0x3e8f70a6	0.2801563
168	0xbe724106	-0.23657617
169	0xbeb30531	-0.34964898
170	0xbebbeca3	-0.36703977
171	0xbebac10e	-0.36475414
172	0xbf5d1489	-0.8635946
173	0xbecdc46d	-0.40188923
174	0xbeaddaa5	-0.33955875
175	0xbebc2348	-0.36745667
176	0xbe95079c	-0.29107368
177	0xbe5fb825	-0.2184759
178	0xbee3ac6e	-0.4446749
179	0x3f4c8006	0.7988285
180	0x3f059733	0.52183837
181	0xbdc05168	-0.09390527
182	0xbed21750	-0.4103341
183	0x3f3bc99a	0.73354495
184	0xbe6a81a8	-0.22901022
185	0x3e2df6ff	0.16988753
186	0xbf1bf24c	-0.6091659
187	0x3f69b7ce	0.9129609
188	0x3fb3250f	1.3995684
189	0x3d422176	0.047395192
190	0xbf31761a	-0.69320834
191	0x3f667c10	0.90033054
192	0xbe17d761	-0.14828254
193	0x3f51d93d	0.81972104
194	0xbd6a892a	-0.057259716
195	0x3ee2dcd3	0.443091
196	0x3de9b721	0.11411882
197	0x3f20cf20	0.6281605
198	0x3c1b4568	0.009476997
199	0x3ed585a7	0.4170353
200	0x3d84d074	0.06485072
201	0x3f332b57	0.69988006
202	0x3c2ea437	0.010659269
203	0xbe4ecb2c	-0.20194691
204	0x3fb41022	1.4067423
205	0x3e98ea2e	0.29866165
206	0xbd678f22	-0.056532986
207	0xbe255926	-0.16147289
208	0x3dabb38e	0.08383857
209	0x3eb53187	0.3538935
210	0xbdbc8b9d	-0.092063166
211	0x3dcfdf96	0.101500675
212	0x4038468b	2.8793056
213	0xbe13d778	-0.14437664
214	0xbd4b5b6d	-0.049647737
215	0x3d109d78	0.035306424
216	0x3e644868	0.22293246
217	0xbe5aba9a	-0.21360245
218	0xbd80d366	-0.06290321
219	0xbe7a5cee	-0.24449512
220	0xbe3d2b5b	-0.1847357
221	0x3f2a4776	0.6651529
222	0xbb5ed790	-0.0034002997
223	0xbdfe58ad	-0.12419257
224	0x3e500fe4	0.20318562
225	0xbe8ddac2	-0.2770596
226	0x3ae73c29	0.001764183
227	0xbcfba497	-0.030718131
228	0xbfb4ea66	-1.4134033
229	0x3e65d535	0.22444613
230	0x3d64d220	0.055864453
231	0xbdbdf4de	-0.0927522
232	0x3e0a846d	0.13527079
233	0xbe8690a3	-0.26282224
234	0xbd0764b8	-0.033055037
235	0x3ef4f11d	0.47840205
236	0xc0348fc7	-2.8212755
237	0xbe2df638	-0.16988456
238	0x3cef380f	0.029201536
239	0x3ed979b3	0.42475662
240	0x3f447f90	0.76757145
241	0x3fc699d2	1.5515692
242	0xbe2b2b0c	-0.1671564
243	0x3ea5f4b3	0.32413253
244	0xbe63ebca	-0.22257915
245	0xbdea6cef	-0.11446559
246	0xbe1996b0	-0.14998889
247	0x3ea53441	0.3226643
248	0x3f2474d9	0.64240795
249	0x3fbcbda5	1.4745375
250	0x3d9d1775	0.0767049
251	0x3f2c56e2	0.6732007
252	0x3f26800c	0.65039134
253	0xbd6ea0db	-0.058258872
254	0x3d668b03	0.056284916
255	0x3f2b4aec	0.66911197

fc1.bias f4 [256]
0	0x3ebf0ca8	0.37314343
1	0xbdee5407	-0.11637121
2	0xbf501eeb	-0.8129718
3	0xbe81317d	-0.2523307
4	0xbe13eb58	-0.14445245
5	0xbf0db622	-0.5535604
6	0xbf0f4902	-0.55970776
7	0xbe52da99	-0.20591201
8	0xbeb7a311	-0.35866597
9	0xbf418e84	-0.75608087
10	0x3e324d6c	0.17412347
11	0xbec9253d	-0.39286223
12	0xbedfd0d3	-0.43714008
13	0x3e906554	0.28202307
14	0xbf06b25a	-0.5261589
15	0xbf1ec381	-0.62017065
16	0xbf3392b3	-0.7014572
17	0xbf0fc57c	-0.5616071
18	0xbf89aa77	-1.0755147
19	0xbe2b43db	-0.16725104
20	0xbe4ac3cd	-0.19801255
21	0xbf26e4c0	-0.65192795
22	0xbef63c58	-0.48092914
23	0xbf441e35	-0.7660859
24	0xbe3377b7	-0.17526136
25	0x3f464f59	0.77464825
26	0xbe84b7e8	-0.2592156
27	0xbf31cd9b	-0.69454354
28	0xbf26f184	-0.65212274
29	0xbf97f735	-1.1872317
30	0xbf136589	-0.57576805
31	0x3f2eaa11	0.6822825
32	0xbd831863	-0.06401136
33	0xbef68aff	-0.4815292
34	0xbeb18fc2	-0.3467999
35	0xbebdcb6f	-0.3706927
36	0xbedaeb09	-0.42757443
37	0xbecc3fca	-0.39892417
38	0xbf716872	-0.94299996
39	0xbea66855	-0.32501474
40	0xbf1e0594	-0.6172726
41	0xbec83e46	-0.3911001
42	0xbf40fa1f	-0.75381655
43	0x3ea21b8d	0.31661645
44	0xbf2fbc97	-0.6864714
45	0xbf6159d5	-0.880277
46	0xbf1a33d0	-0.6023531
47	0xbf0455ff	-0.5169372
48	0xbe5655a9	-0.20931114
49	0xbeee9f3b	-0.46605858
50	0xbf0e5600	-0.55599976
51	0x3da8b294	0.08237186
52	0xbf215db8	-0.6303363
53	0xbf26c4cf	-0.65144056
54	0xbef34aaf	-0.47517917
55	0xbe9a0a2c	-0.30085886
56	0xbf30eab1	-0.6910811
57	0xbeaf9f4a	-0.34301215
58	0xbeeb2c8a	-0.45932418
59	0xbf08a29a	-0.5337311
60	0xbf33d147	-0.70241207
61	0xbf2e6e99	-0.6813751
62	0xbf516e47	-0.81808895
63	0xbe928004	-0.28613293
64	0xbefe2252	-0.4963556
65	0xbf3bc679	-0.7334972
66	0xbf717868	-0.9432435
67	0xbecf254a	-0.40458137
68	0xbe4f7e24	-0.20262963
69	0xbf52fd4d	-0.82417756
70	0xbe25da3b	-0.1619653
71	0xbf7f0f44	-0.9963267
72	0xbf3b2530	-0.7310362
73	0xbebb8227	-0.36622736
74	0xbe5cb3e6	-0.21553001
75	0xbf1631e8	-0.586699
76	0xbf7dfb89	-0.9921194
77	0xbf441e8a	-0.766091
78	0xbeb0211a	-0.34400254
79	0xbf1dccfa	-0.61640894
80	0xbf3a5f19	-0.7280136
81	0xbdb24059	-0.087036796
82	0xbee85b14	-0.45381987
83	0xbef62952	-0.480784
84	0xbdd6daed	-0.104909755
85	0xbec2cde1	-0.38047698
86	0xbf6022a3	-0.8755285
87	0xbf2db01e	-0.6784686
88	0xbf73c90f	-0.95228666
89	0xbeae2843	-0.34015092
90	0xbf090b5f	-0.53532976
91	0xbf1e0b5c	-0.61736083
92	0xbedb0fea	-0.4278558
93	0xbe0810e7	-0.13287698
94	0xbe9f6028	-0.3112805
95	0xbf52a3d1	-0.82281214
96	0xbf1ae622	-0.60507405
97	0xbed56ee6	-0.4168617
98	0xbeb21d41	-0.34787944
99	0x3bcf5013	0.0063266843
100	0xbf534a08	-0.8253484
101	0xbf0efb59	-0.55852276
102	0x3f160f2c	0.586169
103	0xbf259db4	-0.6469376
104	0xbf2f48f0	-0.6847067
105	0xbf7549b6	-0.958156
106	0xbf2b5fbd	-0.6694296
107	0x3dbb6683	0.09150412
108	0xbe6730bf	-0.22577189
109	0xbed1074e	-0.40825886
110	0xbf2ca4dd	-0.6743906
111	0xbe6b43a7	-0.22975026
112	0xbf521e57	-0.82077545
113	0x4007a504	2.1194468
114	0xbf5742b2	-0.84086144
115	0xbf1bafe8	-0.60815287
116	0xbf2cec34	-0.6754792
117	0xbf15edcc	-0.58565974
118	0xbef6db8e	-0.48214382
119	0xbcf5f3c9	-0.030023472
120	0xbf32af97	-0.6979918
121	0xbedda516	-0.43290013
122	0xbf7126c2	-0.94199765
123	0xbe07d14a	-0.13263431
124	0xbed70da6	-0.420026
125	0xbf507fdf	-0.81445116
126	0xbf5384f0	-0.8262472
127	0xbf00031c	-0.50004745
128	0xbf444667	-0.76669925
129	0x3fa01c89	1.2508708
130	0xbf3da69f	-0.7408237
131	0xbebdcf39	-0.3707216
132	0x3e8756fe	0.26433557
133	0xbf3e7b7e	-0.74407184
134	0xbe864fe6	-0.26232833
135	0xbcb960a2	-0.022629086
136	0xbe9bad6a	-0.30405742
137	0xbefac02b	-0.48974738
138	0xbef7b917	-0.483834
139	0xbf98794c	-1.1912017
140	0xbf972980	-1.180954
141	0xbf8dc258	-1.1074934
142	0xbf8f0535	-1.1173464
143	0xbf4020c9	-0.75050026
144	0x3eb85ca8	0.3600819
145	0xbf19494d	-0.59877473
146	0xbf36b320	-0.71367073
147	0xbeb0ef93	-0.3455778
148	0xbe780404	-0.24220282
149	0xbf2fc633	-0.68661803
150	0xbf838aa0	-1.027668
151	0xbeb6a7dd	-0.35674945
152	0xbe5c0260	-0.21485281
153	0xbe5b1d10	-0.21397805
154	0xbf7ed3aa	-0.99541724
155	0xbf3b70f0	-0.73219204
156	0xbf47e849	-0.78088814
157	0xbf69a625	-0.9126914
158	0xbf0e5243	-0.5559427
159	0xbf221331	-0.63310534
160	0xbf2ac127	-0.6670098
161	0x3f031dd3	0.51217383
162	0xbec47a3c	-0.38374507
163	0x3d5a9c2e	0.0533716
164	0xbf75b4a6	-0.9597877
165	0xbf0eae1b	-0.55734414
166	0xbf356af8	-0.70866346
167	0xbf15c2c8	-0.5850034
168	0xbebfbfa1	-0.3745089
169	0xbf948ab1	-1.1604825
170	0xbed1275a	-0.40850335
171	0xbef36020	-0.47534275
172	0xbe74749c	-0.23872608
173	0xbef5a2e5	-0.4797584
174	0xbf0aef0d	-0.5427101
175	0xbf484f3f	-0.7824592
176	0xbf2ffd45	-0.68745834
177	0xbec97512	-0.3934713
178	0xbe79c5e7	-0.243919
179	0xbf0850b6	-0.53248155
180	0xbf26ecbc	-0.6520498
181	0xbf48d9a4	-0.78457093
182	0xbf80469e	-1.0021551
183	0xbf6abd85	-0.91695434
184	0xbe8e8cb8	-0.27841735
185	0xbf360db0	-0.71114635
186	0xbee4cc30	-0.44687033
187	0xbec4a552	-0.3840738
188	0x3f818be2	1.0120814
189	0xbf2ee8f5	-0.68324214
190	0xbf3cb484	-0.73712945
191	0x3d187eef	0.03723043
192	0xbf743caf	-0.95405096
193	0xbf616dc6	-0.88058126
194	0xbeecd2bc	-0.46254528
195	0xbf4ec2b9	-0.80765873
196	0xbec32c89	-0.38119915
197	0xbe90a877	-0.28253528
198	0xbf10e3a4	-0.5659735
199	0xbf82de89	-1.0224162
200	0xbef89d86	-0.4855768
201	0xbdf65185	-0.12027267
202	0xbe8a6974	-0.2703358
203	0xbef71287	-0.48256323
204	0xbf041379	-0.5159221
205	0x3e66594f	0.22495006
206	0xbf6aad8c	-0.9167106
207	0xbf63b296	-0.88944376
208	0xbee80a8b	-0.45320544
209	0xbf1e7542	-0.6189767
210	0xbee950e3	-0.45569524
211	0xbf896795	-1.0734736
212	0xbe93b389	-0.28847912
213	0xbf2abf94	-0.66698575
214	0xbed76f37	-0.42077038
215	0xbf0500be	-0.5195426
216	0xbf51207a	-0.8169018
217	0xbf42ec32	-0.76141655
218	0xbf1f64c6	-0.62263143
219	0xbf1dcf2b	-0.6164424
220	0xbf334c40	-0.70038223
221	0xbf62061d	-0.8829058
222	0xbeb50f7e	-0.35363382
223	0xbe23f597	-0.16011654
224	0xbd4c5488	-0.049885303
225	0xbd886c90	-0.06661332
226	0xbf287c90	-0.6581507
227	0x3c8b1de0	0.016982019
228	0xbed197d9	-0.40936163
229	0xbee76f89	-0.45202282
230	0xbee7ab45	-0.45247856
231	0xbe2aaf5d	-0.16668458
232	0xbf33e411	-0.70269877
233	0xbf6a666e	-0.91562545
234	0xbf3a4db8	-0.7277484
235	0xbe955f66	-0.29174346
236	0xbf069bdc	-0.5258157
237	0xbeccb06a	-0.39978343
238	0xbf881fbe	-1.0634687
239	0xbec8e4f2	-0.3923717
240	0xbf3151dc	-0.6926553
241	0xbf53a537	-0.8267397
242	0xbf03bb94	-0.51458097
243	0xbf3e7cef	-0.74409384
244	0xbf78a411	-0.97125345
245	0xbf4311ab	-0.76198834
246	0xbf5f70c4	-0.8728144
247	0xbf672590	-0.9029169
248	0x3e8e8835	0.27838293
249	0xbe55a1e6	-0.2086254
250	0xbf671238	-0.90262175
251	0xbe9f9596	-0.31168813
252	0xbf13e3f4	-0.57769704
253	0xbf60f655	-0.8787587
254	0xbf204813	-0.62609977
255	0xbf213336	-0.62968767

fc2.weight f4 [128, 256]
0	0xbf08c262	-0.53421605
1	0x3e2bd510	0.16780496
2	0x3de92a39	0.113850065
3	0xbe02855d	-0.12746187
4	0xbf296091	-0.66162974
5	0xbe2caab2	-0.1686199
6	0x3e9141e0	0.2837057
7	0xbbe4e7d9	-0.006985646
8	0xbeef7e2b	-0.46775946
9	0x3ede72f3	0.43447074
10	0x3d4cfaa5	0.05004372
11	0xbecfdae7	-0.40596697
12	0xbeba8797	-0.36431572
13	0x3dc50538	0.09620136
14	0xbe8cd672	-0.2750736
15	0xbc3dc859	-0.011583411
16	0x3f2f9441	0.6858559
17	0xbec7d27a	-0.39027768
18	0x3f2928de	0.66077983
19	0xbe7575c0	-0.239707
20	0x3ed4c86a	0.41559154
21	0x3f28e1f7	0.65969795
22	0xbec0d872	-0.37665135
23	0xbe9e5fa1	-0.30932334
24	0xbf0bfe50	-0.54684925
25	0xbcc15b50	-0.023603112
26	0x3f01e1f9	0.5073543
27	0x3ea9b9ec	0.3314966
28	0xbee9f1e4	-0.4569236
29	0xbb43e1c2	-0.00298892
30	0xbe925dee	-0.28587288
31	0xbf2e0245	-0.67972213
32	0x3ee79bd3	0.45236072
33	0x3eea3803	0.4574586
34	0x3f4b72a5	0.7947181
35	0x3e9b8395	0.30373827
36	0x3ebfa085	0.37427154
37	0x3e9df3d9	0.30850103
38	0xbddf71f4	-0.10910407
39	0xbe99731b	-0.2997063
40	0xbef9a490	-0.48758364
41	0x3e994c9b	0.29941258
42	0x3f175c28	0.59124994
43	0xbe74d701	-0.23910142
44	0xbc6a8da8	-0.014316
45	0xbd1690e7	-0.036759283
46	0xbee74386	-0.45168704
47	0xbe31bbfc	-0.17356867
48	0x3eaa3f02	0.33251196
49	0xbed87b2c	-0.42281473
50	0x3eb3044e	0.34964222
51	0xbf3e7666	-0.7439941
52	0x3d3cd2d4	0.0460995
53	0x3e05e139	0.13074197
54	0xbecafc35	-0.39645544
55	0x3f07edb2	0.5309707
56	0x3be070e3	0.0068493946
57	0x3e20c0ce	0.15698549
58	0x3dc382da	0.09546442
59	0x3ea77175	0.32703748
60	0x3e8d2a0e	0.27571148
61	0x3f0dd854	0.55408216
62	0x3e255ee4	0.16149479
63	0x3cc4585b	0.023967912
64	0xbe605855	-0.21908696
65	0x3e6be693	0.23037176
66	0x3e8b084a	0.27154762
67	0xbb95c617	-0.0045707333
68	0xbe92bac2	-0.2865811
69	0xbec25ca7	-0.37961313
70	0x3d85bdb2	0.06530322
71	0x3f037750	0.5135393
72	0xbd15872f	-0.036505874
73	0xbe3757e9	-0.17904629
74	0x3e3ceba2	0.18449262
75	0x3ed8fcd9	0.42380407
76	0x3e6a9050	0.22906613
77	0x3de1b8a0	0.110215425
78	0x3d30cbd6	0.043163143
79	0xbe8e38bf	-0.2777767
80	0x3ede1807	0.43377706
81	0x3a58f313	0.0008275967
82	0x3f6d543c	0.92706656
83	0x3e6542dd	0.22388788
84	0x3ebe3117	0.37146828
85	0xbe8b64b7	-0.27225277
86	0x3d5861e4	0.05282773
87	0xbd6bedd1	-0.057599846
88	0x3c977ce7	0.018492175
89	0x3e1c7e3e	0.15282533
90	0xbf456fb6	-0.7712358
91	0xbee27b35	-0.44234625
92	0x3f6672c3	0.9001886
93	0xbecbe813	-0.39825496
94	0xbf2e2e9c	-0.6803987
95	0xbeb565b6	-0.35429162
96	0x3f941de4	1.1571622
97	0xbd8c320b	-0.068454824
98	0xbda79a88	-0.08183771
99	0xbefedd22	-0.49778086
100	0xbed4e10c	-0.41577947
101	0xbeb94c65	-0.36191097
102	0xbde6b9b2	-0.11265887
103	0x3f374c8d	0.7160118
104	0xbedc89ec	-0.43073976
105	0xbe309a38	-0.1724633
106	0x3f7a74ef	0.97834677
107	0xbeca6540	-0.39530373
108	0xbe4fdf66	-0.20300063
109	0xbe40c573	-0.18825321
110	0x3ee76f01	0.45201877
111	0x3e350ecc	0.17681426
112	0x3f0292ad	0.5100506
113	0xbf456f2f	-0.7712278
114	0xbe99e968	-0.30060887
115	0xbe909f02	-0.28246313
116	0x3f3553e2	0.7083112
117	0xbc3621db	-0.01111647
118	0x3e0e81c4	0.13916689
119	0x3dfce5b0	0.12348497
120	0xbea9cc4a	-0.33163673
121	0xbe00291c	-0.12515682
122	0x3ef5e035	0.4802262
123	0xbca11876	-0.019664984
124	0x3f342c28	0.7037988
125	0xbd4e003a	-0.050293185
126	0x3e744ce6	0.2385746
127	0x3ea0169f	0.3126726
128	0xbec7dcf2	-0.39035755
129	0xbe5ac10b	-0.21362703
130	0xbdda49b0	-0.10658586
131	0x3ec3d137	0.38245556
132	0xbe083a8f	-0.13303588
133	0x3e9b3b21	0.3031855
134	0x3c50175d	0.012700883
135	0xbe69b0fd	-0.22821422
136	0xbe960e5b	-0.29307827
137	0x3d9d5b83	0.0768347
138	0xbea3ff89	-0.32030895
139	0xbf4aa57f	-0.79158777
140	0xbe4468d7	-0.19180618
141	0x3e60b4f9	0.21944036
142	0x3e404037	0.18774496
143	0x3eb6871b	0.35649952
144	0x3f027f57	0.50975555
145	0x3ebcb493	0.36856517
146	0x3f30ba97	0.69034714
147	0xbee52e94	-0.447621
148	0x3e9d15b1	0.30680612
149	0x3f3fd839	0.74939305
150	0x3ea36267	0.31911013
151	0x3e9a62a4	0.30153382
152	0x3f08aa5d	0.53384954
153	0xbd337468	-0.043812186
154	0xbd1ff3da	-0.039050914
155	0x3e8ae514	0.27127898
156	0x3e966cd8	0.29379916
157	0x3e198296	0.14991221
158	0xbe3cb4c0	-0.18428326
159	0x3f12b489	0.57306725
160	0x3dcad616	0.09904115
161	0xbec24764	-0.37945092
162	0x3e6bfad7	0.23044907
163	0xbe30bade	-0.17258784
164	0x3f1a4a2f	0.60269445
165	0x3e840190	0.25782442
166	0x3e900b0e	0.28133434
167	0x3f0b6cc2	0.54462826
168	0xbe0e69c8	-0.1390754
169	0x3dcccf43	0.100004695
170	0x3d8570eb	0.06515678
171	0x3c2d622c	0.010582488
172	0xbca2c117	-0.019867463
173	0xbe544954	-0.20731097
174	0xbf0652ac	-0.524699
175	0xbecc3c48	-0.3988974
176	0xbdbff713	-0.093732975
177	0x3ed54b2c	0.41658914
178	0x3eb1ff09	0.3476489
179	0xbf11adc7	-0.5690579
180	0xbeb10c21	-0.34579566
181	0x3f1924db	0.5982186
182	0x3eff481b	0.498597
183	0x3f10c107	0.56544536
184	0xbeed7e51	-0.46385434
185	0x3ed047f9	0.4067991
186	0x3e031ea2	0.12804654
187	0xbeb529b2	-0.35383373
188	0x3dee7d05	0.11644939
189	0x3f2dcbc6	0.6788906
190	0x3f11aad1	0.5690127
191	0xbebd4eca	-0.36974174
192	0x3c4f99d0	0.012670949
193	0x3f3754ae	0.71613586
194	0x3ef97616	0.48722905
195	0x3e66f216	0.22553286
196	0x3e7b4009	0.24536146
197	0xbecbb14c	-0.39783704
198	0xbd60f255	-0.054918606
199	0xbdcf1c91	-0.101128705
200	0x3dc3deb7	0.09563964
201	0x3ea12f63	0.31481466
202	0xbefe7646	-0.4969961
203	0xbeb2ae5a	-0.34898645
204	0xbf347e97	-0.7050566
205	0x3d9d987b	0.07695099
206	0xbb874a10	-0.004128702
207	0x3eb4ff19	0.35350874
208	0x3f1c4d9f	0.6105594
209	0x3f09ab9e	0.5377749
210	0xbeab0daf	-0.33408877
211	0x3c7f8030	0.015594527
212	0x3e3f7f33	0.18700866
213	0x3ef1be1a	0.47215348
214	0x3e91478c	0.28374898
215	0xbe158f70	-0.14605498
216	0xbec0353d	-0.37540618
217	0xbd516743	-0.05112387
218	0x3ea37964	0.3192855
219	0x3f0f6cec	0.56025577
220	0x3f8a7032	1.0815489
221	0xbca872ea	-0.020562608
222	0x3f17e00d	0.5932625
223	0xbd94ba3a	-0.072620824
224	0x3efb5d5a	0.4909466
225	0xbe085204	-0.13312536
226	0x3ea2d1dd	0.31800738
227	0xbd62808e	-0.05529838
228	0xbceaac82	-0.028646711
229	0xbd7a6c6a	-0.061138548
230	0x3ea9f887	0.33197424
231	0x3e4f3af9	0.2023734
232	0xbf0d4b1b	-0.55192727
233	0x3ddbcdf8	0.10732645
234	0x3dab31cf	0.083591096
235	0xbe410cf2	-0.18852594
236	0x3f18caf4	0.5968468
237	0xbee08989	-0.4385493
238	0xbe5bb2bf	-0.21454905
239	0x3f30910c	0.68971324
240	0xbe459753	-0.19296007
241	0xbf612e9d	-0.8796175
242	0xbe74a862	-0.23892358
243	0x3dc8780c	0.09788522
244	0xbd896487	-0.06708627
245	0x3f05ad3b	0.52217454
246	0x3dd74024	0.10510281
247	0xbf11d386	-0.56963384
248	0xbee8f55d	-0.45499697
249	0xbe105db6	-0.14098248
250	0xbf30187b	-0.68787354
251	0x3ee2ee8c	0.44322622
252	0xbc243aee	-0.010023816
253	0x3e8c855f	0.27445504
254	0xbf017486	-0.50568426
255	0x3eafa1ad	0.34303036

fc2.bias f4 [128]
0	0xbf45a9a9	-0.77212006
1	0xbf02da84	-0.5111468
2	0xbe0c3dab	-0.136954
3	0xbe806470	-0.25076628
4	0xbe2e81f2	-0.17041758
5	0xbdb366de	-0.08759855
6	0xbfa893e5	-1.3170134
7	0xbefa46b1	-0.48882058
8	0xbf494767	-0.78624576
9	0xbea2c833	-0.31793365
10	0x3cad00ab	0.021118483
11	0xbda4654d	-0.08027134
12	0xbe06e05e	-0.13171527
13	0xbf8d73d3	-1.1050972
14	0xbf414c44	-0.75507
15	0xbe57c666	-0.21071777
16	0xbeb34a81	-0.3501778
17	0xbe818932	-0.25299984
18	0xbf2b5554	-0.66927075
19	0xbe1a534a	-0.15070835
20	0xbeb40b04	-0.35164654
21	0x3def34f0	0.11680019
22	0xbf138ac0	-0.5763359
23	0xbf6360e8	-0.8881974
24	0x3dba5721	0.0909865
25	0xbcbdfda5	-0.023192236
26	0x3e71bcb5	0.23607142
27	0xbd8b2af5	-0.06795303
28	0xbea34fa5	-0.318967
29	0xbe80ee76	-0.2518193
30	0xbe6758dc	-0.22592491
31	0xbda6eb29	-0.08150322
32	0xbf8a111a	-1.0786469
33	0xbdedb6db	-0.116071425
34	0xbfb6a425	-1.4268843
35	0xbebb110f	-0.36536452
36	0xbf2171da	-0.6306435
37	0xbf3252d5	-0.6965764
38	0xbf62455f	-0.883871
39	0xbc25b6e6	-0.010114407
40	0xbea64273	-0.32472572
41	0xbcb83ce9	-0.022489982
42	0x3deb9b24	0.115042
43	0xbf7bd090	-0.98365116
44	0xbe429b05	-0.19004448
45	0xbdd7c10d	-0.105348684
46	0xbcbb158e	-0.022837427
47	0xbf3fcc1e	-0.74920833
48	0xbe9645ff	-0.29350278
49	0xbf7251e4	-0.94656205
50	0xbec0ed44	-0.3768102
51	0xbf85c25f	-1.0449942
52	0xbeba2153	-0.3635355
53	0xbe4cd197	-0.20001827
54	0xbeb500f5	-0.35352293
55	0xbe9798ea	-0.29608852
56	0xbe726409	-0.23670973
57	0xbe6cd857	-0.23129402
58	0xbe7d69ca	-0.24747387
59	0xbf1ffbe6	-0.6249374
60	0x3e074a70	0.1321199
61	0x3b570176	0.0032807267
62	0xbfb2725a	-1.3941147
63	0xbd319b8c	-0.04336123
64	0xbf2d70b8	-0.6775012
65	0x3e443b3e	0.19163224
66	0xbe87ab7e	-0.26498026
67	0xbefda3e2	-0.49539095
68	0xbf350cea	-0.7072283
69	0xbd66412d	-0.0562145
70	0xbe269bd3	-0.1627038
71	0x3c371541	0.011174501
72	0x3d41ea5b	0.04734264
73	0xbec433d9	-0.38320807
74	0xbedc143f	-0.42984197
75	0xbe82bc80	-0.2553444
76	0xbed208f8	-0.41022468
77	0xbe35496a	-0.17703786
78	0xbea1e29a	-0.31618196
79	0x3ded42d4	0.11585012
80	0xbfca41a9	-1.5801288
81	0xbf3e6aab	-0.7438151
82	0xbeb4b444	-0.35293782
83	0xbf623c5f	-0.8837337
84	0xbe8ad35f	-0.27114388
85	0xbe61415e	-0.21997592
86	0xbe976e24	-0.29576218
87	0xbdb58ac9	-0.08864362
88	0xbea93cce	-0.33054203
89	0xbf0c403a	-0.547855
90	0xbe827269	-0.25477913
91	0xbf9ac509	-1.209138
92	0xbf3ccb30	-0.7374754
93	0xbc2619fc	-0.010138031
94	0xbde74c7e	-0.112938866
95	0xbe834e8d	-0.25645867
96	0xbe76e507	-0.24110804
97	0xbf8c9ec7	-1.0985955
98	0xbf03ef92	-0.5153743
99	0xbc856468	-0.016283229
100	0xbf8daa1c	-1.1067538
101	0x3e55b071	0.20868088
102	0xbea08fd8	-0.31359744
103	0x3dbb2d0e	0.09139453
104	0xbf82ee2d	-1.0228935
105	0x3d33baed	0.04387944
106	0xbe3d9a18	-0.18515813
107	0xbd0c0318	-0.034182638
108	0x3e3f34e9	0.18672527
109	0xbea6a843	-0.32550249
110	0xbee6c5f5	-0.45072904
111	0xbf26de1e	-0.65182674
112	0xbf24ad95	-0.64327365
113	0xbe7ab34f	-0.24482463
114	0xbf5610d6	-0.8361944
115	0xbeb0a806	-0.34503192
116	0xbdfdbc99	-0.12389488
117	0xbd3ea50e	-0.046544127
118	0xbf4cb0cb	-0.79957265
119	0xbe82ca39	-0.2554491
120	0xbefadded	-0.4899744
121	0xbf7f1e08	-0.996552
122	0xbebfa0e8	-0.3742745
123	0xbf987214	-1.1909814
124	0xbea96b60	-0.33089733
125	0xbef407fa	-0.47662336
126	0x3e813610	0.2523656
127	0xbea1e906	-0.31623095

fc3.weight f4 [2, 128]
0	0x3d1c9cf5	0.038235623
1	0xbd5ece10	-0.054395735
2	0x3e75ae55	0.23992284
3	0x3d171b63	0.036891352
4	0x3c792e82	0.015208842
5	0x3edd606f	0.43237635
6	0xbdf0a587	-0.11750322
7	0x3eac860f	0.3369603
8	0xbba25bfe	-0.004954814
9	0x3ed58562	0.41703326
10	0x3eb22a77	0.34798023
11	0x3e8a858b	0.2705501
12	0x3cb220b6	0.021744113
13	0xbe6e5386	-0.23274049
14	0xbe90b6c7	-0.28264448
15	0x3ed7dc9f	0.42160508
16	0x3e07b726	0.1325346
17	0xbea5b174	-0.32361948
18	0x3e0f8e29	0.14019074
19	0x3e235095	0.15948708
20	0x3e1f728d	0.15571041
21	0xbd3820b7	-0.044953074
22	0xbc282cb2	-0.010264562
23	0xbdb69b07	-0.08916288
24	0x3e837b37	0.25679943
25	0xbca97e72	-0.020690177
26	0x3f008d98	0.50216055
27	0xbdfac2b1	-0.12244166
28	0xbdd28b9b	-0.10280534
29	0xbcd752ee	-0.026284661
30	0xbd03ffc8	-0.032226354
31	0xbce4e2a1	-0.027940096
32	0xbe1e6699	-0.15468825
33	0x3e6c2a4f	0.23063014
34	0xbe9aa637	-0.30204937
35	0xbe2b553c	-0.16731733
36	0xbdfafd83	-0.12255385
37	0xbccd6ae1	-0.025075378
38	0xbe271d15	-0.16319688
39	0x3e824a34	0.25447237
40	0x3e0c885e	0.13723895
41	0x3b98afb0	0.0046596155
42	0x3ecbaf38	0.3978212
43	0x3cebc183	0.028778797
44	0x3e25aed4	0.16179973
45	0x3adbc2e2	0.0016766454
46	0x3dbb4c8c	0.091454595
47	0xbf06ec8b	-0.52704686
48	0xbde76798	-0.11299056
49	0xbb5def39	-0.0033864512
50	0x3c5521e8	0.013008572
51	0xbe1e4b44	-0.15458399
52	0x3e23491b	0.15945856
53	0x3da966c2	0.082715526
54	0x3d77b0f7	0.0604715
55	0x3e101980	0.14072227
56	0x3ea8be91	0.3295789
57	0xbe603124	-0.21893746
58	0x3eada718	0.33916545
59	0x3e81389c	0.25238502
60	0x3e7bd602	0.24593356
61	0x3dc62a80	0.09676075
62	0xbeaa22f6	-0.33229798
63	0x3f36ec08	0.71453905
64	0x3e23848b	0.1596853
65	0x3c752b02	0.014963867
66	0x3e95d067	0.2926056
67	0xbc4572c9	-0.012051293
68	0xbe2c569d	-0.16829915
69	0xbd7bc9e9	-0.061471853
70	0x3d57cb23	0.05268396
71	0x3dd4ea42	0.10396244
72	0x3dcadad8	0.099050224
73	0xbcada721	-0.021197857
74	0xbec3e04c	-0.38257062
75	0x3cd198e5	0.025585601
76	0xbdd6fc5a	-0.10497351
77	0xbdce3420	-0.10068536
78	0x3eaeccae	0.34140533
79	0x3d4d7c6f	0.050167497
80	0xbe29f351	-0.16596724
81	0xbf122ada	-0.57096636
82	0x3e3a3fbe	0.18188378
83	0xbd7c6406	-0.061618827
84	0x3ec3df99	0.3825653
85	0xbe5b83f2	-0.21437052
86	0x3ed035fb	0.40666184
87	0x3ebfb24e	0.37440723
88	0x3d9d7f00	0.07690239
89	0xbdc2593a	-0.09489675
90	0xbc855fb3	-0.016280985
91	0xbe58d0e8	-0.21173441
92	0xbe12b1ff	-0.14325713
93	0x3e13954f	0.14412425
94	0x3d4534f9	0.04814622
95	0xbc348f34	-0.01102047
96	0xbc8c135b	-0.017099073
97	0xbe838bc9	-0.25692585
98	0xbecce1ac	-0.40015924
99	0x3d1bfc4f	0.038082417
100	0x3c0cda80	0.008597016
101	0x3eef36e0	0.46721554
102	0x3e713d91	0.23558642
103	0x3ee7e29d	0.4529008
104	0xbedd313c	-0.43201625
105	0x3ec9868b	0.3936046
106	0xbca3f0ff	-0.020012377
107	0xbbba1cbc	-0.005679695
108	0x3d10deaa	0.0353686
109	0xbd3f4c05	-0.046703357
110	0xbe392235	-0.18079455
111	0xbbc36d6d	-0.0059639723
112	0xbd4fb05e	-0.050705306
113	0x3ddcf774	0.107893854
114	0xbec4f38c	-0.38467062
115	0xbe4b3f26	-0.19848308
116	0xbe29da10	-0.1658709
117	0x3ca1d0fb	0.01975297
118	0xbc18af33	-0.0093191145
119	0x3d535011	0.05159003
120	0xbd631a12	-0.055444784
121	0xbeacca71	-0.337482
122	0x3e7278fc	0.23678964
123	0xbeb7aa0f	-0.35871932
124	0xbe0ae9ae	-0.13565704
125	0xbb7dde79	-0.003873734
126	0x3cd7fc88	0.026365533
127	0x3e678e47	0.22612868
128	0xbf1a7037	-0.60327476
129	0x3ebe45c9	0.37162617
130	0xbeb87efd	-0.36034384
131	0xbf8f6146	-1.120156
132	0x3c134143	0.008987728
133	0xbe1f85ff	-0.15578459
134	0x3f0b6fc0	0.5446739
135	0x3f33759f	0.7010135
136	0xbe1c0012	-0.15234402
137	0x3ea81b24	0.32833207
138	0x3f8a77e7	1.0817841
139	0xbf245030	-0.64184856
140	0x3c80b8d0	0.015713125
141	0xbc215533	-0.009846973
142	0x3f30e5ac	0.6910045
143	0x3ea4c790	0.32183504
144	0xbf4f9f7e	-0.8110274
145	0x3f580329	0.8437982
146	0x3f221594	0.63314176
147	0xbdd709cf	-0.10499918
148	0xbd2ed6a8	-0.04268518
149	0x3f185fb2	0.5952102
150	0x3f3e7b71	0.74407107
151	0xbcb9f40d	-0.02269938
152	0xbe8546c4	-0.26030552
153	0xbd376d9e	-0.044782273
154	0x3e6179eb	0.22019164
155	0x3daa1d64	0.08306387
156	0x3f7735b6	0.9656633
157	0x3f5dfec0	0.8671684
158	0x3f7911d1	0.9729281
159	0xbcb4170f	-0.021983651
160	0x3eae0773	0.33990058
161	0xbf75a50a	-0.95954955
162	0x3edfd6f7	0.43718693
163	0xbf56f923	-0.839739
164	0xbd223a98	-0.03960666
165	0x3f4e7d48	0.80659914
166	0xbd8851f1	-0.06656254
167	0xbdd84449	-0.10559899
168	0x3f282d8c	0.656945
169	0x3c91fbe1	0.0178203
170	0xbd074f5c	-0.033034667
171	0x3f41e425	0.75738746
172	0xbecdecb8	-0.40219665
173	0x3b2f00b9	0.0026703312
174	0x3f28f23e	0.6599463
175	0x3bc4c859	0.0060053286
176	0x3ed21462	0.41031176
177	0x3eb27bab	0.34859976
178	0xbee94c19	-0.4556587
179	0x3f082ace	0.53190315
180	0xbd65a18a	-0.05606226
181	0x3f89b375	1.0757891
182	0xbe268620	-0.16262102
183	0x3eabe973	0.33576545
184	0x3eab56b6	0.33464593
185	0x3f807827	1.0036668
186	0x3e9f0ab4	0.31062853
187	0x3f2ca6b4	0.6744187
188	0xbd4a9657	-0.04945978
189	0xbdb86b1d	-0.09004805
190	0x3e454951	0.19266249
191	0xbe4f2090	-0.20227265
192	0x3ec5ff4d	0.38671342
193	0xbf7dc853	-0.99133795
194	0xbe8174dd	-0.25284472
195	0x3f0006ee	0.50010574
196	0xbd6563a2	-0.05600322
197	0xbd86beea	-0.06579383
198	0xbdccfce1	-0.1000917
199	0xbf5f0f36	-0.87132585
200	0x3ee961c9	0.45582417
201	0xbcc9c7be	-0.024631377
202	0xbef250fb	-0.47327408
203	0x3d970a9c	0.073750705
204	0xbe8ad1dd	-0.27113238
205	0x3f774f83	0.966057
206	0x3f8ba690	1.0910206
207	0x3ee9537b	0.45571503
208	0x3f8e8452	1.1134131
209	0x3ea53581	0.32267383
210	0xbea668ec	-0.32501924
211	0x3f01af07	0.50657696
212	0xbeb9a9c8	-0.36262345
213	0x3db35a42	0.0875745
214	0x3e5be993	0.2147582
215	0x3e31704b	0.17327993
216	0x3e779d9f	0.24181221
217	0xbd9aaeee	-0.075528964
218	0x3e0a7276	0.13520226
219	0x3f2c338f	0.6726617
220	0x3e1661a2	0.14685681
221	0xbdb44817	-0.088028125
222	0x3d93d3a7	0.07218104
223	0x3ec78ea5	0.38976017
224	0xbf5424b9	-0.82868534
225	0x3e940160	0.289073
226	0xbec511cb	-0.38490137
227	0xbc9b54cb	-0.01896133
228	0x3eae430d	0.3403553
229	0xbdeea5c2	-0.116527095
230	0x3ee0b5c0	0.43888664
231	0x3ed22c50	0.41049433
232	0x3e562d1d	0.20915647
233	0x3e0806db	0.13283865
234	0x3f05e4b0	0.52302074
235	0x3f896268	1.0733156
236	0x3ef6b6b0	0.48186255
237	0xbedb3cf1	-0.42819932
238	0x3faa93cb	1.3326353
239	0xbe975dd4	-0.29563773
240	0xbec21cdb	-0.3791264
241	0x3f315cae	0.6928204
242	0x3e7bdf7f	0.24596976
243	0x3f266ce0	0.6500988
244	0x3e87c35d	0.26516238
245	0x3c0bef01	0.00854087
246	0x3f802a94	1.0012994
247	0xbe9ebb4b	-0.31002268
248	0xbdfb71a0	-0.122775316
249	0x3f46f0ed	0.77711374
250	0x3e4b87af	0.19875978
251	0x3f86c238	1.0528021
252	0x3f878c28	1.0589647
253	0xbefd86ca	-0.49516898
254	0x3f5986a6	0.8497108
255	0xbe37cadf	-0.17948483

fc3.bias f4 [2]
0	0x3eb41745	0.35174003
1	0x405cc947	3.449785
