models/solved/checkpoint_critic_0.pth (torch_old, 185340 bytes, 5 tensors)

fcs1.weight f4 [256, 48]
00000000: 71e0 6340 2318 2fbf 7b4f debd 39e0 4f3f
00000010: 4e93 93bf fc80 1ebe d162 ffbd afa9 573f
00000020: 11ad 173f d9f0 05bf 4376 0fbe 5e0b ff3d
00000030: 85c6 963b fa67 d13e 8ee1 09bd d193 b33d
00000040: c138 9a3f 88bf 8ebe dfdf b2bd 8788 67be
00000050: 00e3 f43e 8848 653f 019e 42bd e8a3 a1be
00000060: 1d24 f73f 5c0f 3bbf f76f 87bd ba50 80bd
00000070: 1896 8a3f 26d6 5fbe 93f3 d1bd eac3 ebbc
00000080: ad29 963f 93d7 41bf a212 07bd 8e5e 823d
00000090: 4f64 5bbd d8b5 de3e 4211 5dbd a273 f43d
000000a0: d69e 523f 1112 f8be 3898 64bd 5b07 173f
000000b0: ca66 05bf 38ff 643f ba51 48bd 45b3 2a3f
000000c0: 9b47 513f af3a 653e e424 f3bc d80d dbbd
000000d0: 9505 afbe c08b ecbe c934 7dbd ad0d 0dbd
000000e0: 1302 763f 7a32 b33d e9b8 6fbb de48 e33c
000000f0: 2327 a53c da97 c4be 3a3c 3dbc 800f 3b3d
00000100: 5d38 4a3f 849f 38bd 2de8 50be 3c20 4abf
00000110: 021c e53e ad79 a0bf 3101 64be 6650 5fbf
00000120: bfc1 263e ff4f 143f 4fd5 d73c 2876 03bf
00000130: 696c 853e 968d e0be 431d a5bc e426 06bf
00000140: a156 033d 7dc9 d5bd cf32 90bd 16d1 043f
00000150: f342 a4bd fa3d afbe 9d6b ffbc 8121 f53e
00000160: 8ed7 3d3f 2d5e 26bf 670e 443e 5774 d33e
00000170: 06f6 e1be 8568 98bf 97d6 2e3e 75de df3e
00000180: 2ae8 51be fca6 41bf 81c8 bc3d 57f1 aabe
00000190: fb34 cfbd 3c07 82bf b9e7 9f3d 3721 75be
000001a0: 0ed5 3cbd a669 1dbf b11c 1bbe 3656 883e
000001b0: 27bf a4be 843b eabf 6a94 56bd c0d0 7a3e
000001c0: 8e3b f4bd 33c2 6abf c432 7c3d 43a7 93be
000001d0: 95d6 e9be 8f40 17c0 1d84 1b3e 3c1b 33be
000001e0: e577 ac3d e6cf a03f dd6c dabd 6578 033f
000001f0: 8d5d d93d ad33 80bf 587c d2bc fb35 df3e
00000200: 5188 a63d ce52 b33f 5963 cdbd a12a ad3c
00000210: 6d81 b13e c6c9 ecbf a2d0 e9bd 539b f13c
00000220: 8336 5b3d 915b e33f ea6f 0d3d d0a3 0b3f
00000230: 395c f43e a7e5 14c0 3fdf 623d 7235 1c3f
00000240: 21dc 04bd 59dd 9abf 4c03 a93b 5f7f 71be
00000250: 80da 96be 2691 81be 1ad7 02bd a13b 59be
00000260: 10f0 e63c 70aa c1bf 85e9 cc39 5135 9e3e
00000270: 429c 48bd a239 e9be c314 743d 629b 483e
00000280: 23a5 3dbd 1e16 d4bf fe6b 5abe 1b69 a4be
00000290: 110c b2be 3206 49bf 5a7b 8cbe b723 8dbe
000002a0: d43b 633f 2a21 2f3e 1ab2 d4bd 93d0 0d3e
000002b0: e013 863e 9f31 b0be 6c25 8cbd d51b 403e
000002c0: e051 d13e 6a74 a6bd 40ca 3a3e cca6 623e
000002d0: 0018 4f3d fc8a d7be 4715 9b3d b833 373e
000002e0: 924d 823f 4e75 423e e958 503d a53f 843f
000002f0: d1fd c03e 8657 4ebf 51c1 1b3d b701 823f
00000300: f1f0 513f fd14 74bf aa92 03bd 15a1 f1be
00000310: f4a5 3b3f 7634 66bf fce5 d7bd 3063 febe
00000320: b81e 073f 643e d3be 93d7 d8bd 9a14 003f
00000330: 22be d23d d576 9cbf fb9b bebd d0d8 163f
00000340: fa50 0c3f ad19 17be aae2 39be 1807 c23e
00000350: f4aa 61be f5ca 9abf aaaa 0cbe 7e73 c53e
00000360: 0203 7e3e 5591 0940 541a 4e3e 8d3c 083e
00000370: 04f6 40bf e0b0 55bf be16 523e ad0c 173e
00000380: da7d f4bd 24f7 0240 9226 27bd ff39 9fbd
00000390: 95a2 92bc c557 a7bf f73a 553d 4181 a83c
000003a0: dc8f 83be 6a4d ef3f 0243 05be 88b5 41be
000003b0: 4a52 783e 354f a3bf d00a 90bd 353a 7dbe
000003c0: f443 4e3e 29be 75bf cf32 8ebe 3a57 853e
000003d0: f0a9 c4be bb90 86be 9da3 87be 3529 9f3e
000003e0: b8c2 283f f78b 7bbe 51c5 70be ea12 7b3f
000003f0: aa0f c1be 658a 40bf 36f8 60be 798e 813f
3.5605738 -0.68396205 -0.108550034 0.8120151 -1.1529329 -0.15478891 -0.124700196 0.8424329
0.59248453 -0.5232063 -0.14009957 0.1245334 0.004601302 0.4089964 -0.03366237 0.08768428
1.204857 -0.27880502 -0.08734106 -0.22610675 0.47829437 0.895638 -0.047513966 -0.31570363
1.9307896 -0.7307031 -0.066131525 -0.06265397 1.0827055 -0.21859035 -0.10251536 -0.028779943
1.1731468 -0.75719565 -0.032976754 0.06365691 -0.05356246 0.4349811 -0.053971536 0.11936118
0.82273614 -0.48451284 -0.05580923 0.589956 -0.5210997 0.8945193 -0.048906066 0.66679794
0.81749886 0.22385667 -0.029680677 -0.10696 -0.34183946 -0.4620037 -0.061817918 -0.03443687
0.96096915 0.08749862 -0.003657872 0.027744707 0.020160263 -0.38397104 -0.011550004 0.04566908
0.78992254 -0.045074 -0.20401068 -0.78955436 0.4474793 -1.2537133 -0.2226608 -0.87232053
0.16284846 0.57934564 0.02634683 -0.5135217 0.26059273 -0.43858021 -0.020155555 -0.5240309
0.032065038 -0.104388215 -0.07040941 0.5188154 -0.08020582 -0.34226972 -0.031179244 0.47877124
0.74157035 -0.6498745 0.19146119 0.41299698 -0.44133013 -1.1906897 0.17074047 0.4372441
-0.2049872 -0.7564542 0.092179306 -0.33387253 -0.10117527 -1.0158458 0.078078695 -0.23938452
-0.046101622 -0.6148933 -0.15147664 0.26628274 -0.32177088 -1.8299413 -0.052387632 0.24493694
-0.11925422 -0.91702574 0.06157185 -0.28838548 -0.45671526 -2.3633153 0.15187116 -0.17490858
0.084213056 1.2563446 -0.10665295 0.5135558 0.106135465 -1.001577 -0.025694057 0.4359587
0.08131469 1.4009645 -0.10028715 0.021138491 0.34669057 -1.8499076 -0.11416747 0.02949301
0.053518783 1.7762319 0.034530558 0.54546833 0.4772661 -2.3265169 0.055388685 0.6101905
-0.032436494 -1.20988 0.0051578637 -0.23583744 -0.29463577 -0.25306052 -0.031943418 -0.21214153
0.028190643 -1.5130138 0.00039083898 0.30900052 -0.048977144 -0.45551783 0.059590112 0.19590524
-0.046300065 -1.656925 -0.21330258 -0.3211144 -0.3477483 -0.7852508 -0.2743786 -0.2756631
0.88763165 0.17102495 -0.10385533 0.13849096 0.26187038 -0.34412858 -0.06843075 0.18760617
0.40882778 -0.08127673 0.18241215 0.2213394 0.050559998 -0.42098224 0.07572418 0.17890823
1.0179923 0.1899006 0.05086604 1.0331923 0.37693647 -0.806023 0.038026158 1.0156773
0.8200827 -0.95344526 -0.03212229 -0.47193208 0.733001 -0.899238 -0.10541913 -0.4968505
0.5278125 -0.41258538 -0.105879925 0.50031435 0.10290171 -1.2223765 -0.09307095 0.5892458
0.5481106 -0.14755888 -0.18152872 0.37896037 -0.2203787 -1.2093188 -0.13736978 0.38564676
0.24805835 2.1494954 0.20127231 0.13304348 -0.7537539 -0.83473015 0.20516488 0.14750929
-0.11938067 2.0463343 -0.040808268 -0.07774734 -0.01789979 -1.307366 0.052058186 0.020569446
-0.25695693 1.86955 -0.13013843 -0.18916905 0.24250141 -1.2758547 -0.07033312 -0.24729235
0.2014311 -0.95993286 -0.2777314 0.2604311 -0.38410902 -0.26282296 -0.26492015 0.31086126
0.6592212 -0.24565111 -0.2351277 0.98075736 -0.37707263 -0.75211173 -0.21969685 1.0121604

fcs1.bias f4 [256]
00000000: 504e 77bf 8bae 0fbf 582e 43bf 615e adbe
00000010: aedf e43b be92 53bf f7c7 bfbe 5c10 c7be
00000020: e48b 1abf 26ea cabf 68e4 8ebf 78d9 87bf
00000030: ea49 61be 67b2 28be 3ead 9cbf a328 87be
00000040: fe88 2bbf bc1b 3abf 76ce 53bf fc7f 09bf
00000050: 243e 42be d7f4 69bf be33 3dbf 6f72 2dbf
00000060: ce56 7bbd 6d40 71be f64e ba3c 991a 16bf
00000070: 9534 07bf 7b6d 93bf 1c77 a7bf b82c 78bd
00000080: 95d8 2bbf 09ed 09bf 92d0 ef3c 7149 113c
00000090: 6304 8bbf 8d4c b6bf 9995 d7bf ff90 a8bf
000000a0: 9716 9b3f db6b a9bf 9f99 22be 2344 cc3d
000000b0: 27eb c0bf 7674 5abf 59ca 04bf 1ed9 acbe
000000c0: 9656 b23f 7254 85bf 4604 85be 67c7 d0be
000000d0: 2f34 8bbf 300a 11bf 3f56 99bf 6ce4 edbe
000000e0: 0281 ffbe 33ef 1a3f 5131 de3e b6f0 0fbf
000000f0: 3d64 e4be 53df 0bbf 4b91 56bf c8a8 18bf
00000100: 1e87 153f 097c 8fbf 88c0 37bf 5a01 88bf
00000110: caa2 9bbf 01e4 09bf 924e 48bf a168 50bf
00000120: be78 85bf 2600 b4bf 4d77 acbe d9fc 07bd
00000130: 8858 ddba bc84 8cbf d410 0a3f 0744 0abf
00000140: c7cb 38bf d567 cf3d e204 4dbe dce4 b5bf
00000150: cbc8 3dbe fde0 2fbf d6ab e8be e299 8dbf
00000160: 57a3 87bf 643f a7bf f415 89bf f6f7 01bf
00000170: ff0b aabf fe33 7ebf e6dc 8bbf 628f f3be
00000180: 8deb 06bf b907 d83b 58dd 06be 1e78 acbf
00000190: a5d2 3e3f ebcf 14bf 6762 7bbe 0b33 7ebf
000001a0: a1eb 58bf fffb 65bf dad0 f43d 82a6 31bf
000001b0: 8357 463f 8701 4bbf 337a 0abf ae3a 94bf
000001c0: d31b c0be 9c73 08bf ecf3 0bc0 a496 8c3c
000001d0: 96dd 3ebf 80d3 9cbf ff57 dbbf 2509 cd3e
000001e0: fe00 cabe 6ed0 b73f 6c58 01bf 5948 cd3e
000001f0: 4a42 49bf eade 28bf 1e9f a8bf 30f4 fabe
00000200: 31c1 d4be 0d68 62bf 0343 d9be c8a7 4bbf
00000210: 69aa 3abe d6cf 36bf 626a 0bbf 7061 9bbf
00000220: 8cf5 4bbf f706 d2bf 348d 62bf dd22 32bf
00000230: a8be 41bf 6e4d 67bf bb2f 003f 4fa6 10c0
00000240: 4918 6abf 7508 2cbf 41ca 63bf 26c4 ea3e
00000250: fac0 3abf 7d23 c6bf 287e 56bf c43c 913f
00000260: a737 47be cae4 b8be e310 2bbf c91e 8ebf
00000270: 4280 abbf ac82 e7bd 132e a6bf ae3b 9dbf
00000280: 22e3 38bd da82 5fbf 4f7b 12bf b1f6 9e3d
00000290: bfc1 9ebf 1010 c0bf c483 99bf b2b8 f3bf
000002a0: 70ff a1bd b3bb 933d e977 8bbf 4721 06bf
000002b0: 826d 22bf 29bc 2fbe c7e8 8cbf 10fe 89be
000002c0: fd4b 80be 5368 4ebf 7695 86bf 8eda 49bf
000002d0: 9ea5 c9be e198 4ebf a16a 8abf 930f 35bf
000002e0: 4eab 7cbf 26f7 27bd c1b6 90be 598d dabf
000002f0: 43d0 5bbd 7e32 a6bf e290 11be 368f 15bf
00000300: 590a b7bf 9c05 543d 4fca 20be 3813 7c3c
00000310: 7155 a23e 9e2c 30bf 6a21 cfbf 9e4e 4b3d
00000320: 54ba 793f a517 d8bf 9e0d acbe d2be d0bf
00000330: 60e0 cabf 3eee 38bf cf18 df3e 82ef 87bf
00000340: 2a88 9ebe 4413 4a3e fc2a ffbd dcf3 46bf
00000350: c17e 1d3c 0181 11bf 0183 05c0 e6b7 c6be
00000360: b084 79bf d190 56be 4252 c5be b34f a83c
00000370: 8723 7bbe 560e 82bf d5f2 80bf 5812 90bf
00000380: f0d2 d0be 2e41 83bf d92a 8dbe b021 5abe
00000390: 63ce 96bf 2a65 55bf ca1a b1bf 1c2c 23bf
000003a0: aa72 0fbf 174f 0ebf d847 cfbf 40a5 bebe
000003b0: 1259 a5be caa4 e1be 94fb 41bf d21b bfbe
000003c0: 470f 97be 3df3 8cbf 0c56 1abf d849 753e
000003d0: 928e 92bf 6be4 1bbf 0afe eebe d43b 59bf
000003e0: b232 51bf 01c2 323f 8464 6ebf 93a8 febe
000003f0: 92e3 88bf c6d3 e6bf 1199 9cbf 4a54 f0bf
-0.9660387 -0.56125706 -0.7624259 -0.33861068 0.0069846725 -0.82645786 -0.3745725 -0.3887967
-0.60369706 -1.5852706 -1.1163454 -1.0613241 -0.22000852 -0.16474305 -1.2240369 -0.2639819
-0.6700591 -0.7269857 -0.8273691 -0.53710914 -0.18969017 -0.9138922 -0.7390708 -0.67752737
-0.06136208 -0.23559733 0.02274273 -0.58634335 -0.5281461 -1.1517786 -1.3083224 -0.060589522
-0.6712735 -0.5387731 0.029274259 0.008867607 -1.0860714 -1.4242111 -1.6842529 -1.3169249
1.2116269 -1.323604 -0.15878914 0.099739335 -1.5071763 -0.85333955 -0.5187126 -0.33759397
1.3932674 -1.0416396 -0.25979823 -0.40777132 -1.08753 -0.5665617 -1.1979445 -0.46463335
-0.49903113 0.6052124 0.43397 -0.5622667 -0.44607726 -0.5463764 -0.8381545 -0.5963254
0.584093 -1.1209728 -0.71778154 -1.0625412 -1.2159054 -0.5386353 -0.7824489 -0.8140965
-1.0427473 -1.4062545 -0.3368477 -0.03320012 -0.0016887346 -1.0978007 0.5393193 -0.5401005
-0.7218594 0.10127226 -0.20021394 -1.4210467 -0.18533628 -0.6870268 -0.454436 -1.1062586
-1.0596722 -1.306622 -1.0709825 -0.50768983 -1.3284911 -0.99298084 -1.0926788 -0.4757033
-0.5270317 0.0065927175 -0.13170373 -1.3474157 0.7454017 -0.5812976 -0.24549256 -0.99296635
-0.8473454 -0.8983764 0.11953898 -0.69394696 0.7747728 -0.79299206 -0.5409271 -1.1580408
-0.37521228 -0.53301406 -2.1867628 0.017161675 -0.74556863 -1.2252045 -1.7136229 0.4004604
-0.39453882 1.4360483 -0.50525546 0.4009426 -0.78616774 -0.6596514 -1.3173559 -0.49014425
-0.41553643 -0.8844002 -0.42433938 -0.7955289 -0.18229069 -0.7141088 -0.544592 -1.213911
-0.7967155 -1.6408376 -0.8849671 -0.6958445 -0.75681543 -0.90352523 0.5007283 -2.2601507
-0.91443306 -0.67200404 -0.8898049 0.45852774 -0.7295071 -1.547958 -0.8378625 1.1346669
-0.19454823 -0.36112052 -0.6682264 -1.1103145 -1.3398516 -0.113042206 -1.2982811 -1.2283838
-0.045138486 -0.8730904 -0.57219404 0.077618964 -1.2402877 -1.5004902 -1.1993337 -1.904074
-0.07910049 0.07213535 -1.0895969 -0.5239453 -0.63448346 -0.17161621 -1.1008538 -0.26951647
-0.25057974 -0.80627936 -1.0514362 -0.78849113 -0.39384168 -0.80702025 -1.081379 -0.7072689
-0.9869889 -0.041007183 -0.2826443 -1.7074386 -0.05366541 -1.2984159 -0.14215425 -0.5842165
-1.4300033 0.051763162 -0.15702175 0.0153854415 0.31705812 -0.6881808 -1.6182072 0.049635522
0.9754994 -1.6882216 -0.3360414 -1.6308234 -1.5849724 -0.7223853 0.43573615 -1.0619967
-0.3096326 0.19733912 -0.124593705 -0.7771585 0.00961274 -0.5683747 -2.0861208 -0.38812178
-0.9746809 -0.2095368 -0.3853932 0.020545816 -0.24525271 -1.0160625 -1.0074106 -1.1255598
-0.40785933 -1.0254266 -0.27571753 -0.21301913 -1.1781734 -0.8335749 -1.38363 -0.6373918
-0.5603434 -0.5558943 -1.61938 -0.3723545 -0.32294518 -0.44071037 -0.757745 -0.37325913
-0.29503843 -1.101173 -0.6028755 0.2395395 -1.1449759 -0.60895413 -0.4667819 -0.84856915
-0.8171798 0.69827276 -0.93122125 -0.49737987 -1.0694449 -1.8033378 -1.2234212 -1.8775723

fc2.weight f4 [128, 260]
00000000: 8373 3abd f5d0 a5bd 0511 653c 30f1 8bbd
00000010: 83d1 07bd 7bef a4bc 8c3e 9ebd 759e 18be
00000020: 3088 e7bc 70bf 70bd 31d2 cb3c d314 84bc
00000030: e187 febc 4a5f 833b 15d9 a4bd 33dd 3f3d
00000040: 1949 84bd 232c 953c afe0 c4bd b4c4 49bd
00000050: a763 85bd b576 00bd d8a6 14be 807b cfbc
00000060: 9f3c 78bd f015 23be 20bf cebd e96e cfbc
00000070: 586b abbd 297a 33bd 905a 5a3c 830d 4fbd
00000080: 4276 593c 2d82 8bbd 2260 95bc a81d 01be
00000090: 0468 9cbc d24d 513c 6700 783d 3e9a 673c
000000a0: 9bb5 8abd 2644 1bbd 3af9 0ebe 8d3e d9bd
000000b0: c1c1 56bd e3f1 6ebd cdc8 ea3c 127f 003d
000000c0: 7c00 93bd 052b 97bd 5c69 223c 6ced 903d
000000d0: a594 543d cd7d 22bd cb6f 2fbd 4ce4 81bd
000000e0: aa1e 2bbd d32c 62bd 2db1 15bd 8cf2 243d
000000f0: ec45 cfbd 68fc 9fbc 98c4 4fbe 8f59 58bd
00000100: b2e1 c1bd ed9a b6bd 9643 7bbd c1f2 6dbd
00000110: 4f12 80bd 6ebb e7bd 7e18 90bd 9898 29be
00000120: 82e1 cfbc cc1d 23bd 7d0d 6fbd 1759 bdbb
00000130: e1ae 1f3d ce61 3dbd 190a 93bd c55b abba
00000140: eba5 143c f4f1 91bd 0764 bc3c 7475 95bc
00000150: 27ea 40bc 127f 5abe ca3c 653d 8c32 c2bd
00000160: 17e2 b33c bc29 24be a20d 403d 610a 7dbd
00000170: 9752 a3bd 4f95 0f3d f970 7fbd 6547 f43b
00000180: ebce 9abb 60f0 0dbe bf59 8ebb 4f91 babd
00000190: 6eea 92bd 2fbf 84bc f900 86bc 7b26 72bd
000001a0: 9cfd 44bb 847c 53be 9796 b13c 8315 13be
000001b0: 1359 8fbe c08f bbbd f3e5 98bd 789f 70bd
000001c0: c89f e5bd da92 cabd a960 2ebd bcbf babd
000001d0: 5130 9cbd 06db 833d 49e7 54bd b1ae 0bbe
000001e0: 79b2 93bc 4fe2 81bd 8800 3d3a 44e3 3abc
000001f0: ef45 7fbd 1de2 173d 139d 9d3d d2ca 7abe
00000200: edeb 9a3d bdfe 81be 585b d0bd a215 a3be
00000210: 6aa5 2abd 09b5 21bd 65b0 87bd 6a29 173d
00000220: cd4c 2cbe f5da d73b fc0d dfbb cfa7 c9bc
00000230: 48e1 abbb f775 88bd 39dc 3ebe 7a6f 63bd
00000240: d73d 77bd 1882 fe3c fd01 7abd 3588 9fbd
00000250: 1fca 883d 95c9 7ebc 7e71 89bc 68de 7ebe
00000260: 9417 bdbd 7a3d c9bc 7e4d 833d 6945 aebd
00000270: d7be a63d a942 b2bc 2b41 9dbd 93c7 0cbe
00000280: 750b 1e3b e92d 693c 58aa 5fbe 8501 f0bc
00000290: 4c4d 0abe 674c d93b 57c4 33be d7ac 9c3d
000002a0: c44f 573c 8f5d 10be f62f c8bd 9187 583d
000002b0: 1f03 64bd f0ef 06be 8c92 663b 5fc8 8b3c
000002c0: b6e6 0cbe 5912 55bd 9569 3b3d e395 33bd
000002d0: d1ce 53be 9d02 06bc 7bc3 1ebe 3013 2abd
000002e0: eae2 adbd 84bb dcbd 3ee8 b1bd 77f0 e1bd
000002f0: 876d 0dbe f959 74bc 8187 16bd 8bbf d6bd
00000300: 83ca e73c a121 05bd ba33 65bd a469 8abd
00000310: 9d5c a3bd 574d b5bb 2e2f 36bd 6be8 78bd
00000320: 6a85 f7bd ceab 0ebd 8c7c 97bd e2ac ecbc
00000330: 254a b8bd e941 34bc 8e7e 1fbe b89b 5bbc
00000340: de50 00bd 73d9 94bd 33fd 25be d685 b8bd
00000350: 9b68 453d 5102 92bc f5b6 31bd 0f6d abbd
00000360: 8243 31bd 264d 5bbe 300d 52bc 9bac cabd
00000370: ceb4 563d 7f12 b2bd 86c8 43bd b297 a0bd
00000380: e320 0c3c a4fe a1bd 05f5 a8bd 50bb 6dbd
00000390: 1971 bbbd 67cf cebb 354b 0abe fa74 97bd
000003a0: 2a58 bdbd 35d8 66bd a1d9 4dbd 2ed8 0cbd
000003b0: ecb7 15be 775e 0d3d 19ae 353d 7553 8fbd
000003c0: ef2f 83bd 3382 76bc 6dc7 5cbd a8af 3cbe
000003d0: d302 cfb9 fc26 9f3c 6f0a 8d3c ec33 b0bd
000003e0: bc44 41bd d765 eebd e05a 67bd 2854 9cbd
000003f0: a2c7 be3c 5678 133d 5819 ad3c 7d8c 44bc
-0.045520317 -0.08096496 0.013981109 -0.06833112 -0.03315879 -0.020133724 -0.077267736 -0.14904197
-0.028263181 -0.05877632 0.0248805 -0.016123211 -0.031070651 0.004009162 -0.080492176 0.04684181
-0.06459255 0.018209523 -0.096131675 -0.049259856 -0.06513148 -0.031363208 -0.14516771 -0.025327444
-0.060604688 -0.15926337 -0.10095048 -0.02532144 -0.083700836 -0.043817673 0.013327256 -0.050549995
0.013272824 -0.068119384 -0.018234316 -0.12608969 -0.019092567 0.012774901 0.06054726 0.014135895
-0.0677292 -0.03790679 -0.1396226 -0.10607634 -0.052430872 -0.05833615 0.028660202 0.031371184
-0.07177827 -0.07381252 0.009912815 0.07076535 0.05189957 -0.039670754 -0.042831223 -0.06342372
-0.04177729 -0.05521853 -0.03654592 0.040270373 -0.101207584 -0.019529536 -0.20289838 -0.052819785
-0.09466876 -0.089162685 -0.06134375 -0.058092836 -0.06253492 -0.11315046 -0.070359215 -0.16562116
-0.025376085 -0.03982334 -0.058362473 -0.0057784426 0.038985137 -0.046235852 -0.0717966 -0.0013073614
0.009072761 -0.07126227 0.022996916 -0.018244483 -0.011774576 -0.21337536 0.055966176 -0.09482297
0.021958394 -0.16031545 0.046888 -0.061777476 -0.07974737 0.0350545 -0.0623636 0.0074548
-0.0047243736 -0.13861227 -0.0043441947 -0.09109747 -0.0717362 -0.016204445 -0.016357886 -0.05911873
-0.003005839 -0.20652968 0.021678252 -0.14363675 -0.27997646 -0.091582775 -0.07465734 -0.05874583
-0.112121165 -0.09891291 -0.04257265 -0.09118602 -0.07626403 0.0643826 -0.051978383 -0.13640858
-0.018029438 -0.06341993 0.0007209857 -0.011406723 -0.062322553 0.037080873 0.07695975 -0.24491432
0.075645305 -0.25389662 -0.101736724 -0.31852442 -0.041661657 -0.03947929 -0.066254415 0.03690473
-0.16826172 0.006587381 -0.006807087 -0.02461615 -0.0052453615 -0.06663125 -0.18638696 -0.055526234
-0.06036171 0.031067893 -0.061037052 -0.07789651 0.066791765 -0.015550991 -0.01677775 -0.24889529
-0.09233013 -0.024565447 0.06411265 -0.08509333 0.081418686 -0.021760302 -0.076784454 -0.13748007
0.0024115716 0.014232137 -0.21842325 -0.0292976 -0.13506049 0.0066314223 -0.17555366 0.07650154
0.013141576 -0.1409819 -0.09774773 0.05286366 -0.05566704 -0.13177466 0.0035182564 0.017063318
-0.13759884 -0.05201945 0.045754988 -0.043844115 -0.20684363 -0.008179334 -0.15504257 -0.041522205
-0.08490546 -0.10777953 -0.08686875 -0.11032193 -0.13811313 -0.014914029 -0.03675032 -0.10485753
0.028294807 -0.032502774 -0.055957533 -0.067584306 -0.07976649 -0.0055329013 -0.044478588 -0.060768526
-0.120859936 -0.034831814 -0.07396802 -0.02889103 -0.08998517 -0.011002042 -0.1557562 -0.013403825
-0.03132712 -0.07268038 -0.16209869 -0.09009902 0.048195463 -0.01782337 -0.043387372 -0.08370411
-0.04327727 -0.21416149 -0.012820527 -0.09896203 0.052418523 -0.08694934 -0.047798656 -0.078414336
0.008552763 -0.07909897 -0.08249859 -0.058039963 -0.09152431 -0.0063113454 -0.13505252 -0.073953584
-0.092453316 -0.056358535 -0.050256375 -0.034385853 -0.14620942 0.034513917 0.044355486 -0.0699834
-0.06405627 -0.01504569 -0.053901125 -0.18426383 -0.0003948422 0.019427769 0.01721689 -0.08603653
-0.04718469 -0.11640518 -0.05648315 -0.07633239 0.023288552 0.036003433 0.021130249 -0.011996386

fc2.bias f4 [128]
00000000: 5dd8 a6be 6c73 8cbe af62 65be 4093 dcbd
00000010: e553 53be b0b8 3bbe 1f3b d0be ee2d 0cbe
00000020: 1fc4 00be f975 ecbe 1d41 15be e470 f0be
00000030: 4150 cfbe 1038 4dbe a92c 8bbe c497 6cbe
00000040: 7193 eebc 10b1 40be 7586 04be 3d7d 99bd
00000050: 5b89 b9be 00c6 63be 6c1f 4bbe 8d84 2cbe
00000060: 1ee0 3cbe f605 82be 878b 69be afbc 6d3f
00000070: 6f38 83be 8aea 8fbe 65b5 8dbe 3630 16be
00000080: e4ec 59bf ef28 8cbe 2a62 51be 1a5d 123f
00000090: 497c dfbd f406 48be 1555 d3bd 16d9 88be
000000a0: e7f7 51be c1c4 5dbe bbc2 66be af90 c83d
000000b0: 4734 49be bdd9 13be 48f3 183e 46ae 8dbe
000000c0: 50db 77be 83b1 69be 00e7 31be 0a14 53be
000000d0: 9041 12be e4a1 943f 6e65 1abe cdc7 b9be
000000e0: 878e 1cbe 8525 303f 5d0d 16be 13e2 1cbf
000000f0: b5d9 1040 5128 aebe 6865 bebe f190 3fbe
00000100: 4f5a 80be 3786 69be 989d 6fbe bf34 76be
00000110: 743b 61be 0164 04be 0523 2ebf 9caa 1cbd
00000120: 6e5b 4abe 46da c6be a831 57be 5d3f 72be
00000130: 8301 1dbe 6272 44be 977c c0be 4a92 60be
00000140: 506c 15bf e0d4 3cbd 7847 6ebe e3b5 8dbe
00000150: 6b9e 4bbe f202 7dbe 8557 893f ec11 90be
00000160: a13e 55bf 537d 84bf 68aa a6be 1cf0 99be
00000170: 7adf 90be 929e 9ebe 026f 92be e6cf 46bd
00000180: 25c8 3bbe 2c02 8bbe 7362 87be 9ece 3cbe
00000190: 2ee5 70be 4e4f 44bf 4128 72bd a241 35be
000001a0: 34d7 b3be 7bd1 96be d1eb 75be 178e 8abe
000001b0: b1e1 bbbe 4c3b 823d ea6d 4dbe 71d5 86be
000001c0: a437 d0be 62b2 71be 5094 adbe 112a b9be
000001d0: 51ee 8abd 3ce4 8dbe cf02 6fbe a9aa 3bbe
000001e0: 9bee 41be 44c9 69be 606b 0ebe 32d8 bcbf
000001f0: 422b b5be cbe2 e13e fe47 03bf 5982 1dbe
-0.32586947 -0.2743181 -0.22400926 -0.10770273 -0.20637472 -0.18332171 -0.40670106 -0.13689396
-0.12574814 -0.46183756 -0.1457562 -0.4696113 -0.40490916 -0.20040917 -0.2718251 -0.23104769
-0.02912304 -0.18817544 -0.12941916 -0.074945904 -0.36237606 -0.222435 -0.19836205 -0.16847439
-0.18444869 -0.25395173 -0.22807132 0.92866033 -0.25628993 -0.28108627 -0.27677456 -0.14666829
-0.8512709 -0.2737498 -0.20447603 0.5717331 -0.109123774 -0.19533902 -0.103189625 -0.26728123
-0.20504723 -0.21657087 -0.22535221 0.09793221 -0.19648848 -0.1443853 0.14936554 -0.27672023
-0.24204755 -0.22821622 -0.17373276 -0.20613113 -0.14282823 1.1611905 -0.15077755 -0.36285248
-0.15288745 0.6880725 -0.14653535 -0.6128246 2.2632878 -0.34015134 -0.37186742 -0.18707635
-0.250689 -0.22805105 -0.23399961 -0.24043559 -0.21995336 -0.12928773 -0.68022186 -0.038248643
-0.1976144 -0.38838404 -0.21015036 -0.23656984 -0.15332608 -0.19184259 -0.37595055 -0.21930805
-0.58368397 -0.04610145 -0.2326945 -0.2767783 -0.1988465 -0.24708155 1.0729834 -0.28138673
-0.8329869 -1.0350746 -0.32551885 -0.30066 -0.282955 -0.30980355 -0.28600317 -0.04853811
-0.18338068 -0.27150095 -0.26442298 -0.18438193 -0.23524925 -0.7668351 -0.05912042 -0.17700818
-0.35125124 -0.29456696 -0.24015738 -0.2706153 -0.36695626 0.06358966 -0.2006146 -0.26334718
-0.4066745 -0.23603204 -0.33902216 -0.36164907 -0.067837365 -0.27713192 -0.23340915 -0.1832682
-0.18938677 -0.22830683 -0.13908148 -1.4753478 -0.35384566 0.44118342 -0.51281726 -0.15381755

fc3.weight f4 [1, 128]
00000000: eb39 f8bb c2ee 063c 6157 00bc 5e2a f3bc
00000010: 502f ed39 5c27 15bc eb01 9e3c ac52 8bbb
00000020: 29aa 98bc 86b2 40bc 248e 21bb fe73 20bc
00000030: 64a4 d7bb 9cca 973c 12cb 893c 330d 1b3b
00000040: 209d 55bb 89a5 b939 62da debc 1828 813b
00000050: c92e 73bc 2b32 ecbc 8d26 c5b9 2b5e c9bc
00000060: eb3d d2ba e3ab 38bc 7ae0 b93c a5e1 983b
00000070: 606a ba3c 0d3c 113d 3e6e e83c 182d d3bc
00000080: 2f0a 9f3c c632 a23c e663 943c 5fa2 163c
00000090: e75d 1ebc 2e9e 2f3c afba b13c 8a7a 9e3c
000000a0: abf9 bbbb a3dd d43c 9892 d13c fb8e 143d
000000b0: 5e14 423c e3b3 b7bb 8673 a93b ec4b 4c3c
000000c0: 2f67 b53c 2710 c63b 0651 9c3c 4586 94bc
000000d0: 5fc2 2d3b 037e bbbb 2a9b 3d3c da43 863c
000000e0: fd2b 05bc 8516 9bbb 8f7d 52bc 7e68 71bc
000000f0: dba5 70bc f615 41bc b092 a73c b205 493b
00000100: aa9e 93bc ffe0 c4bc bf79 2b3c 9d3a f9bb
00000110: ac80 8dbb c9ce ce3b 8cec 1cbc 0ccd ed3c
00000120: 8257 e5bc 5b15 edbb 5b15 9cbb 5259 963c
00000130: e39a 98bb 2816 fa39 b628 dc3c de5e fe3b
00000140: b601 e1bb 9f52 52bb d6e1 833b d95f 38bc
00000150: 89fc c83c 7c5a 133c 682e 23bc b2b8 3c3c
00000160: f99d 90bb 2e0f adbb 8cb4 263c ff61 03bc
00000170: 3fa7 6d3b a6bd c93c f52c 1d3a dd89 ed3b
00000180: 0022 b5bc 16b0 d4bc ee6b acbc 05c4 f53b
00000190: 8f36 a83a 70e5 583c 38a4 c9bb b244 183a
000001a0: d1f6 8b3b bac9 6a3b 4498 29bc 2d90 a53c
000001b0: 019e b13b 3d73 b73b da53 2c3c 4aa1 04ba
000001c0: 3558 da3c 1ccf a23b c2d8 cdbb 5918 08bc
000001d0: 10c7 43bc 077e ca3c c577 e23c 4c9c b0b9
000001e0: a5df 653b a7ce d6bc 2945 99bc d114 b7bb
000001f0: b5d0 84bb 6488 f1bb 6664 8bbc 7d79 08bc
-0.0075752637 0.008235635 -0.007833333 -0.029683288 0.00045239413 -0.009103622 0.019288024 -0.0042517986
-0.018635826 -0.011761313 -0.0024651373 -0.00979328 -0.006580876 0.018529229 0.016820464 0.002365899
-0.0032594875 0.00035409283 -0.027203742 0.003941547 -0.014842697 -0.028832516 -0.0003760349 -0.024581036
-0.0016040182 -0.01127145 0.022690047 0.004665571 0.022755802 0.03545766 0.02837288 -0.025778338
0.019414036 0.019799601 0.018114042 0.009193986 -0.009665943 0.010718865 0.021695463 0.01934554
-0.00573655 0.02598459 0.025582597 0.03626917 0.011845676 -0.005606161 0.005171242 0.012469273
0.022143928 0.006044406 0.019081604 -0.018130431 0.002651356 -0.005721809 0.0115726385 0.016389776
-0.008128163 -0.004732909 -0.012847318 -0.014734386 -0.0146879805 -0.011785021 0.020455688 0.003067356
-0.018019993 -0.024033068 0.010466038 -0.007605864 -0.0043183174 0.006311272 -0.009577882 0.029028438
-0.027995829 -0.007235212 -0.004763288 0.018353138 -0.004657136 0.00047700224 0.026874881 0.007762774
-0.006866659 -0.0032092703 0.0040247245 -0.011253321 0.02453448 0.008993741 -0.009959795 0.011518644
-0.004413363 -0.0052813506 0.010174882 -0.00801897 0.0036263017 0.024626564 0.0005995774 0.0072491006
-0.022110939 -0.02596287 -0.021047559 0.007500174 0.0012833643 0.013238296 -0.0061536096 0.0005808576
0.004271366 0.0035825805 -0.010351244 0.02021035 0.005420447 0.0055984543 0.010518039 -0.00050594343
0.026653389 0.004968537 -0.006281943 -0.008306586 -0.011949316 0.024718298 0.027645001 -0.00033685786
0.003507593 -0.026221586 -0.018709736 -0.0055871983 -0.0040532 -0.0073709954 -0.017015647 -0.008329746
