models/solved/checkpoint_critic_1.pth (torch_old, 185340 bytes, 5 tensors)

fcs1.weight f4 [256, 48]
000000 96 57 db 3e a4 cb 78 bf 91 df 1e 3c 31 11 c7 be
       0.4284026 -0.9718573 0.009696857 -0.38880304
000010 6d 6e f5 bd f2 df 61 be 0c 75 d3 bb d9 7e b7 be
       -0.11983953 -0.22058085 -0.006453162 -0.35838965
000020 3c 2d 70 3e 76 9d 79 bf 46 f0 c9 be 5c 8a ae 3e
       0.23454756 -0.9750589 -0.39441127 0.34089935
000030 f4 84 ab bb cd 58 4f be 95 71 93 be 54 ac 9b 3e
       -0.005234355 -0.20248719 -0.28797594 0.30404913
000040 ce 36 26 3f ce 67 88 bf 28 67 b4 3d f0 32 83 3d
       0.64927375 -1.0656679 0.08808738 0.064062
000050 c8 22 b8 be 71 f1 e1 be ef fb 02 3e 49 26 d1 bc
       -0.35964036 -0.44129518 0.12791418 -0.025530951
000060 3f 00 9b 3c eb e2 04 40 bf 16 9d bd d9 e2 bd 3e
       0.018921016 2.07635 -0.07670354 0.37087134
000070 d3 37 4b 3d b0 9a 91 be a7 99 e7 bd 45 3b cf 3e
       0.049613785 -0.2843833 -0.11308604 0.40474907
000080 34 19 a4 be 97 16 e5 3f d1 11 b9 3d 88 e0 19 bf
       -0.32050478 1.7897519 0.09036601 -0.6010823
000090 d0 1c 33 bd 87 bd 34 be b6 12 8e 3d f4 9d 0b bf
       -0.04372865 -0.17650424 0.069371626 -0.5453789
0000a0 10 2c a2 be 78 c0 c9 3f d9 a3 f8 bd 20 85 a8 3d
       -0.31674242 1.5761862 -0.121406265 0.082285166
0000b0 84 39 a2 3e f3 83 e2 be e3 80 ea bd 09 f2 22 3e
       0.31684506 -0.44241294 -0.114503644 0.15912642
0000c0 f5 b3 1d 3f 91 c3 56 bd 92 55 d6 3d 61 8d f9 bd
       0.6160272 -0.0524326 0.1046554 -0.12185169
0000d0 d4 cb 2d bf 6d 40 61 bf 14 84 94 3d ff 0f 4a bd
       -0.6788914 -0.8798893 0.072517544 -0.04933166
0000e0 cd 5c 2a 3f a0 b6 4e bd 0a 3a 38 be 3b 75 71 3f
       0.6654785 -0.050467134 -0.1799089 0.94319504
0000f0 21 d4 c1 bd a2 8f 72 be 94 4e 40 be d1 0b 76 3f
       -0.094642885 -0.23687604 -0.18779975 0.9611178
000100 3e 09 ac 3f a8 61 42 3e af 49 ec 3d 40 c7 12 3f
       1.344032 0.18982565 0.115374915 0.5733528
000110 cf b4 3a 3e 7f f4 fc bd 94 18 c6 3d e3 2d fb 3e
       0.18233036 -0.123513214 0.09672657 0.49058446
000120 65 9e 35 3f 59 1f 81 3e 84 a0 be be 67 f2 f1 be
       0.70944816 0.2521923 -0.3723184 -0.4725525
000130 6c ff 18 3f 37 41 5b bf c8 6f d6 be a5 53 f7 be
       0.5976474 -0.85646385 -0.41882157 -0.48306003
000140 6e a8 11 3f c0 95 9f be 3d f7 de 3b 57 ba 3f 3e
       0.5689763 -0.31168938 0.0068043754 0.18723427
000150 63 b8 0d 3d 62 dc 47 be d8 8f 3c 3d a3 b8 16 3e
       0.034599673 -0.19517663 0.046035618 0.14718871
000160 4d 03 0d 3f 87 2b 77 be 33 3e d8 bc 6d e4 33 3f
       0.5508316 -0.24137698 -0.026396846 0.70270425
000170 3d 69 34 be cb c0 77 bd 46 fe 40 bd a1 19 3a 3f
       -0.1761827 -0.060486596 -0.047117494 0.72695357
000180 d9 7a 27 3d d3 6a dd 3e 12 b5 8e 3c 3e 3d 3e be
       0.04088864 0.43245563 0.017420325 -0.1857805
000190 89 78 c5 bf c9 21 af 3d 98 81 59 3b 5a f6 ba bd
       -1.542741 0.08551366 0.0033188816 -0.09129019
0001a0 c5 36 df 3d a0 f0 0a 3f 4a 2a 92 bd 52 f3 24 3d
       0.10899118 0.54273415 -0.07136972 0.04027111
0001b0 1a d4 d1 bf aa 61 5b 3d 1a 14 e3 3c e2 0a 9b 3c
       -1.6392853 0.053559937 0.027719546 0.018926088
0001c0 99 58 1a 3d f9 0f 70 3b 66 6b 25 bd 3a ec 06 be
       0.03768215 0.0036630614 -0.040385626 -0.13176051
0001d0 63 92 aa bf 0e fd 94 bd 4e 71 4c 3d a7 c6 95 bc
       -1.3325924 -0.07274829 0.049912743 -0.018283201
0001e0 36 bd 54 bd 06 d6 4e 3f 19 0d 37 bd 7d 4f 94 bd
       -0.051938258 0.80795324 -0.044690225 -0.07241724
0001f0 05 1b c6 3f 39 5b cc 3d 0f 92 14 3d 91 9c 19 be
       1.5476996 0.09978337 0.036272105 -0.15001132
000200 01 00 f0 bd a5 70 36 3f ce 75 1a bc db e8 0d be
       -0.11718751 0.7126563 -0.009427501 -0.13858359
000210 ce 04 d5 3f e7 96 09 3d 61 f1 be bc 25 5b 05 be
       1.6642091 0.033591177 -0.023308458 -0.1302305
000220 ca 75 e2 bd ea 6d 6d 3f 3a 0c 67 bc 7d 4c 04 3d
       -0.11057623 0.9274584 -0.014102036 0.032299507
000230 c5 33 ad 3f a3 36 13 bd 6e 67 dd 3b c3 b2 c6 3d
       1.3531424 -0.035940778 0.0067567145 0.09702065
000240 9d 01 dd ba 28 72 c0 3f 6c 0d 50 be 7c 33 54 be
       -0.0016861443 1.5034838 -0.2031762 -0.20722765
000250 e6 4e ac be 64 aa 0b bf 86 0b 76 be f2 ef 3b be
       -0.33653945 -0.5455687 -0.24027833 -0.1835325
000260 a7 b6 b0 3e a0 65 fe 3f 71 24 1c be 64 d2 1a 3e
       0.34514353 1.9874763 -0.15248276 0.1511932
000270 c3 31 bf bb cc 49 44 bf 79 0c bf bd ef 11 1c 3d
       -0.0058347895 -0.76675105 -0.09328551 0.03810304
000280 cf e7 42 3e 61 e4 26 3f 3e b9 4e bd a5 fc 78 3f
       0.1903374 0.6519223 -0.05046963 0.97260505
000290 dc 7e 16 3e 34 fe 78 bf ba 74 e4 bd 9a 4f 82 3f
       0.1469683 -0.97262883 -0.11155076 1.0180542
0002a0 a4 d5 97 3f 7e c6 e9 bf 47 16 a1 3d c0 4f 25 3e
       1.1862073 -1.82637 0.07865577 0.16143703
0002b0 6a 88 9b 3e a6 fa 22 bf a3 a2 e9 3d 40 9b 57 3e
       0.30377513 -0.6366371 0.114079736 0.21055317
0002c0 c2 88 b9 3e 78 bc fe bf b2 6b 76 be 98 d8 c6 be
       0.3623715 -1.9901266 -0.2406452 -0.38837123
0002d0 74 0f f3 3b 5c 72 3b bf 30 d5 b1 be ea 90 dc be
       0.0074176136 -0.73221374 -0.34732962 -0.4307931
0002e0 9e ae 00 3f f7 f8 ea bf 8b e3 4d 3e 82 89 17 3e
       0.50266445 -1.8357228 0.20106332 0.14798549
0002f0 af 35 f1 bd 98 4f 7e bf 17 bd 40 3e 97 99 05 3e
       -0.117778175 -0.993402 0.18822132 0.13046871
000300 39 f0 75 3f f2 bf 29 40 c3 57 0c bb 44 7a 3e be
       0.96069676 2.6523404 -0.0021414615 -0.18601328
000310 63 25 2c 3d 4f b6 fc bf b8 7e 9a bd d2 fe 57 be
       0.042027842 -1.9743136 -0.07543701 -0.210933
000320 00 f9 4b be 04 24 37 40 d8 da 32 bd da 96 c7 3e
       -0.19919205 2.8615732 -0.043665737 0.38982278
000330 0e 1f 0f be 71 83 d8 bf d2 c9 fc bc cc 1d f5 3e
       -0.1397669 -1.6915113 -0.030857954 0.47874296
000340 89 fb 84 bd f5 cc 46 40 c4 03 64 bc cb 83 b8 be
       -0.06493289 3.1062596 -0.013916913 -0.3603805
000350 3d a6 19 bf c5 91 95 bf 51 c0 f7 3c 61 17 b5 be
       -0.60019284 -1.168511 0.03024307 -0.353694
000360 e9 be 1a bf 49 14 8d bf 0d b8 a2 bc 04 fa 07 3e
       -0.60447556 -1.1021816 -0.019863153 0.13278967
000370 12 92 80 bd ab 74 f4 bf e6 d2 82 bc f2 c8 16 3e
       -0.06277861 -1.9098104 -0.015969705 0.14725092
000380 d9 4a df be 3a df 90 bf 85 4d b0 bc eb 5a 8e 3c
       -0.43611792 -1.1318123 -0.02152134 0.017377337
000390 98 29 66 3e 17 64 e3 bf a4 1c 92 3d 90 f1 ec 3d
       0.22476804 -1.776492 0.07134369 0.11569512
0003a0 6e fe 18 3e a1 dc 8f bf fd c6 8b be f2 c0 57 3e
       0.14940807 -1.1239206 -0.27300254 0.21069697
0003b0 29 50 1f 3f 41 16 9e bf db 51 5a be d4 3b 1c 3e
       0.6223169 -1.2350541 -0.21320288 0.15257198
0003c0 26 ed 0a 3f 3d f1 89 bf 99 f5 8f bd 05 89 ad 3b
       0.5426811 -1.0776745 -0.07029266 0.005295875
0003d0 07 d9 05 3e da f5 a7 3d 97 70 6b bd 09 42 64 3d
       0.1307107 0.08201189 -0.05748042 0.05572704
0003e0 c7 3d b6 3e e7 e9 25 bf cd b1 4e bc 51 6f a0 bc
       0.35594007 -0.6481003 -0.012615633 -0.01958433
0003f0 23 80 31 be 3b 2d 30 be bb 9b 38 3b 92 90 41 3c
       -0.17334037 -0.17204754 0.0028168994 0.011814253

fcs1.bias f4 [256]
000000 c5 24 8c be f9 c5 42 bf 14 f8 6f bf e1 5d 7a 3e
       -0.27371803 -0.7608333 -0.9373791 0.24449874
000010 ed 5d b7 bf e0 f8 90 be df ae 55 bf 9c 86 67 bf
       -1.4325539 -0.28314877 -0.8346996 -0.9043977
000020 64 74 98 bf 06 76 4f bf f7 7f dc be b6 46 03 3f
       -1.191052 -0.81039464 -0.4306638 0.5127977
000030 75 b9 22 3e e8 f5 b1 3b d5 ad 20 bb 1d 17 1e bf
       0.15891059 0.0054309256 -0.0024517674 -0.6175402
000040 49 76 4e bf 21 06 a2 be 43 34 fa be 91 20 06 bf
       -0.8064924 -0.316453 -0.48867998 -0.5239344
000050 8f cb aa be 7a 6b 33 bf 77 c2 15 3f fc 20 85 bf
       -0.33358428 -0.7008587 0.58499855 -1.0400691
000060 9f 73 b4 3e 54 8c 52 bf 85 ee 8f be e6 e2 0b bf
       0.35244462 -0.82245374 -0.28111663 -0.54643095
000070 23 7a f8 be c2 73 36 bf 6a cf 65 bf c7 5c fb bd
       -0.48530683 -0.7127038 -0.89769614 -0.12273555
000080 b2 92 48 be 53 e8 60 bf 00 98 15 bf 82 d6 8c bf
       -0.1958721 -0.878545 -0.5843506 -1.1002963
000090 f1 19 0e bf de 58 42 3f 6f 00 bc bf 62 20 8e be
       -0.55508333 0.7591685 -1.4687632 -0.2775908
0000a0 92 8e 69 bf 5c d1 47 bf f1 fc ba be dc e2 1f be
       -0.9123317 -0.7805383 -0.36521104 -0.15613884
0000b0 d9 9b 28 3d cd 7b 7b be 64 84 b8 be 31 57 8f bf
       0.041164253 -0.24558945 -0.36038506 -1.1198484
0000c0 45 ac 44 bf 5e ae 1f bf 71 9d c4 bf 93 d6 fe 3d
       -0.7682536 -0.6237544 -1.5360547 0.124432705
0000d0 c5 5b 6f bf 58 62 91 3e f9 ea c0 be 52 f3 2f 3f
       -0.93499404 0.28395343 -0.3767927 0.6873065
0000e0 a8 1c 61 bf 51 f6 ea bf b5 a3 05 c0 04 d4 75 bf
       -0.8793435 -1.835642 -2.088117 -0.96026635
0000f0 c2 9d d6 be 6a 63 0a bf 38 8f 65 bf 90 06 d8 be
       -0.41917235 -0.54057944 -0.8967166 -0.42192507
000100 d5 86 3c 3e 4e 87 c2 be 1d 2c 32 bf 7e 05 43 bf
       0.1841081 -0.37993854 -0.6959856 -0.76180255
000110 f2 c5 57 bf e3 29 d3 bf 71 59 e0 be cf 0c ee bf
       -0.84286416 -1.6497158 -0.43818238 -1.8597659
000120 fe 68 02 bf 94 89 4d be 9d 03 ba bf c6 3b ab bf
       -0.50941455 -0.20072013 -1.4532353 -1.3377616
000130 9d 1b 0d bf 8e 1a 74 bf f9 87 c6 bf 28 30 17 bf
       -0.5512026 -0.9535302 -1.5510246 -0.59057856
000140 c4 8c 6a bf d4 c0 ac be 89 84 50 bf f5 1f 14 be
       -0.9162104 -0.33740866 -0.8145223 -0.14465316
000150 cf f0 35 bf 26 0a 3c bf 6d ee c6 bf 1f 2f 18 bf
       -0.7107057 -0.73452985 -1.5541512 -0.594469
000160 4e 37 1e be bb 33 2d bd 8c 74 70 be 9e 56 a5 bf
       -0.15450785 -0.042285662 -0.23481959 -1.2917058
000170 64 fe 39 bc c6 77 8c bd f7 68 8f 3e ac ed 83 be
       -0.011352155 -0.068587825 0.2800977 -0.25767267
000180 b8 1d 47 bd 4d fd 2b 3e 52 d4 8c be 0a 5b 36 bf
       -0.048612326 0.16795845 -0.27505738 -0.71232665
000190 f7 21 ff be 02 6d 8b bf ae 3f 78 3e 6d 80 34 3e
       -0.498306 -1.0892642 0.24243042 0.17627116
0001a0 e3 f9 e1 be be f6 8f be 80 19 99 be 86 9b 3e bf
       -0.4413596 -0.28117937 -0.29902267 -0.7445606
0001b0 a6 8c 93 3e 02 c1 67 bf e6 43 6c be 19 65 40 bf
       0.28818244 -0.9052888 -0.23072776 -0.7515426
0001c0 e7 64 09 bf b4 d2 3b bf 34 5f 37 bf 7a c9 4e bf
       -0.5366959 -0.7336838 -0.71629643 -0.8077618
0001d0 08 0d 60 bf 37 5e 32 be ec c2 9e be 1f d7 75 be
       -0.87519884 -0.17418753 -0.3100809 -0.24007843
0001e0 b8 0d 47 bf d6 13 d9 be d8 7f 82 bf 91 33 ff bf
       -0.7775531 -0.42397946 -1.0195265 -1.9937612
0001f0 c7 12 86 bf f2 7b d1 3d 20 b3 2d bf 51 1a e3 3d
       -1.047448 0.10228719 -0.6785145 0.11089004
000200 9a ad 56 bf 11 87 92 bd 58 75 8c bf b1 07 44 bf
       -0.83858645 -0.07154668 -1.097331 -0.76574236
000210 10 a3 24 3c 72 db f9 bf f9 d1 b9 bd 34 05 ae bf
       0.010048643 -1.9520094 -0.09073252 -1.3595338
000220 d7 30 ae be d0 9f 50 bf d7 07 f0 bd fd 09 55 bf
       -0.34021637 -0.81493855 -0.11720245 -0.83218366
000230 da 49 42 be 15 ec 7f bf f3 d2 1c bf a5 91 45 bf
       -0.18973485 -0.9996961 -0.6125938 -0.7717536
000240 73 12 f0 bf c9 3d a3 bf 2c be 86 bf f2 39 74 bf
       -1.875563 -1.275323 -1.0526786 -0.9540092
000250 d6 a2 7d bf 31 9d d1 be 52 8f 69 be 61 96 b2 bf
       -0.9907659 -0.4094024 -0.22808579 -1.3952142
000260 e2 b1 dd be e5 aa c9 be 07 9a 90 bf a6 2c 8e bf
       -0.43299776 -0.39388195 -1.1297005 -1.1107376
000270 75 40 33 bf 3f 41 57 be 3a e2 c6 bf 52 cf 88 bf
       -0.7002023 -0.21020983 -1.5537789 -1.0688269
000280 d4 6c 8d bf 71 e1 4c be 20 b7 c3 3e f8 98 4a be
       -1.1048837 -0.20007874 0.3822565 -0.19784915
000290 39 f1 61 bf 43 4c 3f 3d 79 7f 91 bf 91 e4 8d bf
       -0.882587 0.04670359 -1.1367027 -1.1085378
0002a0 03 40 b2 bf 2b 81 03 bf a3 77 d2 bc 01 2c 2e bf
       -1.3925785 -0.5136897 -0.025691813 -0.68035895
0002b0 23 8a c0 bf 08 37 15 bf 48 7f 09 bf 5e ac 1d bc
       -1.5042156 -0.58287096 -0.5370984 -0.009623615
0002c0 25 eb 5d be 2a 25 c2 bf 67 4d 8c be b0 cd 10 bf
       -0.21671732 -1.5167592 -0.27402803 -0.56563854
0002d0 0b 50 6f bf 12 70 fc be 73 7c 6f bf 9b 38 96 bf
       -0.9348151 -0.49304253 -0.9354927 -1.1736025
0002e0 42 34 dc bf 76 4d 37 bf 16 33 e1 be aa 17 87 bf
       -1.7203448 -0.7160257 -0.43984288 -1.0554097
0002f0 93 6f 08 3e e9 3a d1 bf c4 be 89 bf 23 5e 4a 3f
       0.13323812 -1.6346103 -1.0761342 0.7904989
000300 3f e4 17 3f ed 9f e2 bf 53 cd 46 bf a2 ac 6e be
       0.5933265 -1.7705055 -0.7765705 -0.23308042
000310 05 5a d1 3c 72 44 f5 3d 46 e7 27 bf f9 4d 4d bf
       0.02555562 0.119759455 -0.6558727 -0.801971
000320 b7 8a 8e 3e 72 38 60 bf d4 e3 54 bf 60 37 98 bf
       0.27840206 -0.8758613 -0.8316014 -1.1891899
000330 9d 11 e4 be 62 cd 9a bf d4 7d 67 bf 1f 58 a9 bd
       -0.44544688 -1.2093928 -0.90426373 -0.08268761
000340 80 7b 94 3e 70 8e 29 be 78 80 00 bf 61 73 15 bf
       0.29000473 -0.16558242 -0.5019603 -0.5837918
000350 07 4d 01 bf 81 77 a8 bf 07 45 b3 bf ad 45 8d bf
       -0.5050816 -1.316147 -1.400544 -1.1036888
000360 7a f3 8e bf 24 00 e7 be 73 b8 27 bf fb 01 6b bf
       -1.1168053 -0.45117295 -0.6551582 -0.91799897
000370 29 7b 47 3e 15 82 87 be 8d c8 08 bf 3b d9 b1 bf
       0.19480576 -0.26466432 -0.53431016 -1.3894418
000380 6a e6 99 3e 6c 49 d3 bf d8 ae e7 bf bd 13 b1 bd
       0.30058604 -1.6506782 -1.8100233 -0.08646343
000390 e9 3c 09 be 9b 32 10 bf 4f e5 10 bf 54 b9 8e bf
       -0.13402142 -0.5632722 -0.565999 -1.1150308
0003a0 d0 df 8b bf be 43 92 bf 24 ff 2b bf 24 63 f3 be
       -1.0927677 -1.1426923 -0.6718619 -0.47536576
0003b0 35 44 8f bf 03 b5 01 3e 79 2c a9 bf e1 ae 34 bf
       -1.119269 0.12666707 -1.3216697 -0.70579344
0003c0 98 1e 95 bf 32 9d 91 bf e0 ec f3 be bb 37 67 3f
       -1.1649961 -1.1376097 -0.4764166 0.9031941
0003d0 44 14 8c 3d c1 6d d8 3d ae 10 52 bf 7b d2 f9 bf
       0.06839803 0.10567809 -0.820567 -1.9517359
0003e0 52 9c 06 bf b4 25 3c bf 12 ab 82 bf 2b 5a ec be
       -0.52582276 -0.7349503 -1.0208457 -0.46162543
0003f0 c3 97 84 be b2 a4 f3 be d7 a3 0b bf d8 6c a9 bf
       -0.25897035 -0.4758659 -0.54546875 -1.3236341

fc2.weight f4 [128, 260]
000000 c4 6a d8 bd bb b2 42 bd 67 e3 b8 bb 29 c7 91 bd
       -0.10567239 -0.047533732 -0.005642343 -0.07118065
000010 fd 29 6a bd a4 aa 81 bb 0a 30 97 bc c8 fd a7 bd
       -0.05716895 -0.0039571095 -0.018455524 -0.08202702
000020 cb 91 92 bd 8e 67 ad bd d6 d1 2b bd a4 94 fb bb
       -0.07156714 -0.08467017 -0.041948162 -0.0076776315
000030 42 cb 90 3d 72 1e bb 3d 9d 5d 63 bd 75 4a 73 3d
       0.07070018 0.09136666 -0.0555092 0.05939718
000040 c4 36 33 3d c2 da ab 3c 75 22 fa bd 09 1b f4 3a
       0.0437534 0.020978335 -0.122136034 0.001862378
000050 ba 5c 39 3c 60 f6 11 be 4e 2d 71 bd 96 61 80 3a
       0.011313612 -0.14254141 -0.058881097 0.0009794708
000060 af c3 0a 3d af 5e be bd c7 5c f9 bd 29 26 bb bc
       0.033878025 -0.09295403 -0.12175899 -0.022845345
000070 41 9f 0c be 19 23 d0 bd ff eb 74 3d f3 e7 f7 bd
       -0.13732626 -0.10162944 0.059795376 -0.12104788
000080 23 06 b8 3c ff 6c ad bb 69 62 6c bc a8 d4 47 bd
       0.022463864 -0.0052925344 -0.01442776 -0.04878679
000090 1a 26 08 bd 3f 60 06 3d 5f 7e 44 3d 34 07 1e bd
       -0.03323946 0.03280663 0.04797208 -0.03858109
0000a0 1f 7f e7 bd 56 02 71 bd 0c 0b 87 bd 0b 6e b6 bd
       -0.11303543 -0.05884012 -0.06593904 -0.08907708
0000b0 36 dc ad bd b2 53 8b bd 41 ad 5b 3c ee 98 2c 3d
       -0.084892675 -0.06803073 0.013408006 0.042138033
0000c0 f9 98 86 bd 40 2b a9 bd 74 f6 eb 3c 89 b2 82 3d
       -0.06572146 -0.082602024 0.028804041 0.06381709
0000d0 a0 b8 0c 3d 3c f8 34 bd d2 2b 43 bd 77 38 7b bc
       0.03435576 -0.044182047 -0.047649212 -0.0153332865
0000e0 5d a1 51 be 8f 72 80 bd 5a fd 4f 3d a2 61 12 3d
       -0.20471711 -0.0627185 0.050778724 0.03573764
0000f0 4f ca 05 be af c4 1f bd a7 30 7e be 63 0a 93 3d
       -0.13065456 -0.03900593 -0.24823247 0.071797155
000100 b7 67 5d bc 27 62 8c bd eb a5 8e 3d 84 ce fc bd
       -0.013513497 -0.068546586 0.0696524 -0.12344077
000110 f6 8f 3c bd d2 c2 9c bd 2d 14 e6 bd d9 ab 79 bd
       -0.04603573 -0.076543465 -0.11234317 -0.060954902
000120 25 9c f3 3c a0 bc 0c bd d8 a8 04 be ff 45 40 bc
       0.029737541 -0.034359574 -0.12955034 -0.011735438
000130 3b 9f 21 3c 43 e5 7a bd 15 27 09 bd 92 ce 89 3d
       0.009864624 -0.061253797 -0.033484537 0.06728853
000140 57 85 1e 3d 52 8a f8 bd ba 9a 0a be 56 90 35 bd
       0.03870138 -0.121357575 -0.13535586 -0.044327103
000150 d8 b3 13 be 73 b8 21 be af 22 38 3c 4d ec 55 bd
       -0.14424074 -0.15793018 0.011238738 -0.052227307
000160 4a 12 44 3d 0d 93 6a be 80 91 d9 3d d2 a0 fe bc
       0.047869004 -0.22907658 0.10623455 -0.031082544
000170 2c a7 08 be b1 a2 06 3d 97 2f 4a bd 70 be a6 3c
       -0.13345021 0.03287 -0.04936179 0.02035448
000180 bf 81 b1 bc ec f1 16 be 60 f6 0a 3d 9d da d0 bd
       -0.021668313 -0.14740723 0.033926368 -0.10197947
000190 4d c8 eb bd fa 99 d8 3a 8f 45 de bc d2 8a 09 be
       -0.11512814 0.0016525381 -0.027132777 -0.13431862
0001a0 6b e0 80 3e 7e 22 e5 bd 78 8b fb bd 80 dc 07 bd
       0.25171217 -0.111882195 -0.12282461 -0.03316927
0001b0 97 b8 4c bd c8 00 1d 3d 0a 84 e9 bd b2 56 a0 bc
       -0.049980726 0.038330823 -0.114021376 -0.01957259
0001c0 c2 85 98 bb 50 67 6d bd bf 01 ce 3b 9f 6e cd bd
       -0.004654617 -0.057959855 0.0062868292 -0.10030865
0001d0 2b 63 85 3c ad cc dc 3c c1 d6 4e bc b7 5e 88 be
       0.016282639 0.026953066 -0.0126244435 -0.26634762
0001e0 87 8f 84 3d 61 ed 7a 3b 37 f2 85 3d 57 77 a7 bd
       0.06472688 0.0038288462 0.065403394 -0.08177059
0001f0 90 67 87 bd 21 4e 86 3d aa db 26 bd c4 d8 a7 3a
       -0.0661155 0.06557871 -0.04073683 0.001280569
000200 b0 45 1c 3d d6 78 ba bd e7 2f d0 bc e4 29 a1 bd
       0.038152397 -0.09105079 -0.025413467 -0.07869318
000210 fd a4 82 3d 4e e6 bc 3c 81 61 80 bd 0b c6 fc 3b
       0.06379125 0.023059037 -0.062685974 0.0077140382
000220 17 cc 51 be b3 be 81 bd a1 30 06 bc c3 32 75 3d
       -0.2048801 -0.06335201 -0.008190305 0.059862863
000230 18 bb 2e bd b2 c3 fc bb 64 42 5d 3b 5b 80 3a bd
       -0.042658895 -0.0077137584 0.0033761496 -0.045532566
000240 24 27 d2 bc 16 28 33 3d 37 c5 3c bd ed 00 93 bd
       -0.02565343 0.0437394 -0.046086516 -0.07177911
000250 32 11 17 3c 0c f4 fa 3c 06 00 ad bc 93 88 a0 bd
       0.009220408 0.030633949 -0.021118175 -0.078385495
000260 78 fc ac bd 9e e0 1e bc cb b6 a9 3d 48 f2 db bd
       -0.08446592 -0.009697108 0.08286818 -0.10739571
000270 80 eb 97 3d 9b 29 82 bd 33 fd 01 bd ca ba b2 3d
       0.07417965 -0.06355592 -0.03173561 0.087270334
000280 39 98 26 3c 61 dd 44 bd 4d 7c 46 bd 92 a3 e6 bc
       0.010168129 -0.048062686 -0.048458386 -0.028154168
000290 8d d9 89 3a 9e 93 3f be 5b 6e 84 bd 8e 3e 52 bd
       0.0010517106 -0.18708655 -0.06466361 -0.051329188
0002a0 22 ef 5e 3d 87 e4 a0 3d 76 a4 b2 bd a0 ef fa bc
       0.054427274 0.07856088 -0.08722775 -0.03063184
0002b0 b4 7c 8a bc f8 11 33 3e 54 01 96 3b 39 33 db bd
       -0.016905166 0.17487323 0.004577795 -0.10703129
0002c0 e0 a1 5f be b6 b9 07 bd 34 df 17 3c 0b 7c c1 bd
       -0.21839094 -0.033136092 0.009269524 -0.094474874
0002d0 13 d7 a9 bd fd 7a b2 bd fb 72 b9 bd ef 39 83 bd
       -0.08292975 -0.087148644 -0.09055134 -0.06407534
0002e0 90 29 30 3d 41 73 e6 bd 43 f2 3c bd a5 ad 01 be
       0.043008387 -0.11252452 -0.046129476 -0.12663896
0002f0 7e e6 85 bc cf 43 e9 3c f3 2e 9f bd 9b 68 7c bd
       -0.016345259 0.028474716 -0.07772627 -0.061623197
000300 74 ee 93 3c 4a 6b a2 ba 02 eb a8 bd aa 0f ad bd
       0.01805804 -0.0012391594 -0.08247949 -0.08450253
000310 83 80 95 bd 78 39 cb bc a0 ba 0d bd 75 64 3c be
       -0.07299902 -0.024807677 -0.034601808 -0.18397696
000320 36 e0 0b be 46 29 a6 bd ae 28 9d bd 6f 06 a6 3b
       -0.13659748 -0.08113341 -0.07673775 0.005066685
000330 da 69 27 bd 1f 58 ab bd 9e b6 2e bd 24 fa 8e bc
       -0.040872432 -0.08366417 -0.042654626 -0.01745326
000340 76 47 59 ba e8 b1 ec 3b f1 27 0b bd 93 c4 d0 bd
       -0.00082885416 0.0072233565 -0.033973638 -0.101937436
000350 47 f5 30 3d 42 8a bc bc d0 4f 9d bd 08 33 d3 bd
       0.043202665 -0.023015145 -0.07681239 -0.10312468
000360 f0 b7 d9 bc 22 87 62 be 3a c8 23 3d ba ea 43 bd
       -0.026576966 -0.22121862 0.039985873 -0.047831275
000370 f4 e8 49 bd 92 74 b0 3b 74 97 f7 bb 20 db d2 bd
       -0.049294427 0.00538499 -0.0075558964 -0.10295701
000380 b9 74 90 3c 48 c0 21 bd 1f 84 92 3d 23 f7 31 be
       0.017633783 -0.039490014 0.07154106 -0.17379431
000390 08 50 49 be 16 30 0e b9 82 44 bd bd 42 49 d4 bc
       -0.19659436 -0.00013560089 -0.092415825 -0.025913838
0003a0 50 dc 38 3d cb 83 7b bd ac 6a 41 3d 95 46 99 bc
       0.04513198 -0.061404984 0.04722087 -0.018710414
0003b0 55 71 c1 be 19 ba 06 bc 41 8b 43 39 bf 2c 9b bd
       -0.37781778 -0.00822308 0.00018648525 -0.07576894
0003c0 fb eb fe 3c 62 a7 c3 bd b9 76 2e bd c5 50 01 be
       0.031118384 -0.0955341 -0.04259369 -0.12628467
0003d0 b5 b6 13 3d d9 22 30 bd f3 62 64 3b 7a a0 e4 bd
       0.036062915 -0.043001983 0.0034849017 -0.11163421
0003e0 18 e7 70 bd df 9a 13 be 1a 92 1d be dc 4c 4e bd
       -0.05881414 -0.14414547 -0.15387765 -0.050366268
0003f0 92 44 f3 3c 9a 32 5e 3d e9 e9 2e 3d 3c aa 58 bc
       0.029695783 0.054247476 0.042703543 -0.013224181

fc2.bias f4 [128]
000000 ec f4 ff be 8f 86 9b be 5b c0 a2 be ea 8e 64 be
       -0.49991548 -0.30376098 -0.3178738 -0.22320142
000010 88 30 2f bf f1 70 b3 be ab 37 60 bf 77 07 bb be
       -0.6843343 -0.35047105 -0.8758494 -0.36529133
000020 6b 2d e3 be c3 64 01 bf 47 c6 92 be 80 1c 87 3f
       -0.4437059 -0.50544375 -0.286669 1.0555573
000030 2c 7c 1d bf 1a 02 78 bf bb ea a8 be d8 81 52 bf
       -0.61517596 -0.96878207 -0.32991585 -0.82229376
000040 60 da 6c bf 6e 4a 4b bf 76 8d ee be 6a c1 61 bf
       -0.92520714 -0.79410446 -0.465923 -0.8818575
000050 ae 0f 5c bf 98 69 92 be f8 af 7b be 9f 89 3c be
       -0.85961425 -0.28596187 -0.24578846 -0.18411873
000060 ec 55 4f be 07 2f 0b bf af 6b 86 bf 9a 81 fc be
       -0.2024762 -0.54368633 -1.0501612 -0.49317628
000070 84 a9 14 bf ba 0d 33 bf d7 85 cf be 30 3c 87 bf
       -0.5807116 -0.6994282 -0.405318 -1.0565243
000080 cd 2a 86 bf 21 09 9f be a5 2e a9 bf 55 2f 5f bf
       -1.0481812 -0.31061652 -1.321736 -0.871816
000090 84 ac 30 bf c9 3e 67 bf 8d 6a 96 bf c3 e0 1a bf
       -0.6901324 -0.9033018 -1.1751267 -0.6049921
0000a0 4a fc a5 be 22 1b 12 bf d5 9a 83 be 83 61 00 bf
       -0.32419044 -0.5707265 -0.25704065 -0.5014879
0000b0 3b 8f 41 be 1a a4 67 bf de bb c6 bf c7 cd 80 be
       -0.18902294 -0.90484774 -1.5526083 -0.25156996
0000c0 a9 29 5e be 6e f0 4e bf 87 4f be be 35 1a 80 bf
       -0.2169558 -0.80835617 -0.3717005 -1.0007998
0000d0 86 26 09 bf c6 ec 6e bf 47 96 a1 bf a9 84 bd be
       -0.5357441 -0.9333004 -1.2623986 -0.37015274
0000e0 86 7a cb be dd 4c 85 bf db 79 d1 bd ae a8 87 be
       -0.39741915 -1.0414082 -0.1022832 -0.2649588
0000f0 44 15 6b bf fd 24 39 bf d1 23 33 bf 8e 7a 54 be
       -0.91829324 -0.72322065 -0.69976526 -0.20749876
000100 e4 e8 01 bf 88 58 34 bf aa 5e 4a bf 96 2d 88 be
       -0.5074599 -0.7044759 -0.79050696 -0.2659728
000110 46 40 fe bf 37 41 0c bf 74 a8 df be 34 a5 c9 be
       -1.9863365 -0.5478701 -0.43683207 -0.39383852
000120 ec 23 2b bf 34 fa a5 bf 55 fb 63 bf 23 a3 8b be
       -0.6685169 -1.2966981 -0.8905538 -0.272729
000130 9c 62 a0 be d3 34 09 be c6 2b 09 bf 60 a6 70 bf
       -0.31325233 -0.13399057 -0.5358242 -0.9400387
000140 69 06 3a 3f 08 bd ae be 9c 84 ea bf f7 96 87 be
       0.7266603 -0.34128594 -1.8321719 -0.26482365
000150 77 cf 9b bf 3e 3e 55 bf 0b e3 0e bf 69 28 f4 be
       -1.2172688 -0.832981 -0.5581519 -0.4768708
000160 b6 36 5a bf cd 9f 92 bd 41 f4 92 bd b6 de e0 be
       -0.8523973 -0.07159386 -0.07175494 -0.43919915
000170 4c fb 04 bf 2e c4 dd be 82 7d 7c bf 4a d3 23 3f
       -0.5194595 -0.43313736 -0.9862901 0.63994277
000180 47 f3 e6 be c8 c9 89 be 11 62 97 bf e3 76 b0 be
       -0.4510748 -0.2691176 -1.1826802 -0.34465703
000190 a7 53 6a bf e0 2d 04 bf 3a ad 49 bf 11 da 16 bf
       -0.91533893 -0.516325 -0.7877995 -0.5892649
0001a0 ef dd d9 be 0e 05 b0 be 93 7e 9a be 1a 9f 83 be
       -0.42552134 -0.34378856 -0.30174693 -0.25707322
0001b0 cf 14 4c bf 30 5d 07 40 fa 80 8c bf cf 1a ad be
       -0.7971925 2.1150627 -1.097686 -0.33809516
0001c0 7f 69 05 bf 3c 88 ab be 74 66 9c be 1d a4 f7 be
       -0.521141 -0.33502376 -0.30546916 -0.48367396
0001d0 9d 2b 10 be 35 c9 42 bf 7b cf 9f bf ea 82 77 bf
       -0.14079137 -0.7608827 -1.2485193 -0.96684134
0001e0 b5 2c 2f bf 18 21 79 be 62 fa 3b bf 5f 27 96 bf
       -0.6842759 -0.2432903 -0.7342893 -1.1730765
0001f0 94 79 6f be 64 82 29 bf f5 c6 27 bf 40 07 98 be
       -0.23386222 -0.66214585 -0.6553796 -0.2969303

fc3.weight f4 [1, 128]
000000 2c d2 1d 3a 35 64 64 bc ad 38 96 3c 00 34 ab 3c
       0.0006020393 -0.013939907 0.018337572 0.020898819
000010 6f 52 0b be ce 28 b2 3b d3 9c 93 3c 98 4a a6 bc
       -0.13605665 0.005436993 0.018019116 -0.020299241
000020 71 5b 4d bc f2 4b 35 3c 78 b2 7c 3b 14 d5 0e bc
       -0.012534008 0.01106547 0.0038558524 -0.008717794
000030 5f 0c 03 bc 56 b5 a3 bb 3d 1b 1a 3c 88 3d cb bc
       -0.007998555 -0.004995982 0.009405908 -0.024809614
000040 b0 79 66 bc 3a 0c 25 bd f8 ec 04 3c c6 60 0b 3c
       -0.0140670985 -0.040294863 0.008113138 0.008506959
000050 2c 4f 67 3c b0 21 4d 3b 82 0f c7 3b 45 47 74 bc
       0.014117997 0.0031300597 0.0060748467 -0.01490957
000060 2f 1f 1e bc be 81 5a 3c e0 44 9c bc 48 64 22 bc
       -0.009650989 0.013336597 -0.01907581 -0.009911604
000070 43 18 56 bc 3a 4c b6 3d ac bf 88 bc 9f 8a a2 3c
       -0.013067308 0.08901258 -0.016692959 0.01984149
000080 58 cd b3 bb 9d c2 5f 3a dd 48 46 3c ad 3d e5 3b
       -0.0054871254 0.00085357745 0.012102333 0.0069958777
000090 89 ba d5 bc 99 d5 a9 bd d6 ad 21 3c 15 35 98 3a
       -0.026089923 -0.08292694 0.009868106 0.0011612499
0000a0 fe 36 09 bb 53 54 4d 3c 13 c6 e3 bc 58 db 15 3d
       -0.002093732 0.0125323115 -0.02780441 0.036586136
0000b0 c8 b1 f1 bc 2c d4 cd 3b 6a 7e 36 3d e0 f0 86 bc
       -0.029503718 0.0062813964 0.04455415 -0.01647228
0000c0 7a 26 ba 3a 9e 0a 1a bc 2a 20 58 bd f7 9e fd 3c
       0.0014202141 -0.009401945 -0.05276505 0.03095959
0000d0 57 7b b1 3b d5 0a 6f bc 28 2b f4 3b 80 d3 8c 3a
       0.0054163146 -0.014589985 0.0074514337 0.0010744184
0000e0 50 5f b7 3c a8 50 43 bc b8 12 7d bc 1b a2 9a 3c
       0.022384316 -0.011921085 -0.015446357 0.018876126
0000f0 60 ce 20 bc 2c 38 7c bc e5 6d 21 3d f4 57 56 3a
       -0.009814829 -0.015394252 0.039411444 0.0008176558
000100 1e ad 9a bc ab 43 4d bc 4e 6a d9 bc fc 3c d6 bc
       -0.018881377 -0.01252834 -0.026539948 -0.026152126
000110 82 3d 10 bd fc 43 9a 3b a3 8f 7e bc 03 13 97 bc
       -0.03521491 0.0047078114 -0.015537175 -0.018441683
000120 86 6a 99 3c 07 06 d6 bc ea 09 86 bc 89 f1 c0 3c
       0.018727552 -0.026125921 -0.01636215 0.023552673
000130 4f 1d 9f bc a3 89 eb 3c 9d 58 4a bc e4 0c 4a bb
       -0.019423155 0.028752154 -0.012350229 -0.0030830437
000140 96 8a d0 bb c3 9d 0a bd cb 10 3c bc 0f 1d 99 b9
       -0.006364177 -0.03384186 -0.011478613 -0.00029204084
000150 f9 ec 56 3c 9e 85 1a 3d 9f 5b 8b bc 0c f9 c8 bb
       0.013118022 0.037725084 -0.017011462 -0.0061332043
000160 be 02 dd 3a 30 1a 2b 3c e5 ae 8e 3c 07 57 ab b9
       0.0016861779 0.010443255 0.01741738 -0.00032680502
000170 9b 60 9a bc 5c 21 84 3c f5 55 a0 3c 08 64 11 bc
       -0.018844893 0.016129188 0.019572238 -0.008873947
000180 92 53 c2 bb 3f 9f f1 3c 92 20 54 3b 65 82 43 bd
       -0.0059303725 0.02949488 0.0032368046 -0.047731776
000190 5e d4 8a bc a3 5d 5c bc d6 96 2c bd 45 f6 b6 3c
       -0.016946968 -0.013450059 -0.042136036 0.022334227
0001a0 a0 0e d5 bc ac d4 31 bd d6 de 02 bc c5 98 42 3c
       -0.02600795 -0.04341571 -0.007987699 0.011877243
0001b0 4e 14 91 bb 06 4a 00 bc 61 7f 92 3c 6a e0 00 3c
       -0.0044274693 -0.007830149 0.017883005 0.0078660045
0001c0 63 13 89 bc 84 91 e7 3b f7 9d 9c 3c c3 a9 28 bb
       -0.016732877 0.0070669074 0.019118292 -0.0025735951
0001d0 84 63 0c bc f1 1e 37 bc 3d 74 ac bc fd 80 9f bc
       -0.008568648 -0.011176811 -0.02105152 -0.019470686
0001e0 1b e9 d4 3c 14 5d 17 bc 36 07 e3 3c 93 4e 3a bd
       0.02599006 -0.0092385 0.0277134 -0.04548509
0001f0 3a 20 94 3c 1f a7 1e 3c f7 0b f5 3c e1 f4 e4 bb
       0.018081773 0.009683399 0.029912932 -0.0069871997
