models/solved/checkpoint_actor_1.pth (torch_old, 183806 bytes, 6 tensors)

fc1.weight f4 [256, 48]
-0.2743196 1.4906316 0.053996902 -0.023541052 -0.68564445 0.33539188 0.059051942 0.029807784
-0.3372264 1.1074514 -0.16273324 -0.9775978 -0.68994856 0.5843232 -0.10091033 -0.8868646
-0.18066975 0.8193353 0.39784414 -1.3390425 -0.6459464 0.763833 0.4364 -1.2689301
0.17317815 -0.24964325 0.027579429 0.003230631 0.6833243 0.282493 0.122377984 0.008741844
0.30054304 -0.2854273 0.5469189 0.53440136 0.67001057 0.5860546 0.514068 0.58143723
0.46109983 -0.051545817 0.2131972 0.3946279 0.65511215 0.7688357 0.2598451 0.42689356
0.2947689 -0.547282 -0.25707555 0.34654647 -0.660688 -1.109807 -0.22410789 0.37043768
0.2847645 -0.42742047 -0.50755244 0.49556527 -0.67208713 -0.8224632 -0.41836426 0.5344535
0.25078753 -0.27909026 -0.20689061 0.47730255 -0.49061516 -0.76538956 -0.22128305 0.43247217
0.7497836 0.13450345 -0.17757791 0.58804387 0.61323744 -1.1151772 -0.18145189 0.538542
0.5707718 0.12727931 0.014073696 0.87416166 0.66699594 -0.93063015 -0.012802016 0.8085975
0.4004143 0.1934995 0.3584766 -0.1682651 0.38735956 -0.7406262 0.28768077 -0.1284955
-0.32988918 -0.8448425 0.01152241 -1.1825769 0.09290831 -0.41403854 -0.016276488 -1.0897632
-0.07847941 -0.43021342 0.2555254 -0.6127398 -0.36625633 -0.8518669 0.22480652 -0.6948062
-0.071136475 -0.00580013 0.25270092 1.6713219 -0.509058 -1.0041121 0.237003 1.6861382
-0.057773296 -0.41188693 -0.31639704 0.5198221 -0.12848413 -0.41469854 -0.24824075 0.4963977
0.10811092 0.35063663 -0.030330185 0.2590244 0.3206946 -0.8350274 0.031441286 0.16062245
0.116008475 0.14747596 -0.47062632 -0.47092056 0.49339467 -1.0381092 -0.36404446 -0.50266576
-0.0059224744 -0.30450594 0.24040854 -0.23832448 0.3158358 -0.4814025 0.28815743 -0.30398607
0.1960379 -0.18479887 -0.10515895 -0.47280124 0.28091437 -0.6551368 -0.12759086 -0.45010582
0.45914027 -0.30806395 -0.16897567 -0.6780536 0.36090484 -0.835586 -0.26306897 -0.65707684
0.5117774 -0.81065077 -0.7323931 -1.2981277 -0.41422108 -0.5192229 -0.70491165 -1.3008304
0.67651093 -1.1814775 -0.16324499 -0.9822483 -0.25043896 -0.69966626 -0.12890463 -1.0475304
0.6823068 -1.2908885 0.11158559 -0.8806814 -0.30162203 -0.7247228 0.027543416 -0.8933108
0.7254036 0.5087523 -0.055468254 0.22305055 0.14859578 -0.08222917 0.01126605 0.19699603
0.7318185 0.5786198 -0.032093946 0.13336651 0.24971884 -0.051014278 -0.09928532 0.17383496
0.82018226 0.5826777 0.068192475 -0.8504891 0.15543813 -0.113903746 0.110606335 -0.91668516
-0.16111855 -2.3036232 -0.64122003 -1.2371578 -0.2192109 -0.04523848 -0.5817179 -1.1168652
-0.12661384 -2.7117581 0.16318925 0.12312629 -0.2563818 -0.12523812 0.21728791 0.06108911
-0.09979277 -2.5761318 0.040848505 1.4635363 -0.09741053 -0.13941419 0.10310468 1.4098868
-0.38348433 1.4422166 -0.02584905 0.054387998 -0.007136504 -0.29378656 -0.008680541 0.052920066
-0.14697215 1.6217556 -0.052081663 -0.11122645 -0.2883839 -0.51214796 -0.07250189 -0.11531946
00000000: 9e73 8cbe 04cd be3f db2b 5d3d 2ad9 c0bc
00000010: 6586 2fbf 7cb8 ab3e 73e0 713d 742f f43c
00000020: f0a8 acbe f8c0 8d3f 8ba3 26be d943 7abf
00000030: 78a0 30bf 3596 153f 13aa cebd 8f09 63bf
00000040: 7e01 39be f5bf 513f 3ab2 cb3e bf65 abbf
00000050: be5c 25bf 8f8a 433f d26f df3e 4d6c a2bf
00000060: 9d55 313e 7ba2 7fbe 41ee e13c feb8 533b
00000070: 57ee 2e3f eca2 903e 4fa1 fa3d f439 0f3c
00000080: c7e0 993e 8723 92be e102 0c3f 87ce 083f
00000090: d085 2b3f ad07 163f f699 033f 12d9 143f
000000a0: 4715 ec3e b521 53bd 5e50 5a3e ab0c ca3e
000000b0: 6eb5 273f 6bd2 443f 6b0a 853e cb91 da3e
000000c0: f3eb 963e ac1a 0cbf 689f 83be 8a6e b13e
000000d0: d922 29bf 280e 8ebf 8a7c 65be 02aa bd3e
000000e0: a7cc 913e dbd6 dabe f5ee 01bf bbba fd3e
000000f0: e70d 2cbf f38c 52bf d733 d6be f2d1 083f
00000100: 3967 803e ebe4 8ebe 22db 53be 0061 f43e
00000110: e931 fbbe 92f0 43bf 0698 62be fe6c dd3e
00000120: d1f1 3f3f 46bb 093e fcd6 35be 0b8a 163f
00000130: 21fd 1c3f 20be 8ebf 86ce 39be e3dd 093f
00000140: 1a1e 123f 8255 023e 5c95 663c 0fc9 5f3f
00000150: 3fc0 2a3f c73d 6ebf 8cbf 51bc 3f00 4f3f
00000160: 1a03 cd3e bc24 463e 3f8a b73e b04d 2cbe
00000170: fe53 c63e ae99 3dbf e54a 933e 5394 03be
00000180: 3ce7 a8be 9947 58bf 7ec8 3c3c ae5e 97bf
00000190: b646 be3d dcfc d3be 4556 85bc 5c7d 8bbf
000001a0: d0b9 a0bd ef44 dcbe 3ad4 823e 84dc 1cbf
000001b0: f385 bbbe f313 5abf ae33 663e d2de 31bf
000001c0: 00b0 91bd 040f bebb 0462 813e e0ed d53f
000001d0: a051 02bf bf86 80bf eab0 723e 60d3 d73f
000001e0: b1a3 6cbd d8e2 d2be cbfe a1be 1013 053f
000001f0: 5891 03be 5e53 d4be d332 7ebe d727 fe3e
00000200: 4269 dd3d a586 b33e 0277 f8bc d99e 843e
00000210: 1532 a43e 5bc4 55bf 94c8 003d 367a 243e
00000220: da95 ed3d f003 173e eff5 f0be 801c f1be
00000230: 3a9e fc3e c3e0 84bf 0964 babe b4ae 00bf
00000240: 5111 c2bb 34e8 9bbe a82d 763e 550b 74be
00000250: 3bb5 a13e 637a f6be 5f89 933e 10a4 9bbe
00000260: 29be 483e ea3b 3dbe 935d d7bd 0113 f2be
00000270: 02d4 8f3e 0cb7 27bf 2ea7 02be 4574 e6be
00000280: 6f14 eb3e 8fba 9dbe f507 2dbe ec94 2dbf
00000290: 85c8 b83e f7e8 55bf fab0 86be 3036 28bf
000002a0: d803 033f cf86 4fbf 1d7e 3bbf 0c29 a6bf
000002b0: c914 d4be cbeb 04bf 1775 34bf 9c81 a6bf
000002c0: d22f 2d3f a83a 97bf b229 27be a074 7bbf
000002d0: 8939 80be 541d 33bf 93ff 03be 7a15 86bf
000002e0: a9ab 2e3f d63b a5bf fc86 e43d 5674 61bf
000002f0: 346e 9abe 6f87 39bf bba2 e13c 04b0 64bf
00000300: 0db4 393f 973d 023f ae32 63bd 5d67 643e
00000310: 7e29 183e c467 a8bd 3d95 383c 54b9 493e
00000320: 7558 3b3f 6d20 143f f174 03bd 3b91 083e
00000330: 4cb6 7f3e 59f4 50bd 1a56 cbbd cb01 323e
00000340: 77f7 513f 5e2a 153f 7fa8 8b3d a7b9 59bf
00000350: 2c2b 1f3e 5e46 e9bd 9385 e23d e1ab 6abf
00000360: 43fc 24be 906e 13c0 ff26 24bf 305b 9ebf
00000370: d278 60be fc4b 39bd 77eb 14bf 70f5 8ebf
00000380: 0fa7 01be 728d 2dc0 151b 273e a329 fc3d
00000390: 7a44 83be 6c3e 00be b980 5e3e 9338 7a3d
000003a0: 2760 ccbd 58df 24c0 c350 273d 2855 bb3f
000003b0: 2c7f c7bd 98c2 0ebe 8c28 d33d 2c77 b43f
000003c0: 0f58 c4be 8e9a b83f 63c1 d3bc f3c5 5e3d
000003d0: 56d9 e9bb 316b 96be d438 0ebc b6c2 583d
000003e0: de7f 16be b095 cf3f 9553 55bd b1ca e3bd
000003f0: 0ea7 93be 211c 03bf df7b 94bd 9c2c ecbd

fc1.bias f4 [256]
0.110453516 -0.5891335 -0.43939373 -0.43772042 -0.053695034 -0.46117643 -0.5289903 -0.08110976
0.024111146 -0.14032805 -0.33146337 -0.21557459 -0.032962244 -0.1565775 -0.54168534 -0.4174196
-0.14271067 -0.5982045 -1.0030427 -0.2404466 -0.24731334 -0.7099567 -0.4159056 -0.72260076
-0.64771175 -0.67727685 -0.5381926 -0.24178293 -0.4325207 -0.57418674 -0.3503834 -0.55342585
-0.5303874 0.011572159 -0.21259028 -0.063640445 -0.5423821 -0.44323957 -0.71264887 -0.24549042
-0.22070725 -0.4550951 -0.12265241 -0.31320542 -0.4543971 -0.19002737 -0.54879653 -0.30647045
-0.35652393 -0.53439695 -0.7424797 -0.4283327 0.0027844026 -0.2825399 -0.71630293 -0.022374146
-0.4349686 0.115862586 0.2505945 0.12150426 -0.39510614 -0.6866873 -0.16505457 0.024020528
-0.019145355 -0.17804617 -0.9783515 -0.19016385 -0.5419922 -0.46734542 -0.81030303 -0.84300673
1.7316904 -0.28225634 -0.02147609 -0.07342084 -0.04972282 -0.7173227 -0.47510475 -0.30916965
-0.32665542 -0.4330559 -0.21477589 -0.32809657 -0.60696626 -0.3503009 -0.64103925 -0.03514579
-0.042398468 -0.4025079 -0.80830455 -0.46077234 0.042017292 -0.56763905 -0.3854183 -0.579932
-0.683936 -0.6976797 -0.06904135 -0.17818445 -0.6293126 -0.6838879 -0.31326818 -0.26189274
-0.20428659 -0.5626738 -0.09044741 -1.1241373 -0.06451502 -0.68972373 -0.71526647 -0.33899054
-0.659628 -0.39009267 -0.32739127 -0.8439345 -0.2786465 -0.39283788 -0.5753363 -0.32558098
-0.45848954 -0.5170029 -0.01297974 -0.5223831 -0.5586802 -0.1541492 -0.81663346 -0.034824565
-0.31258285 -0.4536589 -0.16766992 -0.56593055 -0.73195374 -0.4179372 -0.7099408 -0.19989
-0.623062 -0.6217155 -0.066078044 -0.6565873 -0.74008095 0.08003538 -0.5696671 -0.34745675
-0.6585168 0.15769166 -0.3415563 -0.50784755 -0.294606 0.12798616 -0.36070743 0.011577575
-0.5646116 -0.16778363 -0.30543193 -0.28417313 -0.4037335 -0.51077104 -0.25271976 -0.4287072
-0.38225785 -0.2860077 -0.11608803 -0.522882 -0.31363326 -0.33006167 -0.63349056 -0.38293356
-0.46969426 -0.4777314 -0.2972592 -0.042467788 -0.2953647 -0.67173696 -0.42681992 -0.3869641
-0.37041238 -0.5727639 -0.037606955 0.45742744 -0.9295234 -0.42399094 -0.069210105 -0.35440877
-0.24785528 0.11730723 0.052235346 -0.5551377 -0.52112466 -0.20087579 -0.41633645 -0.39322093
-0.37670302 0.17621255 -0.27031204 -0.44730738 -0.67472816 -0.71135914 -0.7503133 -0.5163823
-0.46603435 -0.29170674 -0.21405026 -0.28861868 -0.14958948 -0.19660154 -0.58021724 -0.7112634
-0.46033692 -0.34889233 -0.4916135 -0.8495938 -0.59966165 -0.20773046 -0.3278763 0.4003282
0.03694041 -0.28586945 -0.30166742 -0.15368006 -0.7510523 -0.516739 -0.49343228 -0.3192779
-0.4182604 -0.8767386 -0.38872296 -0.20622562 -0.5585213 -0.6978865 -0.55439276 -0.40399566
-0.48833123 -0.5418112 -0.5187978 -0.005562656 0.09105099 -0.6024369 -0.59052145 -0.519349
0.06722568 -0.9050094 0.3438163 0.113701634 0.085737675 -0.05607683 -0.15801656 -0.9793093
-0.5922694 -0.0016701919 -0.20502318 -0.16475786 -0.7247185 -0.6709458 -0.276169 -1.0950207
00000000: 7435 e23d 74d1 16bf 37f8 e0be e41c e0be
00000010: 53ef 5bbd 511f ecbe e96b 07bf e01c a6bd
00000020: bd84 c53c 28b2 0fbe 91b5 a9be 96bf 5cbe
00000030: 6b03 07bd da55 20be e4ab 0abf 06b8 d5be
00000040: bf22 12be ee23 19bf b463 80bf a237 76be
00000050: b53f 7dbe b9bf 35bf 94f1 d4be 5dfc 38bf
00000060: 70d0 25bf 0462 2dbf fdc6 09bf f295 77be
00000070: 5a73 ddbe e7fd 12bf 7465 b3be 51ad 0dbf
00000080: 78c7 07bf 2799 3d3c 44b1 59be ec55 82bd
00000090: 8ed9 0abf 4cf0 e2be 2870 36bf d761 7bbe
000000a0: 1501 62be 3a02 e9be 3031 fbbd 765c a0be
000000b0: bda6 e8be 8996 42be ee7d 0cbf b2e9 9cbe
000000c0: 4e8a b6be 3dce 08bf 2613 3ebf 6c4e dbbe
000000d0: 867a 363b 12a9 90be a15f 37bf fc49 b7bc
000000e0: 34b4 debe 5d49 ed3d ec4d 803e 3ad7 f83d
000000f0: 5a4b cabe bdca 2fbf 1104 29be b3c6 c43c
00000100: b8d6 9cbc bc51 36be 3e75 7abf 50ba 42be
00000110: 00c0 0abf e647 efbe 0570 4fbf 4acf 57bf
00000120: 08a8 dd3f e783 90be a0ee afbc aa5d 96bd
00000130: 28aa 4bbd 76a2 37bf ee40 f3be 7c4b 9ebe
00000140: 613f a7be 81b9 ddbe 36ee 5bbe 46fc a7be
00000150: 2462 1bbf a45a b3be 261b 24bf 08f5 0fbd
00000160: 04aa 2dbd 8415 cebe 0ced 4ebf 5aea ebbe
00000170: 531a 2c3d cb50 11bf 8c55 c5be 6c76 14bf
00000180: 6e16 2fbf 239b 32bf 8d65 8dbd fc75 36be
00000190: a11a 21bf 4713 2fbf b064 a0be ce16 86be
000001a0: 8130 51be 640b 10bf 7e3c b9bd bbe3 8fbf
000001b0: 7320 84bd bc91 30bf b41b 37bf 2b90 adbe
000001c0: 61dd 28bf 3aba c7be d49f a7be 170c 58bf
000001d0: c1aa 8ebe 0c22 c9be 3d49 13bf 8db2 a6be
000001e0: 24bf eabe 4d5a 04bf faa8 54bc e6ba 05bf
000001f0: aa05 0fbf 4ad9 1dbe e40e 51bf 34a4 0ebd
00000200: dc0a a0be fb45 e8be aab1 2bbe d3e0 10bf
00000210: 5261 3bbf ddfb d5be aebe 35bf f7af 4cbe
00000220: fe80 1fbf bf28 1fbf ed53 87bd 1b16 28bf
00000230: f275 3dbf 97e9 a33d b4d5 11bf dae5 b1be
00000240: 8f94 28bf ec79 213e 78e0 aebe 4c02 02bf
00000250: 99d6 96be ce0e 033e a5ae b8be deaf 3d3c
00000260: 638a 10bf 79cf 2bbe 9361 9cbe 247f 91be
00000270: 28b6 cebe e4c1 02bf 7c64 81be 837f dbbe
00000280: 4db7 c3be 9a6f 92be 90bf edbd 98db 05bf
00000290: 8a94 a0be d8fd a8be 702c 22bf de0f c4be
000002a0: c47b f0be 3699 f4be 5c32 98be b4f2 2dbd
000002b0: 0b3a 97be f4f6 2bbf 2488 dabe 2920 c6be
000002c0: b1a6 bdbe a8a0 12bf c009 1abd ee33 ea3e
000002d0: 3ff5 6dbf 5715 d9be 07be 8dbd 1175 b5be
000002e0: c6cd 7dbe c63e f03d bbf4 553d 811d 0ebf
000002f0: 6d68 05bf 62b2 4dbe 0d2a d5be 4154 c9be
00000300: 38df c0be 1071 343e 5766 8abe 7905 e5be
00000310: fcba 2cbf a21b 36bf 8814 40bf a131 04bf
00000320: 0e9c eebe 965a 95be fe2f 5bbe d4c5 93be
00000330: fc2d 19be ea51 49be 1e89 14bf 5c15 36bf
00000340: 48b1 ebbe 04a2 b2be c4b4 fbbe fb7e 59bf
00000350: 6d83 19bf 4bb7 54be 67df a7be d1f7 cc3e
00000360: d44e 173d 7b5d 92be 2774 9abe 4e5e 1dbe
00000370: f744 40bf 0249 04bf 28a3 fcbe 6578 a3be
00000380: 3a26 d6be f171 60bf b206 c7be cf2c 53be
00000390: 40fb 0ebf b1a8 32bf afec 0dbf 85d8 cebe
000003a0: 8d06 fabe 24b4 0abf efcf 04bf f146 b6bb
000003b0: f178 ba3d 4e39 1abf 6a2c 17bf 0ef4 04bf
000003c0: 9ead 893d b2ae 67bf b108 b03e 67dc e83d
000003d0: 3c97 af3d d1b0 65bd 18cf 21be 04b4 7abf
000003e0: f89e 17bf 57ea daba 99f1 51be 49b6 28be
000003f0: 2787 39bf 1bc3 2bbf 0666 8dbe a329 8cbf

fc2.weight f4 [128, 256]
-0.18667187 -0.30904356 0.9045065 -0.15051204 -0.5758551 0.36201924 0.88346934 -0.8924277
-0.11128997 -0.925009 0.31567654 0.2663743 0.11131462 -0.66144174 0.3549886 -1.0236579
-0.98629135 0.09297933 -1.0166957 0.009956749 -0.07413872 0.19290614 0.08922128 0.47861844
-1.6791078 -0.15801641 0.7577881 0.10428454 -0.31387687 -0.7134568 -0.4046622 -0.36575487
0.6077423 0.3678012 -0.71883285 -0.35175842 -0.6036091 -1.1179413 0.029733911 -0.9032968
-0.48025393 0.41860032 -0.54298776 -0.022177557 -0.4934598 -0.1735865 0.2729027 0.6823113
0.4144938 0.61901826 0.06707845 0.96150655 0.14368631 -0.5943626 -0.6511337 -0.71926725
-1.2656946 -0.35125434 -0.97196865 -1.2180113 0.2644143 -0.67727333 0.45184422 0.24191765
0.5264789 1.0473642 0.7636667 -0.5620035 -0.08456031 -0.19948356 0.100977495 -0.25786024
-0.2455669 -0.03801586 0.5545634 -1.319776 -0.18110687 -0.092276886 -1.0942315 -0.7430601
0.28400826 -0.45856005 0.05522686 -0.67492 -0.7721607 0.73283523 0.40770522 -1.1945035
-0.6586044 0.6960916 0.100559935 0.4865667 0.6284529 0.08940244 0.26490468 -1.3710577
0.45108056 0.21120821 -0.95440894 -0.17693484 -0.94610864 -1.1518064 -0.3955536 -0.081583336
-0.19806066 -1.693079 0.57976586 -0.26301134 -0.8633493 0.5020397 -0.16556303 -1.1207416
-0.21605727 -0.28839362 -0.0061697285 -0.14249963 0.028383441 0.12696344 0.42403597 -0.44752753
-0.75281787 -0.11384787 -0.21002375 0.27594292 -1.4089495 0.0031503064 -0.6926138 -0.16467297
-0.21000956 0.42278916 -0.7359559 -0.45602265 -0.90755427 0.12440431 0.00078288006 -1.0136706
-0.16436774 -0.521988 -0.1817152 -0.088714235 -0.5788181 0.10703182 -0.31820428 0.4259436
-0.06990632 -1.5710576 -0.109441906 0.31226355 -0.12119638 0.6727527 0.76611274 0.32305843
-0.46246955 1.0149889 -1.388074 0.5761256 -0.06559276 -0.76938933 0.27633807 -0.026045725
-0.6170659 -0.15885422 0.8774909 -0.3568988 -1.0482668 -0.6283616 -0.48607573 -0.014902752
0.31520295 0.40691578 1.1224102 -0.814837 -0.44330928 -0.6178844 0.44869065 0.5849215
0.46146056 -0.5481211 -0.57785815 0.2697634 0.012617838 -0.6821894 0.28091913 0.35501608
-0.09411615 -0.75246453 0.0019512041 0.55913955 0.82974094 -1.2617501 -0.094236605 0.055498887
-0.20806931 -0.02694569 -0.16774866 0.07255805 -0.26005965 -0.008361415 0.20230159 -0.3295884
0.36690843 -0.03744377 0.10160528 0.5154929 -0.11407822 -0.26955494 -0.9028926 -0.5794508
0.29827502 -0.46059337 -0.6953645 -0.7649046 -0.416836 -0.17096967 0.25860307 -0.03332568
-0.48752514 -0.8547195 0.5834672 0.10799713 0.14009942 0.030782674 0.16589086 -1.3981951
-0.36027735 -0.42230982 0.8608018 -0.21819802 -2.0118544 -1.6254303 0.16762249 -0.1678926
-0.3575272 0.17477582 -0.7909961 0.19835302 -0.15373862 -0.7495073 -0.08614376 -0.22703758
-0.5347594 0.07665302 -0.17482667 0.14728065 -0.71535957 0.011355763 -0.33231097 0.37606984
-0.8694538 0.33362728 0.6894346 0.4430111 -1.0943681 -0.07990707 0.3997347 -0.48573056
00000000: e926 3fbe f53a 9ebe bd8d 673f d41f 1abe
00000010: 3d6b 13bf 965a b93e 0c2b 623f 2476 64bf
00000020: ffeb e3bd 64cd 6cbf 5ba0 a13e 3662 883e
00000030: ebf8 e33d 3f54 29bf 11c1 b53e 3907 83bf
00000040: 977d 7cbf f26b be3d 1623 82bf a221 233c
00000050: 0bd6 97bd 3089 453e a5b9 b63d 7a0d f53e
00000060: 01ed d6bf 0ecf 21be 67fe 413f 2293 d53d
00000070: 78b4 a0be 1ba5 36bf e22f cfbe 3944 bbbe
00000080: 0095 1b3f 7050 bc3e 6e05 38bf ae19 b4be
00000090: 2086 1abf b318 8fbf 8894 f33c 763e 67bf
000000a0: d8e3 f5be c852 d63e 3f01 0bbf b5ad b5bc
000000b0: c3a6 fcbe a9c0 31be e7b9 8b3e f4ab 2e3f
000000c0: 8838 d43e fb77 1e3f 6d60 893d 4b25 763f
000000d0: 8122 133e 2628 18bf b3b0 26bf e621 38bf
000000e0: 4802 a2bf 9cd7 b3be f0d2 78bf cbe7 9bbf
000000f0: 5061 873e c961 2dbf 2058 e73e 43b9 773e
00000100: 52c7 063f 0810 863f a97f 433f 76df 0fbf
00000110: f52d adbd 6b45 4cbe 4acd ce3d 4206 84be
00000120: e475 7bbe 85b6 1bbd def7 0d3f 6cee a8bf
00000130: 1474 39be aafb bcbd c70f 8cbf 3039 3ebf
00000140: 8869 913e 62c8 eabe 8f35 623d 8fc7 2cbf
00000150: 53ac 45bf 179b 3b3f bdbe d03e 7ee5 98bf
00000160: 4c9a 28bf 0f33 323f 5ef2 cd3d 451f f93e
00000170: 4ae2 203f a018 b73d 96a1 873e d27e afbf
00000180: 08f4 e63e f746 583e 2554 74bf 682e 35be
00000190: 2d34 72bf 646e 93bf 0086 cabe 2a15 a7bd
000001a0: 6ad0 4abe d0b6 d8bf 896b 143f 6ca9 86be
000001b0: 7604 5dbf ac85 003f 5b89 29be 7674 8fbf
000001c0: 1e3e 5dbe 54a8 93be 6f2b cabb 6ceb 11be
000001d0: 6484 e83c b402 023e 3e1b d93e 5422 e5be
000001e0: acb8 40bf 1229 e9bd 7710 57be 6448 8d3e
000001f0: 7558 b4bf 5f75 4e3b 234f 31bf 08a0 28be
00000200: bf0c 57be d277 d83e 9b67 3cbf cd7b e9be
00000210: 7a55 68bf b0c7 fe3d 313a 4d3a f5bf 81bf
00000220: 0450 28be 01a1 05bf 8d13 3abe cfaf b5bd
00000230: 6c2d 14bf 8033 db3d aceb a2be 4815 da3e
00000240: 0b2b 8fbd 6a18 c9bf 1423 e0bd 02e1 9f3e
00000250: cf35 f8bd 8539 2c3f f71f 443f ea67 a53e
00000260: cfc8 ecbe 28eb 813f 69ac b1bf f87c 133f
00000270: 7f55 86bd b3f6 44bf 2f7c 8d3e d85d d5bc
00000280: 08f8 1dbf aeaa 22be 3ea3 603f 71bb b6be
00000290: 9b2d 86bf 4edc 20bf ebde f8be ac2a 74bc
000002a0: 4862 a13e 4457 d03e 23ab 8f3f 2899 50bf
000002b0: 6ff9 e2be ac2d 1ebf c8ba e53e 6abd 153f
000002c0: 8f44 ec3e aa51 0cbf 83ee 13bf 6e1e 8a3e
000002d0: 0cbb 4e3c f7a3 2ebf a2d4 8f3e abc4 b53e
000002e0: f8bf c0bd 84a1 40bf 8cbf ff3a c523 0f3f
000002f0: e769 543f 0781 a1bf 1fff c0bd cd52 633d
00000300: 1f10 55be 35bd dcbc 4ec6 2bbe 5199 943d
00000310: 8a26 85be 51fe 08bc 2628 4f3e d0bf a8be
00000320: 6cdb bb3e a35e 19bd 6e16 d03d 58f7 033f
00000330: d8a1 e9bd 1b03 8abe f823 67bf e356 14bf
00000340: 81b7 983e e5d2 ebbe 6803 32bf cad0 43bf
00000350: 876b d5be ac12 2fbe 9f67 843e 8280 08bd
00000360: e59c f9be e6ce 5abf 1b5e 153f 992d dd3d
00000370: 3976 0f3e f22b fc3c 4bdf 293e 0ff8 b2bf
00000380: 4676 b8be fe38 d8be 825d 5c3f 4d6f 5fbe
00000390: 39c2 00c0 1a0e d0bf 3ba5 2b3e 0aec 2bbe
000003a0: ce0d b7be 6ff8 323e b87e 4abf 0e1d 4b3e
000003b0: a86d 1dbe b6df 3fbf 246c b0bd 8a7c 68be
000003c0: fee5 08bf 42fc 9c3d c305 33be bdd0 163e
000003d0: ce21 37bf 860d 3a3c aa24 aabe 3a8c c03e
000003e0: 8694 5ebf 32d1 aa3e c97e 303f 5ad2 e23e
000003f0: 4114 8cbf 51a6 a3bd 07aa cc3e adb1 f8be

fc2.bias f4 [128]
-0.08882642 0.018957915 -0.5455824 -0.21110632 -0.31927097 -0.90249336 -0.55252135 -0.24371104
-0.24405736 -0.09111298 -0.4909961 0.1918003 -0.13069908 -0.9613551 -0.014798037 -0.19057143
-0.32467443 -0.05411219 -0.34389564 -0.60938853 -0.15446994 -0.2039513 -0.5970816 -0.48359492
0.088727176 -0.46128488 -0.24881539 -0.20545046 -0.67582095 -0.2200078 -0.15965354 -0.2913321
-0.006468313 -0.8366119 0.14058144 -0.75993246 -0.63245505 0.014777564 -0.46002156 -0.37803182
-0.37358874 -0.017442442 0.04722172 -0.9950822 -0.044426065 -0.28742027 -0.4845433 -0.5407688
-0.87799346 -1.284278 -0.51735556 -0.42793223 -0.6340344 -0.51829135 -0.40947193 -0.96330464
-0.14603104 -0.15539475 -0.6853503 -0.29712358 -0.7292375 -0.61828613 -0.4631054 0.12303778
0.121788524 -0.36700192 -0.35590893 -0.9678268 -0.13982911 -0.2192869 -0.07753765 -0.9208947
-0.14527123 -1.0702844 -0.45229682 -0.40652323 -1.027228 -0.59163666 0.09837696 -0.062327985
-0.5053604 -0.4221644 -0.062215738 -0.3134233 -0.5683854 -0.18124056 -0.23517047 -0.2233536
-0.3776877 -0.89863247 -0.023160145 -0.91736776 -0.44283587 -0.9052199 -0.85262376 0.08595702
0.100265615 -0.19898851 -0.24713609 -0.18577306 -0.29925007 -0.37264186 -0.14981836 -0.86641175
-0.21454906 -0.3534365 -0.0901662 -0.5410065 -0.9127441 -0.49435148 -0.72094923 0.17771277
-0.3262968 -1.1387408 0.028847722 -0.3618251 -0.19485284 -0.4321247 -0.3811575 -0.3377886
-0.41123268 -0.17954461 -1.1051357 -0.55016273 0.30818698 -0.25035712 -0.06308161 -0.6899155
00000000: a0ea b5bd a14d 9b3c 4aab 0bbf 412c 58be
00000010: 7c77 a3be ce09 67bf 0a72 0dbf 638f 79be
00000020: 2cea 79be 7199 babd d763 fbbe 4c67 443e
00000030: fbd5 05be 5e1b 76bf 7773 72bc 2825 43be
00000040: ba3b a6be bea4 5dbd 1713 b0be e300 1cbf
00000050: 5e2d 1ebe 9cd8 50be 57da 18bf c199 f7be
00000060: 98b6 b53d 882d ecbe 76c9 7ebe 9b61 52be
00000070: 9a02 2dbf ba49 61be 387c 23be 7b29 95be
00000080: 24f4 d3bb 332c 56bf 95f4 0f3e ef8a 42bf
00000090: 93e8 21bf 991d 723c f287 ebbe 638d c1be
000000a0: 0647 bfbe 74e3 8ebc 906b 413d b5bd 7ebf
000000b0: 1bf8 35bd c028 93be 0f16 f8be d36f 0abf
000000c0: 2ec4 60bf 3963 a4bf 6a71 04bf ef19 dbbe
000000d0: 1450 22bf beae 04bf 4ea6 d1be 229b 76bf
000000e0: 2989 15be cd1f 1fbe 1e73 2fbf 9520 98be
000000f0: 4faf 3abf 0048 1ebf 271c edbe 3bfb fb3d
00000100: 436c f93d ade7 bbbe b239 b6be 7fc3 77bf
00000110: 5d2f 0fbe bf8c 60be 0fcc 9ebd c1bf 6bbf
00000120: fbc1 14be 14ff 88bf 7393 e7be d023 d0be
00000130: 357c 83bf 8075 17bf dc79 c93d a14b 7fbd
00000140: 4d5f 01bf ef25 d8be eed5 7ebd 0579 a0be
00000150: b581 11bf 2097 39be 87d0 70be ceb6 64be
00000160: 4860 c1be c70c 66bf 58ba bdbc 9dd8 6abf
00000170: 62bb e2be 7ebc 67bf 8d45 5abf 3c0a b03d
00000180: 0f58 cd3d a5c3 4bbe 3e11 7dbe 4b3b 3ebe
00000190: 4e37 99be eaca bebe fc69 19be 29cd 5dbf
000001a0: c0b2 5bbe a1f5 b4be 0fa9 b8bd 677f 0abf
000001b0: 99a9 69bf a31b fdbe 2190 38bf 56fa 353e
000001c0: 6010 a7be 42c2 91bf 0f52 ec3c 2441 b9be
000001d0: 8187 47be 733f ddbe 1327 c3be a1f2 acbe
000001e0: 178d d2be 8bda 37be 1675 8dbf 77d7 0cbf
000001f0: afca 9d3e cf2e 80be ee30 81bd 4d9e 30bf

fc3.weight f4 [2, 128]
-0.3512774 0.037706383 0.42525363 -0.41619307 -0.60879046 0.52207917 -0.74490494 -0.55036956
-0.32597336 0.02675369 0.42961493 -0.68353087 -0.42273918 0.4320339 -0.021622675 -0.0284379
-0.06186519 0.017042767 0.3430298 -0.22856665 -0.4021228 0.2168967 0.49687985 0.27908933
0.08362607 -0.56602657 0.0040375926 0.52487975 -0.3548825 -0.1291038 -0.23962048 0.019221148
-0.22099574 0.33510536 0.056946766 -0.43742523 -0.25725788 -0.042160936 0.32464087 0.2871106
0.3627556 0.02089634 0.6143928 0.3340545 0.13184513 0.25708446 0.28084064 -0.589783
0.11324402 0.34733626 0.14251482 -0.08554623 -0.46741834 -0.28448638 -0.45321062 0.23183666
0.024564197 -0.21414264 0.09677727 0.11359551 -0.29183012 0.1401982 0.37528798 -0.25980297
-0.27376407 0.0027361447 -0.71276647 0.3553994 -0.054029837 -0.18780482 -0.4802133 0.33647436
-0.11438707 0.32327604 -0.75255245 0.47365314 0.43652704 -0.6278394 0.123354934 0.34378126
-0.3613251 0.39490604 0.25487506 -0.058937363 0.51038927 -0.76275676 0.011505902 0.2597287
0.5337327 0.38905305 -0.03899034 0.2922599 -0.43301988 -0.5788512 0.792122 -0.4564277
0.4767552 0.36813122 -0.04651473 -0.046392694 0.70386255 -0.67444026 0.030811643 0.020709671
-0.26725757 0.04498707 -0.079583354 0.0024384314 -0.10736079 0.01716051 0.27010086 -0.038916107
-0.4430204 0.3258567 0.034050692 -0.13187411 0.008636229 -0.5217972 0.026189407 0.232342
0.026088102 -0.2787281 0.3911658 -0.11362283 -0.3148261 -0.4070927 -0.2519619 0.4660374
0.09610677 -0.43209925 -0.6180508 -0.019621458 0.1150113 -0.1512145 0.5456201 -0.24036017
0.44077843 0.0048558163 0.16325964 0.58108443 -0.8199912 -0.6721716 -0.0077853333 -0.975857
0.69263184 -0.077915534 0.47616103 0.8707458 -0.3908918 1.1119547 -1.0976754 -0.8033768
0.80719715 -0.2527929 0.109024994 0.25605074 0.66347474 -0.9233998 0.47120908 -0.12956977
-0.6974562 -1.1976091 0.7399047 1.158839 -0.2640044 0.8117563 -1.3160889 -0.12784326
-0.131687 -0.0023967808 -0.73418957 -0.44943017 0.34714752 -0.9885471 -0.8315158 0.27923882
-0.6277452 -0.6656119 0.902986 -1.0966704 -0.16864118 -0.45217094 -0.1887144 -0.3594649
-0.021527167 -0.41963723 -0.15023912 0.27069542 0.14040415 -0.6689471 -0.18676281 0.16469844
0.4843053 0.76936936 0.36766893 -0.4954175 0.375808 0.054514673 0.27687076 -0.24891081
-0.062094755 -0.58766 0.3897304 -0.4073614 0.2209027 0.7256899 0.66563267 0.047802784
0.35145217 0.15401042 0.36856312 -0.2964982 -0.80848515 -0.020715568 -0.73280495 -0.82103765
0.35107467 -0.24903838 -0.40858516 -0.78475493 -0.7095253 1.453626 -0.5280068 0.73688674
-0.8344421 -0.9050993 -0.47264892 -0.6285239 -0.6647965 -0.18418352 0.013632916 -0.42995426
-0.6195372 -0.5359077 -1.1337017 -0.6058284 0.43730593 -0.38130552 0.0017317854 -0.63424563
-0.32077655 -0.4174749 -0.8268295 -0.90181226 -0.42707837 -0.39254394 -0.90913504 -0.035605013
0.7107048 -0.13353479 -1.0642761 0.14932187 -0.21570376 0.53227264 -0.28013262 -0.45859194
00000000: a2da b3be 0272 1a3d d8ba d93e 4217 d5be
00000010: b1d9 1bbf fba6 053f 17b2 3ebf 05e5 0cbf
00000020: fbe5 a6be 8e2a db3c 7df6 db3e e1fb 2ebf
00000030: 4571 d8be 8c33 dd3e 0922 b1bc 99f6 e8bc
00000040: 5a66 7dbd 469d 8b3c 9aa1 af3e 600d 6abe
00000050: 0ae3 cdbe 2b1a 5e3e 0967 fe3e cce4 8e3e
00000060: 2544 ab3d 1ee7 10bf c84d 843b 855e 063f
00000070: 29b3 b5be c933 04be 125f 75be ab75 9d3c
00000080: b54c 62be ee92 ab3e 0341 693d 33f6 dfbe
00000090: 4eb7 83be f2b0 2cbd 5437 a63e 2900 933e
000000a0: 1abb b93e cd2e ab3c d948 1d3f 3109 ab3e
000000b0: 6902 073e 93a0 833e 58ca 8f3e 05fc 16bf
000000c0: 7bec e73d 0fd6 b13e 68ef 113e dd32 afbd
000000d0: 7551 efbe 33a8 91be 390b e8be 9766 6d3e
000000e0: db3a c93c 3548 5bbe 2933 c63d c3a4 e83d
000000f0: c26a 95be 1e90 0f3e bf25 c03e e504 85be
00000100: ce2a 8cbe e450 333b dd77 36bf e9f6 b53e
00000110: 644e 5dbd e84f 40be 85de f5be 5e46 ac3e
00000120: c543 eabd 7084 a53e 47a7 40bf aa82 f23e
00000130: 7980 df3e 15ba 20bf 83a1 fc3d 1904 b03e
00000140: 9aff b8be 2031 ca3e fc7e 823e 4e68 71bd
00000150: dfa8 023f 0744 43bf 4083 3c3c 29fb 843e
00000160: b5a2 083f f631 c73e 56b4 1fbd 17a3 953e
00000170: c8b4 ddbe 982f 14bf 82c8 4a3f e4b0 e9be
00000180: 4219 f43e b27b bc3e 3b86 3ebd 4406 3ebd
00000190: 5630 343f 1ea8 2cbf b368 fc3c 54a7 a93c
000001a0: fcd5 88be 5d44 383d 99fc a2bd 17ce 1f3b
000001b0: f9df dbbd 3394 8c3c a94a 8a3e 7f66 1fbd
000001c0: 92d3 e2be b0d6 a63e bd78 0b3d 020a 07be
000001d0: f87e 0d3c 8094 05bf 2b8b d63c 10eb 6d3e
000001e0: b7b6 d53c 73b5 8ebe e246 c83e 16b3 e8bd
000001f0: e330 a1be 746e d0be 2601 81be 749c ee3e
00000200: a0d3 c43d 1d3c ddbe 9438 1ebf 2ebd a0bc
00000210: 0b8b eb3d f9d7 1abe c2ad 0b3f fa20 76be
00000220: b6ad e13e 8a1d 9f3b 892d 273e f3c1 143f
00000230: f1ea 51bf 7013 2cbf 1c1c ffbb c4d1 79bf
00000240: 5250 313f 2e92 9fbd 61cb f33e 32e9 5e3f
00000250: f822 c8be 8854 8e3f a180 8cbf 1aaa 4dbf
00000260: 79a4 4e3f 126e 81be 7f48 df3d 1519 833e
00000270: 7bd9 293f ee63 6cbf 5142 f13e f0ad 04be
00000280: 7d8c 32bf 414b 99bf 656a 3d3f d654 943f
00000290: 962b 87be 43cf 4f3f 9a75 a8bf 58e9 02be
000002a0: f5d8 06be 4f13 1dbb d9f3 3bbf b61b e6be
000002b0: 52bd b13e 6c11 7dbf 38de 54bf 64f8 8e3e
000002c0: e9b3 20bf 8b65 2abf 172a 673f b25f 8cbf
000002d0: 46b0 2cbe f382 e7be 593e 41be c90b b8be
000002e0: be59 b0bc b1da d6be 49d8 19be 9798 8a3e
000002f0: 1bc6 0f3e 1e40 2bbf c03e 3fbe b5a6 283e
00000300: ddf6 f73e 64f5 443f 1a3f bc3e 5da7 fdbe
00000310: e869 c03e c74a 5f3d 01c2 8d3e 7ae2 7ebe
00000320: 1257 7ebd e370 16bf be8a c73e ac91 d0be
00000330: 5134 623e d0c6 393f e766 2a3f dacc 433d
00000340: 8af1 b33e e8b4 1d3e 4eb4 bc3e 9dce 97be
00000350: e2f8 4ebf b2b3 a9bc 1b99 3bbf 862f 52bf
00000360: 0fc0 b33e eb03 7fbe 1332 d1be b3e5 48bf
00000370: 73a3 35bf 6b10 ba3f 742b 07bf 9ca4 3c3f
00000380: ff9d 55bf 96b4 67bf 0aff f1be f1e6 20bf
00000390: 1a30 2abf 9b9a 3cbe 985c 5f3c f722 dcbe
000003a0: fd99 1ebf 3f31 09bf 231d 91bf 9217 1bbf
000003b0: 90e6 df3e 7a3a c3be 13fd e23a ec5d 22bf
000003c0: d33c a4be 45bf d5be 19ab 53bf 2bdd 66bf
000003d0: 04aa dabe 85fb c8be 13bd 68bf 90d6 11bd
000003e0: c0f0 353f 58bd 08be 333a 88bf d5e7 183e
000003f0: 72e1 5cbe 0543 083f 8b6d 8fbe 90cc eabe

fc3.bias f4 [2]
0.063072555 1.7566295
00000000: 2f2c 813d 3cd9 e03f
